ir_version: 9
producer_name: "pytorch"
producer_version: "2.6.0"
graph {
  node {
    input: "images"
    input: "model.0.conv.weight"
    input: "model.0.conv.bias"
    output: "/model.0/conv/Conv_output_0"
    name: "/model.0/conv/Conv"
    op_type: "Conv"
    attribute {
      name: "dilations"
      ints: 1
      ints: 1
      type: INTS
    }
    attribute {
      name: "group"
      i: 1
      type: INT
    }
    attribute {
      name: "kernel_shape"
      ints: 3
      ints: 3
      type: INTS
    }
    attribute {
      name: "pads"
      ints: 1
      ints: 1
      ints: 1
      ints: 1
      type: INTS
    }
    attribute {
      name: "strides"
      ints: 2
      ints: 2
      type: INTS
    }
  }
  node {
    input: "/model.0/conv/Conv_output_0"
    output: "/model.0/act/Sigmoid_output_0"
    name: "/model.0/act/Sigmoid"
    op_type: "Sigmoid"
  }
  node {
    input: "/model.0/conv/Conv_output_0"
    input: "/model.0/act/Sigmoid_output_0"
    output: "/model.0/act/Mul_output_0"
    name: "/model.0/act/Mul"
    op_type: "Mul"
  }
  node {
    input: "/model.0/act/Mul_output_0"
    input: "model.1.conv.weight"
    input: "model.1.conv.bias"
    output: "/model.1/conv/Conv_output_0"
    name: "/model.1/conv/Conv"
    op_type: "Conv"
    attribute {
      name: "dilations"
      ints: 1
      ints: 1
      type: INTS
    }
    attribute {
      name: "group"
      i: 1
      type: INT
    }
    attribute {
      name: "kernel_shape"
      ints: 3
      ints: 3
      type: INTS
    }
    attribute {
      name: "pads"
      ints: 1
      ints: 1
      ints: 1
      ints: 1
      type: INTS
    }
    attribute {
      name: "strides"
      ints: 2
      ints: 2
      type: INTS
    }
  }
  node {
    input: "/model.1/conv/Conv_output_0"
    output: "/model.1/act/Sigmoid_output_0"
    name: "/model.1/act/Sigmoid"
    op_type: "Sigmoid"
  }
  node {
    input: "/model.1/conv/Conv_output_0"
    input: "/model.1/act/Sigmoid_output_0"
    output: "/model.1/act/Mul_output_0"
    name: "/model.1/act/Mul"
    op_type: "Mul"
  }
  node {
    input: "/model.1/act/Mul_output_0"
    input: "model.2.cv1.conv.weight"
    input: "model.2.cv1.conv.bias"
    output: "/model.2/cv1/conv/Conv_output_0"
    name: "/model.2/cv1/conv/Conv"
    op_type: "Conv"
    attribute {
      name: "dilations"
      ints: 1
      ints: 1
      type: INTS
    }
    attribute {
      name: "group"
      i: 1
      type: INT
    }
    attribute {
      name: "kernel_shape"
      ints: 1
      ints: 1
      type: INTS
    }
    attribute {
      name: "pads"
      ints: 0
      ints: 0
      ints: 0
      ints: 0
      type: INTS
    }
    attribute {
      name: "strides"
      ints: 1
      ints: 1
      type: INTS
    }
  }
  node {
    input: "/model.2/cv1/conv/Conv_output_0"
    output: "/model.2/cv1/act/Sigmoid_output_0"
    name: "/model.2/cv1/act/Sigmoid"
    op_type: "Sigmoid"
  }
  node {
    input: "/model.2/cv1/conv/Conv_output_0"
    input: "/model.2/cv1/act/Sigmoid_output_0"
    output: "/model.2/cv1/act/Mul_output_0"
    name: "/model.2/cv1/act/Mul"
    op_type: "Mul"
  }
  node {
    input: "/model.2/cv1/act/Mul_output_0"
    input: "onnx::Split_185"
    output: "/model.2/Split_output_0"
    output: "/model.2/Split_output_1"
    name: "/model.2/Split"
    op_type: "Split"
    attribute {
      name: "axis"
      i: 1
      type: INT
    }
  }
  node {
    input: "/model.2/Split_output_1"
    input: "model.2.m.0.cv1.conv.weight"
    input: "model.2.m.0.cv1.conv.bias"
    output: "/model.2/m.0/cv1/conv/Conv_output_0"
    name: "/model.2/m.0/cv1/conv/Conv"
    op_type: "Conv"
    attribute {
      name: "dilations"
      ints: 1
      ints: 1
      type: INTS
    }
    attribute {
      name: "group"
      i: 1
      type: INT
    }
    attribute {
      name: "kernel_shape"
      ints: 3
      ints: 3
      type: INTS
    }
    attribute {
      name: "pads"
      ints: 1
      ints: 1
      ints: 1
      ints: 1
      type: INTS
    }
    attribute {
      name: "strides"
      ints: 1
      ints: 1
      type: INTS
    }
  }
  node {
    input: "/model.2/m.0/cv1/conv/Conv_output_0"
    output: "/model.2/m.0/cv1/act/Sigmoid_output_0"
    name: "/model.2/m.0/cv1/act/Sigmoid"
    op_type: "Sigmoid"
  }
  node {
    input: "/model.2/m.0/cv1/conv/Conv_output_0"
    input: "/model.2/m.0/cv1/act/Sigmoid_output_0"
    output: "/model.2/m.0/cv1/act/Mul_output_0"
    name: "/model.2/m.0/cv1/act/Mul"
    op_type: "Mul"
  }
  node {
    input: "/model.2/m.0/cv1/act/Mul_output_0"
    input: "model.2.m.0.cv2.conv.weight"
    input: "model.2.m.0.cv2.conv.bias"
    output: "/model.2/m.0/cv2/conv/Conv_output_0"
    name: "/model.2/m.0/cv2/conv/Conv"
    op_type: "Conv"
    attribute {
      name: "dilations"
      ints: 1
      ints: 1
      type: INTS
    }
    attribute {
      name: "group"
      i: 1
      type: INT
    }
    attribute {
      name: "kernel_shape"
      ints: 3
      ints: 3
      type: INTS
    }
    attribute {
      name: "pads"
      ints: 1
      ints: 1
      ints: 1
      ints: 1
      type: INTS
    }
    attribute {
      name: "strides"
      ints: 1
      ints: 1
      type: INTS
    }
  }
  node {
    input: "/model.2/m.0/cv2/conv/Conv_output_0"
    output: "/model.2/m.0/cv2/act/Sigmoid_output_0"
    name: "/model.2/m.0/cv2/act/Sigmoid"
    op_type: "Sigmoid"
  }
  node {
    input: "/model.2/m.0/cv2/conv/Conv_output_0"
    input: "/model.2/m.0/cv2/act/Sigmoid_output_0"
    output: "/model.2/m.0/cv2/act/Mul_output_0"
    name: "/model.2/m.0/cv2/act/Mul"
    op_type: "Mul"
  }
  node {
    input: "/model.2/Split_output_1"
    input: "/model.2/m.0/cv2/act/Mul_output_0"
    output: "/model.2/m.0/Add_output_0"
    name: "/model.2/m.0/Add"
    op_type: "Add"
  }
  node {
    input: "/model.2/Split_output_0"
    input: "/model.2/Split_output_1"
    input: "/model.2/m.0/Add_output_0"
    output: "/model.2/Concat_output_0"
    name: "/model.2/Concat"
    op_type: "Concat"
    attribute {
      name: "axis"
      i: 1
      type: INT
    }
  }
  node {
    input: "/model.2/Concat_output_0"
    input: "model.2.cv2.conv.weight"
    input: "model.2.cv2.conv.bias"
    output: "/model.2/cv2/conv/Conv_output_0"
    name: "/model.2/cv2/conv/Conv"
    op_type: "Conv"
    attribute {
      name: "dilations"
      ints: 1
      ints: 1
      type: INTS
    }
    attribute {
      name: "group"
      i: 1
      type: INT
    }
    attribute {
      name: "kernel_shape"
      ints: 1
      ints: 1
      type: INTS
    }
    attribute {
      name: "pads"
      ints: 0
      ints: 0
      ints: 0
      ints: 0
      type: INTS
    }
    attribute {
      name: "strides"
      ints: 1
      ints: 1
      type: INTS
    }
  }
  node {
    input: "/model.2/cv2/conv/Conv_output_0"
    output: "/model.2/cv2/act/Sigmoid_output_0"
    name: "/model.2/cv2/act/Sigmoid"
    op_type: "Sigmoid"
  }
  node {
    input: "/model.2/cv2/conv/Conv_output_0"
    input: "/model.2/cv2/act/Sigmoid_output_0"
    output: "/model.2/cv2/act/Mul_output_0"
    name: "/model.2/cv2/act/Mul"
    op_type: "Mul"
  }
  node {
    input: "/model.2/cv2/act/Mul_output_0"
    input: "model.3.conv.weight"
    input: "model.3.conv.bias"
    output: "/model.3/conv/Conv_output_0"
    name: "/model.3/conv/Conv"
    op_type: "Conv"
    attribute {
      name: "dilations"
      ints: 1
      ints: 1
      type: INTS
    }
    attribute {
      name: "group"
      i: 1
      type: INT
    }
    attribute {
      name: "kernel_shape"
      ints: 3
      ints: 3
      type: INTS
    }
    attribute {
      name: "pads"
      ints: 1
      ints: 1
      ints: 1
      ints: 1
      type: INTS
    }
    attribute {
      name: "strides"
      ints: 2
      ints: 2
      type: INTS
    }
  }
  node {
    input: "/model.3/conv/Conv_output_0"
    output: "/model.3/act/Sigmoid_output_0"
    name: "/model.3/act/Sigmoid"
    op_type: "Sigmoid"
  }
  node {
    input: "/model.3/conv/Conv_output_0"
    input: "/model.3/act/Sigmoid_output_0"
    output: "/model.3/act/Mul_output_0"
    name: "/model.3/act/Mul"
    op_type: "Mul"
  }
  node {
    input: "/model.3/act/Mul_output_0"
    input: "model.4.cv1.conv.weight"
    input: "model.4.cv1.conv.bias"
    output: "/model.4/cv1/conv/Conv_output_0"
    name: "/model.4/cv1/conv/Conv"
    op_type: "Conv"
    attribute {
      name: "dilations"
      ints: 1
      ints: 1
      type: INTS
    }
    attribute {
      name: "group"
      i: 1
      type: INT
    }
    attribute {
      name: "kernel_shape"
      ints: 1
      ints: 1
      type: INTS
    }
    attribute {
      name: "pads"
      ints: 0
      ints: 0
      ints: 0
      ints: 0
      type: INTS
    }
    attribute {
      name: "strides"
      ints: 1
      ints: 1
      type: INTS
    }
  }
  node {
    input: "/model.4/cv1/conv/Conv_output_0"
    output: "/model.4/cv1/act/Sigmoid_output_0"
    name: "/model.4/cv1/act/Sigmoid"
    op_type: "Sigmoid"
  }
  node {
    input: "/model.4/cv1/conv/Conv_output_0"
    input: "/model.4/cv1/act/Sigmoid_output_0"
    output: "/model.4/cv1/act/Mul_output_0"
    name: "/model.4/cv1/act/Mul"
    op_type: "Mul"
  }
  node {
    input: "/model.4/cv1/act/Mul_output_0"
    input: "onnx::Split_205"
    output: "/model.4/Split_output_0"
    output: "/model.4/Split_output_1"
    name: "/model.4/Split"
    op_type: "Split"
    attribute {
      name: "axis"
      i: 1
      type: INT
    }
  }
  node {
    input: "/model.4/Split_output_1"
    input: "model.4.m.0.cv1.conv.weight"
    input: "model.4.m.0.cv1.conv.bias"
    output: "/model.4/m.0/cv1/conv/Conv_output_0"
    name: "/model.4/m.0/cv1/conv/Conv"
    op_type: "Conv"
    attribute {
      name: "dilations"
      ints: 1
      ints: 1
      type: INTS
    }
    attribute {
      name: "group"
      i: 1
      type: INT
    }
    attribute {
      name: "kernel_shape"
      ints: 3
      ints: 3
      type: INTS
    }
    attribute {
      name: "pads"
      ints: 1
      ints: 1
      ints: 1
      ints: 1
      type: INTS
    }
    attribute {
      name: "strides"
      ints: 1
      ints: 1
      type: INTS
    }
  }
  node {
    input: "/model.4/m.0/cv1/conv/Conv_output_0"
    output: "/model.4/m.0/cv1/act/Sigmoid_output_0"
    name: "/model.4/m.0/cv1/act/Sigmoid"
    op_type: "Sigmoid"
  }
  node {
    input: "/model.4/m.0/cv1/conv/Conv_output_0"
    input: "/model.4/m.0/cv1/act/Sigmoid_output_0"
    output: "/model.4/m.0/cv1/act/Mul_output_0"
    name: "/model.4/m.0/cv1/act/Mul"
    op_type: "Mul"
  }
  node {
    input: "/model.4/m.0/cv1/act/Mul_output_0"
    input: "model.4.m.0.cv2.conv.weight"
    input: "model.4.m.0.cv2.conv.bias"
    output: "/model.4/m.0/cv2/conv/Conv_output_0"
    name: "/model.4/m.0/cv2/conv/Conv"
    op_type: "Conv"
    attribute {
      name: "dilations"
      ints: 1
      ints: 1
      type: INTS
    }
    attribute {
      name: "group"
      i: 1
      type: INT
    }
    attribute {
      name: "kernel_shape"
      ints: 3
      ints: 3
      type: INTS
    }
    attribute {
      name: "pads"
      ints: 1
      ints: 1
      ints: 1
      ints: 1
      type: INTS
    }
    attribute {
      name: "strides"
      ints: 1
      ints: 1
      type: INTS
    }
  }
  node {
    input: "/model.4/m.0/cv2/conv/Conv_output_0"
    output: "/model.4/m.0/cv2/act/Sigmoid_output_0"
    name: "/model.4/m.0/cv2/act/Sigmoid"
    op_type: "Sigmoid"
  }
  node {
    input: "/model.4/m.0/cv2/conv/Conv_output_0"
    input: "/model.4/m.0/cv2/act/Sigmoid_output_0"
    output: "/model.4/m.0/cv2/act/Mul_output_0"
    name: "/model.4/m.0/cv2/act/Mul"
    op_type: "Mul"
  }
  node {
    input: "/model.4/Split_output_1"
    input: "/model.4/m.0/cv2/act/Mul_output_0"
    output: "/model.4/m.0/Add_output_0"
    name: "/model.4/m.0/Add"
    op_type: "Add"
  }
  node {
    input: "/model.4/Split_output_0"
    input: "/model.4/Split_output_1"
    input: "/model.4/m.0/Add_output_0"
    output: "/model.4/Concat_output_0"
    name: "/model.4/Concat"
    op_type: "Concat"
    attribute {
      name: "axis"
      i: 1
      type: INT
    }
  }
  node {
    input: "/model.4/Concat_output_0"
    input: "model.4.cv2.conv.weight"
    input: "model.4.cv2.conv.bias"
    output: "/model.4/cv2/conv/Conv_output_0"
    name: "/model.4/cv2/conv/Conv"
    op_type: "Conv"
    attribute {
      name: "dilations"
      ints: 1
      ints: 1
      type: INTS
    }
    attribute {
      name: "group"
      i: 1
      type: INT
    }
    attribute {
      name: "kernel_shape"
      ints: 1
      ints: 1
      type: INTS
    }
    attribute {
      name: "pads"
      ints: 0
      ints: 0
      ints: 0
      ints: 0
      type: INTS
    }
    attribute {
      name: "strides"
      ints: 1
      ints: 1
      type: INTS
    }
  }
  node {
    input: "/model.4/cv2/conv/Conv_output_0"
    output: "/model.4/cv2/act/Sigmoid_output_0"
    name: "/model.4/cv2/act/Sigmoid"
    op_type: "Sigmoid"
  }
  node {
    input: "/model.4/cv2/conv/Conv_output_0"
    input: "/model.4/cv2/act/Sigmoid_output_0"
    output: "/model.4/cv2/act/Mul_output_0"
    name: "/model.4/cv2/act/Mul"
    op_type: "Mul"
  }
  node {
    input: "/model.4/cv2/act/Mul_output_0"
    input: "model.5.conv.weight"
    input: "model.5.conv.bias"
    output: "/model.5/conv/Conv_output_0"
    name: "/model.5/conv/Conv"
    op_type: "Conv"
    attribute {
      name: "dilations"
      ints: 1
      ints: 1
      type: INTS
    }
    attribute {
      name: "group"
      i: 1
      type: INT
    }
    attribute {
      name: "kernel_shape"
      ints: 3
      ints: 3
      type: INTS
    }
    attribute {
      name: "pads"
      ints: 1
      ints: 1
      ints: 1
      ints: 1
      type: INTS
    }
    attribute {
      name: "strides"
      ints: 2
      ints: 2
      type: INTS
    }
  }
  node {
    input: "/model.5/conv/Conv_output_0"
    output: "/model.5/act/Sigmoid_output_0"
    name: "/model.5/act/Sigmoid"
    op_type: "Sigmoid"
  }
  node {
    input: "/model.5/conv/Conv_output_0"
    input: "/model.5/act/Sigmoid_output_0"
    output: "/model.5/act/Mul_output_0"
    name: "/model.5/act/Mul"
    op_type: "Mul"
  }
  node {
    input: "/model.5/act/Mul_output_0"
    input: "model.6.cv1.conv.weight"
    input: "model.6.cv1.conv.bias"
    output: "/model.6/cv1/conv/Conv_output_0"
    name: "/model.6/cv1/conv/Conv"
    op_type: "Conv"
    attribute {
      name: "dilations"
      ints: 1
      ints: 1
      type: INTS
    }
    attribute {
      name: "group"
      i: 1
      type: INT
    }
    attribute {
      name: "kernel_shape"
      ints: 1
      ints: 1
      type: INTS
    }
    attribute {
      name: "pads"
      ints: 0
      ints: 0
      ints: 0
      ints: 0
      type: INTS
    }
    attribute {
      name: "strides"
      ints: 1
      ints: 1
      type: INTS
    }
  }
  node {
    input: "/model.6/cv1/conv/Conv_output_0"
    output: "/model.6/cv1/act/Sigmoid_output_0"
    name: "/model.6/cv1/act/Sigmoid"
    op_type: "Sigmoid"
  }
  node {
    input: "/model.6/cv1/conv/Conv_output_0"
    input: "/model.6/cv1/act/Sigmoid_output_0"
    output: "/model.6/cv1/act/Mul_output_0"
    name: "/model.6/cv1/act/Mul"
    op_type: "Mul"
  }
  node {
    input: "/model.6/cv1/act/Mul_output_0"
    input: "onnx::Split_225"
    output: "/model.6/Split_output_0"
    output: "/model.6/Split_output_1"
    name: "/model.6/Split"
    op_type: "Split"
    attribute {
      name: "axis"
      i: 1
      type: INT
    }
  }
  node {
    input: "/model.6/Split_output_1"
    input: "model.6.m.0.cv1.conv.weight"
    input: "model.6.m.0.cv1.conv.bias"
    output: "/model.6/m.0/cv1/conv/Conv_output_0"
    name: "/model.6/m.0/cv1/conv/Conv"
    op_type: "Conv"
    attribute {
      name: "dilations"
      ints: 1
      ints: 1
      type: INTS
    }
    attribute {
      name: "group"
      i: 1
      type: INT
    }
    attribute {
      name: "kernel_shape"
      ints: 1
      ints: 1
      type: INTS
    }
    attribute {
      name: "pads"
      ints: 0
      ints: 0
      ints: 0
      ints: 0
      type: INTS
    }
    attribute {
      name: "strides"
      ints: 1
      ints: 1
      type: INTS
    }
  }
  node {
    input: "/model.6/Split_output_1"
    input: "model.6.m.0.cv2.conv.weight"
    input: "model.6.m.0.cv2.conv.bias"
    output: "/model.6/m.0/cv2/conv/Conv_output_0"
    name: "/model.6/m.0/cv2/conv/Conv"
    op_type: "Conv"
    attribute {
      name: "dilations"
      ints: 1
      ints: 1
      type: INTS
    }
    attribute {
      name: "group"
      i: 1
      type: INT
    }
    attribute {
      name: "kernel_shape"
      ints: 1
      ints: 1
      type: INTS
    }
    attribute {
      name: "pads"
      ints: 0
      ints: 0
      ints: 0
      ints: 0
      type: INTS
    }
    attribute {
      name: "strides"
      ints: 1
      ints: 1
      type: INTS
    }
  }
  node {
    input: "/model.6/m.0/cv1/conv/Conv_output_0"
    output: "/model.6/m.0/cv1/act/Sigmoid_output_0"
    name: "/model.6/m.0/cv1/act/Sigmoid"
    op_type: "Sigmoid"
  }
  node {
    input: "/model.6/m.0/cv2/conv/Conv_output_0"
    output: "/model.6/m.0/cv2/act/Sigmoid_output_0"
    name: "/model.6/m.0/cv2/act/Sigmoid"
    op_type: "Sigmoid"
  }
  node {
    input: "/model.6/m.0/cv1/conv/Conv_output_0"
    input: "/model.6/m.0/cv1/act/Sigmoid_output_0"
    output: "/model.6/m.0/cv1/act/Mul_output_0"
    name: "/model.6/m.0/cv1/act/Mul"
    op_type: "Mul"
  }
  node {
    input: "/model.6/m.0/cv2/conv/Conv_output_0"
    input: "/model.6/m.0/cv2/act/Sigmoid_output_0"
    output: "/model.6/m.0/cv2/act/Mul_output_0"
    name: "/model.6/m.0/cv2/act/Mul"
    op_type: "Mul"
  }
  node {
    input: "/model.6/m.0/cv1/act/Mul_output_0"
    input: "model.6.m.0.m.0.cv1.conv.weight"
    input: "model.6.m.0.m.0.cv1.conv.bias"
    output: "/model.6/m.0/m/m.0/cv1/conv/Conv_output_0"
    name: "/model.6/m.0/m/m.0/cv1/conv/Conv"
    op_type: "Conv"
    attribute {
      name: "dilations"
      ints: 1
      ints: 1
      type: INTS
    }
    attribute {
      name: "group"
      i: 1
      type: INT
    }
    attribute {
      name: "kernel_shape"
      ints: 3
      ints: 3
      type: INTS
    }
    attribute {
      name: "pads"
      ints: 1
      ints: 1
      ints: 1
      ints: 1
      type: INTS
    }
    attribute {
      name: "strides"
      ints: 1
      ints: 1
      type: INTS
    }
  }
  node {
    input: "/model.6/m.0/m/m.0/cv1/conv/Conv_output_0"
    output: "/model.6/m.0/m/m.0/cv1/act/Sigmoid_output_0"
    name: "/model.6/m.0/m/m.0/cv1/act/Sigmoid"
    op_type: "Sigmoid"
  }
  node {
    input: "/model.6/m.0/m/m.0/cv1/conv/Conv_output_0"
    input: "/model.6/m.0/m/m.0/cv1/act/Sigmoid_output_0"
    output: "/model.6/m.0/m/m.0/cv1/act/Mul_output_0"
    name: "/model.6/m.0/m/m.0/cv1/act/Mul"
    op_type: "Mul"
  }
  node {
    input: "/model.6/m.0/m/m.0/cv1/act/Mul_output_0"
    input: "model.6.m.0.m.0.cv2.conv.weight"
    input: "model.6.m.0.m.0.cv2.conv.bias"
    output: "/model.6/m.0/m/m.0/cv2/conv/Conv_output_0"
    name: "/model.6/m.0/m/m.0/cv2/conv/Conv"
    op_type: "Conv"
    attribute {
      name: "dilations"
      ints: 1
      ints: 1
      type: INTS
    }
    attribute {
      name: "group"
      i: 1
      type: INT
    }
    attribute {
      name: "kernel_shape"
      ints: 3
      ints: 3
      type: INTS
    }
    attribute {
      name: "pads"
      ints: 1
      ints: 1
      ints: 1
      ints: 1
      type: INTS
    }
    attribute {
      name: "strides"
      ints: 1
      ints: 1
      type: INTS
    }
  }
  node {
    input: "/model.6/m.0/m/m.0/cv2/conv/Conv_output_0"
    output: "/model.6/m.0/m/m.0/cv2/act/Sigmoid_output_0"
    name: "/model.6/m.0/m/m.0/cv2/act/Sigmoid"
    op_type: "Sigmoid"
  }
  node {
    input: "/model.6/m.0/m/m.0/cv2/conv/Conv_output_0"
    input: "/model.6/m.0/m/m.0/cv2/act/Sigmoid_output_0"
    output: "/model.6/m.0/m/m.0/cv2/act/Mul_output_0"
    name: "/model.6/m.0/m/m.0/cv2/act/Mul"
    op_type: "Mul"
  }
  node {
    input: "/model.6/m.0/cv1/act/Mul_output_0"
    input: "/model.6/m.0/m/m.0/cv2/act/Mul_output_0"
    output: "/model.6/m.0/m/m.0/Add_output_0"
    name: "/model.6/m.0/m/m.0/Add"
    op_type: "Add"
  }
  node {
    input: "/model.6/m.0/m/m.0/Add_output_0"
    input: "model.6.m.0.m.1.cv1.conv.weight"
    input: "model.6.m.0.m.1.cv1.conv.bias"
    output: "/model.6/m.0/m/m.1/cv1/conv/Conv_output_0"
    name: "/model.6/m.0/m/m.1/cv1/conv/Conv"
    op_type: "Conv"
    attribute {
      name: "dilations"
      ints: 1
      ints: 1
      type: INTS
    }
    attribute {
      name: "group"
      i: 1
      type: INT
    }
    attribute {
      name: "kernel_shape"
      ints: 3
      ints: 3
      type: INTS
    }
    attribute {
      name: "pads"
      ints: 1
      ints: 1
      ints: 1
      ints: 1
      type: INTS
    }
    attribute {
      name: "strides"
      ints: 1
      ints: 1
      type: INTS
    }
  }
  node {
    input: "/model.6/m.0/m/m.1/cv1/conv/Conv_output_0"
    output: "/model.6/m.0/m/m.1/cv1/act/Sigmoid_output_0"
    name: "/model.6/m.0/m/m.1/cv1/act/Sigmoid"
    op_type: "Sigmoid"
  }
  node {
    input: "/model.6/m.0/m/m.1/cv1/conv/Conv_output_0"
    input: "/model.6/m.0/m/m.1/cv1/act/Sigmoid_output_0"
    output: "/model.6/m.0/m/m.1/cv1/act/Mul_output_0"
    name: "/model.6/m.0/m/m.1/cv1/act/Mul"
    op_type: "Mul"
  }
  node {
    input: "/model.6/m.0/m/m.1/cv1/act/Mul_output_0"
    input: "model.6.m.0.m.1.cv2.conv.weight"
    input: "model.6.m.0.m.1.cv2.conv.bias"
    output: "/model.6/m.0/m/m.1/cv2/conv/Conv_output_0"
    name: "/model.6/m.0/m/m.1/cv2/conv/Conv"
    op_type: "Conv"
    attribute {
      name: "dilations"
      ints: 1
      ints: 1
      type: INTS
    }
    attribute {
      name: "group"
      i: 1
      type: INT
    }
    attribute {
      name: "kernel_shape"
      ints: 3
      ints: 3
      type: INTS
    }
    attribute {
      name: "pads"
      ints: 1
      ints: 1
      ints: 1
      ints: 1
      type: INTS
    }
    attribute {
      name: "strides"
      ints: 1
      ints: 1
      type: INTS
    }
  }
  node {
    input: "/model.6/m.0/m/m.1/cv2/conv/Conv_output_0"
    output: "/model.6/m.0/m/m.1/cv2/act/Sigmoid_output_0"
    name: "/model.6/m.0/m/m.1/cv2/act/Sigmoid"
    op_type: "Sigmoid"
  }
  node {
    input: "/model.6/m.0/m/m.1/cv2/conv/Conv_output_0"
    input: "/model.6/m.0/m/m.1/cv2/act/Sigmoid_output_0"
    output: "/model.6/m.0/m/m.1/cv2/act/Mul_output_0"
    name: "/model.6/m.0/m/m.1/cv2/act/Mul"
    op_type: "Mul"
  }
  node {
    input: "/model.6/m.0/m/m.0/Add_output_0"
    input: "/model.6/m.0/m/m.1/cv2/act/Mul_output_0"
    output: "/model.6/m.0/m/m.1/Add_output_0"
    name: "/model.6/m.0/m/m.1/Add"
    op_type: "Add"
  }
  node {
    input: "/model.6/m.0/m/m.1/Add_output_0"
    input: "/model.6/m.0/cv2/act/Mul_output_0"
    output: "/model.6/m.0/Concat_output_0"
    name: "/model.6/m.0/Concat"
    op_type: "Concat"
    attribute {
      name: "axis"
      i: 1
      type: INT
    }
  }
  node {
    input: "/model.6/m.0/Concat_output_0"
    input: "model.6.m.0.cv3.conv.weight"
    input: "model.6.m.0.cv3.conv.bias"
    output: "/model.6/m.0/cv3/conv/Conv_output_0"
    name: "/model.6/m.0/cv3/conv/Conv"
    op_type: "Conv"
    attribute {
      name: "dilations"
      ints: 1
      ints: 1
      type: INTS
    }
    attribute {
      name: "group"
      i: 1
      type: INT
    }
    attribute {
      name: "kernel_shape"
      ints: 1
      ints: 1
      type: INTS
    }
    attribute {
      name: "pads"
      ints: 0
      ints: 0
      ints: 0
      ints: 0
      type: INTS
    }
    attribute {
      name: "strides"
      ints: 1
      ints: 1
      type: INTS
    }
  }
  node {
    input: "/model.6/m.0/cv3/conv/Conv_output_0"
    output: "/model.6/m.0/cv3/act/Sigmoid_output_0"
    name: "/model.6/m.0/cv3/act/Sigmoid"
    op_type: "Sigmoid"
  }
  node {
    input: "/model.6/m.0/cv3/conv/Conv_output_0"
    input: "/model.6/m.0/cv3/act/Sigmoid_output_0"
    output: "/model.6/m.0/cv3/act/Mul_output_0"
    name: "/model.6/m.0/cv3/act/Mul"
    op_type: "Mul"
  }
  node {
    input: "/model.6/Split_output_0"
    input: "/model.6/Split_output_1"
    input: "/model.6/m.0/cv3/act/Mul_output_0"
    output: "/model.6/Concat_output_0"
    name: "/model.6/Concat"
    op_type: "Concat"
    attribute {
      name: "axis"
      i: 1
      type: INT
    }
  }
  node {
    input: "/model.6/Concat_output_0"
    input: "model.6.cv2.conv.weight"
    input: "model.6.cv2.conv.bias"
    output: "/model.6/cv2/conv/Conv_output_0"
    name: "/model.6/cv2/conv/Conv"
    op_type: "Conv"
    attribute {
      name: "dilations"
      ints: 1
      ints: 1
      type: INTS
    }
    attribute {
      name: "group"
      i: 1
      type: INT
    }
    attribute {
      name: "kernel_shape"
      ints: 1
      ints: 1
      type: INTS
    }
    attribute {
      name: "pads"
      ints: 0
      ints: 0
      ints: 0
      ints: 0
      type: INTS
    }
    attribute {
      name: "strides"
      ints: 1
      ints: 1
      type: INTS
    }
  }
  node {
    input: "/model.6/cv2/conv/Conv_output_0"
    output: "/model.6/cv2/act/Sigmoid_output_0"
    name: "/model.6/cv2/act/Sigmoid"
    op_type: "Sigmoid"
  }
  node {
    input: "/model.6/cv2/conv/Conv_output_0"
    input: "/model.6/cv2/act/Sigmoid_output_0"
    output: "/model.6/cv2/act/Mul_output_0"
    name: "/model.6/cv2/act/Mul"
    op_type: "Mul"
  }
  node {
    input: "/model.6/cv2/act/Mul_output_0"
    input: "model.7.conv.weight"
    input: "model.7.conv.bias"
    output: "/model.7/conv/Conv_output_0"
    name: "/model.7/conv/Conv"
    op_type: "Conv"
    attribute {
      name: "dilations"
      ints: 1
      ints: 1
      type: INTS
    }
    attribute {
      name: "group"
      i: 1
      type: INT
    }
    attribute {
      name: "kernel_shape"
      ints: 3
      ints: 3
      type: INTS
    }
    attribute {
      name: "pads"
      ints: 1
      ints: 1
      ints: 1
      ints: 1
      type: INTS
    }
    attribute {
      name: "strides"
      ints: 2
      ints: 2
      type: INTS
    }
  }
  node {
    input: "/model.7/conv/Conv_output_0"
    output: "/model.7/act/Sigmoid_output_0"
    name: "/model.7/act/Sigmoid"
    op_type: "Sigmoid"
  }
  node {
    input: "/model.7/conv/Conv_output_0"
    input: "/model.7/act/Sigmoid_output_0"
    output: "/model.7/act/Mul_output_0"
    name: "/model.7/act/Mul"
    op_type: "Mul"
  }
  node {
    input: "/model.7/act/Mul_output_0"
    input: "model.8.cv1.conv.weight"
    input: "model.8.cv1.conv.bias"
    output: "/model.8/cv1/conv/Conv_output_0"
    name: "/model.8/cv1/conv/Conv"
    op_type: "Conv"
    attribute {
      name: "dilations"
      ints: 1
      ints: 1
      type: INTS
    }
    attribute {
      name: "group"
      i: 1
      type: INT
    }
    attribute {
      name: "kernel_shape"
      ints: 1
      ints: 1
      type: INTS
    }
    attribute {
      name: "pads"
      ints: 0
      ints: 0
      ints: 0
      ints: 0
      type: INTS
    }
    attribute {
      name: "strides"
      ints: 1
      ints: 1
      type: INTS
    }
  }
  node {
    input: "/model.8/cv1/conv/Conv_output_0"
    output: "/model.8/cv1/act/Sigmoid_output_0"
    name: "/model.8/cv1/act/Sigmoid"
    op_type: "Sigmoid"
  }
  node {
    input: "/model.8/cv1/conv/Conv_output_0"
    input: "/model.8/cv1/act/Sigmoid_output_0"
    output: "/model.8/cv1/act/Mul_output_0"
    name: "/model.8/cv1/act/Mul"
    op_type: "Mul"
  }
  node {
    input: "/model.8/cv1/act/Mul_output_0"
    input: "onnx::Split_262"
    output: "/model.8/Split_output_0"
    output: "/model.8/Split_output_1"
    name: "/model.8/Split"
    op_type: "Split"
    attribute {
      name: "axis"
      i: 1
      type: INT
    }
  }
  node {
    input: "/model.8/Split_output_1"
    input: "model.8.m.0.cv1.conv.weight"
    input: "model.8.m.0.cv1.conv.bias"
    output: "/model.8/m.0/cv1/conv/Conv_output_0"
    name: "/model.8/m.0/cv1/conv/Conv"
    op_type: "Conv"
    attribute {
      name: "dilations"
      ints: 1
      ints: 1
      type: INTS
    }
    attribute {
      name: "group"
      i: 1
      type: INT
    }
    attribute {
      name: "kernel_shape"
      ints: 1
      ints: 1
      type: INTS
    }
    attribute {
      name: "pads"
      ints: 0
      ints: 0
      ints: 0
      ints: 0
      type: INTS
    }
    attribute {
      name: "strides"
      ints: 1
      ints: 1
      type: INTS
    }
  }
  node {
    input: "/model.8/Split_output_1"
    input: "model.8.m.0.cv2.conv.weight"
    input: "model.8.m.0.cv2.conv.bias"
    output: "/model.8/m.0/cv2/conv/Conv_output_0"
    name: "/model.8/m.0/cv2/conv/Conv"
    op_type: "Conv"
    attribute {
      name: "dilations"
      ints: 1
      ints: 1
      type: INTS
    }
    attribute {
      name: "group"
      i: 1
      type: INT
    }
    attribute {
      name: "kernel_shape"
      ints: 1
      ints: 1
      type: INTS
    }
    attribute {
      name: "pads"
      ints: 0
      ints: 0
      ints: 0
      ints: 0
      type: INTS
    }
    attribute {
      name: "strides"
      ints: 1
      ints: 1
      type: INTS
    }
  }
  node {
    input: "/model.8/m.0/cv1/conv/Conv_output_0"
    output: "/model.8/m.0/cv1/act/Sigmoid_output_0"
    name: "/model.8/m.0/cv1/act/Sigmoid"
    op_type: "Sigmoid"
  }
  node {
    input: "/model.8/m.0/cv2/conv/Conv_output_0"
    output: "/model.8/m.0/cv2/act/Sigmoid_output_0"
    name: "/model.8/m.0/cv2/act/Sigmoid"
    op_type: "Sigmoid"
  }
  node {
    input: "/model.8/m.0/cv1/conv/Conv_output_0"
    input: "/model.8/m.0/cv1/act/Sigmoid_output_0"
    output: "/model.8/m.0/cv1/act/Mul_output_0"
    name: "/model.8/m.0/cv1/act/Mul"
    op_type: "Mul"
  }
  node {
    input: "/model.8/m.0/cv2/conv/Conv_output_0"
    input: "/model.8/m.0/cv2/act/Sigmoid_output_0"
    output: "/model.8/m.0/cv2/act/Mul_output_0"
    name: "/model.8/m.0/cv2/act/Mul"
    op_type: "Mul"
  }
  node {
    input: "/model.8/m.0/cv1/act/Mul_output_0"
    input: "model.8.m.0.m.0.cv1.conv.weight"
    input: "model.8.m.0.m.0.cv1.conv.bias"
    output: "/model.8/m.0/m/m.0/cv1/conv/Conv_output_0"
    name: "/model.8/m.0/m/m.0/cv1/conv/Conv"
    op_type: "Conv"
    attribute {
      name: "dilations"
      ints: 1
      ints: 1
      type: INTS
    }
    attribute {
      name: "group"
      i: 1
      type: INT
    }
    attribute {
      name: "kernel_shape"
      ints: 3
      ints: 3
      type: INTS
    }
    attribute {
      name: "pads"
      ints: 1
      ints: 1
      ints: 1
      ints: 1
      type: INTS
    }
    attribute {
      name: "strides"
      ints: 1
      ints: 1
      type: INTS
    }
  }
  node {
    input: "/model.8/m.0/m/m.0/cv1/conv/Conv_output_0"
    output: "/model.8/m.0/m/m.0/cv1/act/Sigmoid_output_0"
    name: "/model.8/m.0/m/m.0/cv1/act/Sigmoid"
    op_type: "Sigmoid"
  }
  node {
    input: "/model.8/m.0/m/m.0/cv1/conv/Conv_output_0"
    input: "/model.8/m.0/m/m.0/cv1/act/Sigmoid_output_0"
    output: "/model.8/m.0/m/m.0/cv1/act/Mul_output_0"
    name: "/model.8/m.0/m/m.0/cv1/act/Mul"
    op_type: "Mul"
  }
  node {
    input: "/model.8/m.0/m/m.0/cv1/act/Mul_output_0"
    input: "model.8.m.0.m.0.cv2.conv.weight"
    input: "model.8.m.0.m.0.cv2.conv.bias"
    output: "/model.8/m.0/m/m.0/cv2/conv/Conv_output_0"
    name: "/model.8/m.0/m/m.0/cv2/conv/Conv"
    op_type: "Conv"
    attribute {
      name: "dilations"
      ints: 1
      ints: 1
      type: INTS
    }
    attribute {
      name: "group"
      i: 1
      type: INT
    }
    attribute {
      name: "kernel_shape"
      ints: 3
      ints: 3
      type: INTS
    }
    attribute {
      name: "pads"
      ints: 1
      ints: 1
      ints: 1
      ints: 1
      type: INTS
    }
    attribute {
      name: "strides"
      ints: 1
      ints: 1
      type: INTS
    }
  }
  node {
    input: "/model.8/m.0/m/m.0/cv2/conv/Conv_output_0"
    output: "/model.8/m.0/m/m.0/cv2/act/Sigmoid_output_0"
    name: "/model.8/m.0/m/m.0/cv2/act/Sigmoid"
    op_type: "Sigmoid"
  }
  node {
    input: "/model.8/m.0/m/m.0/cv2/conv/Conv_output_0"
    input: "/model.8/m.0/m/m.0/cv2/act/Sigmoid_output_0"
    output: "/model.8/m.0/m/m.0/cv2/act/Mul_output_0"
    name: "/model.8/m.0/m/m.0/cv2/act/Mul"
    op_type: "Mul"
  }
  node {
    input: "/model.8/m.0/cv1/act/Mul_output_0"
    input: "/model.8/m.0/m/m.0/cv2/act/Mul_output_0"
    output: "/model.8/m.0/m/m.0/Add_output_0"
    name: "/model.8/m.0/m/m.0/Add"
    op_type: "Add"
  }
  node {
    input: "/model.8/m.0/m/m.0/Add_output_0"
    input: "model.8.m.0.m.1.cv1.conv.weight"
    input: "model.8.m.0.m.1.cv1.conv.bias"
    output: "/model.8/m.0/m/m.1/cv1/conv/Conv_output_0"
    name: "/model.8/m.0/m/m.1/cv1/conv/Conv"
    op_type: "Conv"
    attribute {
      name: "dilations"
      ints: 1
      ints: 1
      type: INTS
    }
    attribute {
      name: "group"
      i: 1
      type: INT
    }
    attribute {
      name: "kernel_shape"
      ints: 3
      ints: 3
      type: INTS
    }
    attribute {
      name: "pads"
      ints: 1
      ints: 1
      ints: 1
      ints: 1
      type: INTS
    }
    attribute {
      name: "strides"
      ints: 1
      ints: 1
      type: INTS
    }
  }
  node {
    input: "/model.8/m.0/m/m.1/cv1/conv/Conv_output_0"
    output: "/model.8/m.0/m/m.1/cv1/act/Sigmoid_output_0"
    name: "/model.8/m.0/m/m.1/cv1/act/Sigmoid"
    op_type: "Sigmoid"
  }
  node {
    input: "/model.8/m.0/m/m.1/cv1/conv/Conv_output_0"
    input: "/model.8/m.0/m/m.1/cv1/act/Sigmoid_output_0"
    output: "/model.8/m.0/m/m.1/cv1/act/Mul_output_0"
    name: "/model.8/m.0/m/m.1/cv1/act/Mul"
    op_type: "Mul"
  }
  node {
    input: "/model.8/m.0/m/m.1/cv1/act/Mul_output_0"
    input: "model.8.m.0.m.1.cv2.conv.weight"
    input: "model.8.m.0.m.1.cv2.conv.bias"
    output: "/model.8/m.0/m/m.1/cv2/conv/Conv_output_0"
    name: "/model.8/m.0/m/m.1/cv2/conv/Conv"
    op_type: "Conv"
    attribute {
      name: "dilations"
      ints: 1
      ints: 1
      type: INTS
    }
    attribute {
      name: "group"
      i: 1
      type: INT
    }
    attribute {
      name: "kernel_shape"
      ints: 3
      ints: 3
      type: INTS
    }
    attribute {
      name: "pads"
      ints: 1
      ints: 1
      ints: 1
      ints: 1
      type: INTS
    }
    attribute {
      name: "strides"
      ints: 1
      ints: 1
      type: INTS
    }
  }
  node {
    input: "/model.8/m.0/m/m.1/cv2/conv/Conv_output_0"
    output: "/model.8/m.0/m/m.1/cv2/act/Sigmoid_output_0"
    name: "/model.8/m.0/m/m.1/cv2/act/Sigmoid"
    op_type: "Sigmoid"
  }
  node {
    input: "/model.8/m.0/m/m.1/cv2/conv/Conv_output_0"
    input: "/model.8/m.0/m/m.1/cv2/act/Sigmoid_output_0"
    output: "/model.8/m.0/m/m.1/cv2/act/Mul_output_0"
    name: "/model.8/m.0/m/m.1/cv2/act/Mul"
    op_type: "Mul"
  }
  node {
    input: "/model.8/m.0/m/m.0/Add_output_0"
    input: "/model.8/m.0/m/m.1/cv2/act/Mul_output_0"
    output: "/model.8/m.0/m/m.1/Add_output_0"
    name: "/model.8/m.0/m/m.1/Add"
    op_type: "Add"
  }
  node {
    input: "/model.8/m.0/m/m.1/Add_output_0"
    input: "/model.8/m.0/cv2/act/Mul_output_0"
    output: "/model.8/m.0/Concat_output_0"
    name: "/model.8/m.0/Concat"
    op_type: "Concat"
    attribute {
      name: "axis"
      i: 1
      type: INT
    }
  }
  node {
    input: "/model.8/m.0/Concat_output_0"
    input: "model.8.m.0.cv3.conv.weight"
    input: "model.8.m.0.cv3.conv.bias"
    output: "/model.8/m.0/cv3/conv/Conv_output_0"
    name: "/model.8/m.0/cv3/conv/Conv"
    op_type: "Conv"
    attribute {
      name: "dilations"
      ints: 1
      ints: 1
      type: INTS
    }
    attribute {
      name: "group"
      i: 1
      type: INT
    }
    attribute {
      name: "kernel_shape"
      ints: 1
      ints: 1
      type: INTS
    }
    attribute {
      name: "pads"
      ints: 0
      ints: 0
      ints: 0
      ints: 0
      type: INTS
    }
    attribute {
      name: "strides"
      ints: 1
      ints: 1
      type: INTS
    }
  }
  node {
    input: "/model.8/m.0/cv3/conv/Conv_output_0"
    output: "/model.8/m.0/cv3/act/Sigmoid_output_0"
    name: "/model.8/m.0/cv3/act/Sigmoid"
    op_type: "Sigmoid"
  }
  node {
    input: "/model.8/m.0/cv3/conv/Conv_output_0"
    input: "/model.8/m.0/cv3/act/Sigmoid_output_0"
    output: "/model.8/m.0/cv3/act/Mul_output_0"
    name: "/model.8/m.0/cv3/act/Mul"
    op_type: "Mul"
  }
  node {
    input: "/model.8/Split_output_0"
    input: "/model.8/Split_output_1"
    input: "/model.8/m.0/cv3/act/Mul_output_0"
    output: "/model.8/Concat_output_0"
    name: "/model.8/Concat"
    op_type: "Concat"
    attribute {
      name: "axis"
      i: 1
      type: INT
    }
  }
  node {
    input: "/model.8/Concat_output_0"
    input: "model.8.cv2.conv.weight"
    input: "model.8.cv2.conv.bias"
    output: "/model.8/cv2/conv/Conv_output_0"
    name: "/model.8/cv2/conv/Conv"
    op_type: "Conv"
    attribute {
      name: "dilations"
      ints: 1
      ints: 1
      type: INTS
    }
    attribute {
      name: "group"
      i: 1
      type: INT
    }
    attribute {
      name: "kernel_shape"
      ints: 1
      ints: 1
      type: INTS
    }
    attribute {
      name: "pads"
      ints: 0
      ints: 0
      ints: 0
      ints: 0
      type: INTS
    }
    attribute {
      name: "strides"
      ints: 1
      ints: 1
      type: INTS
    }
  }
  node {
    input: "/model.8/cv2/conv/Conv_output_0"
    output: "/model.8/cv2/act/Sigmoid_output_0"
    name: "/model.8/cv2/act/Sigmoid"
    op_type: "Sigmoid"
  }
  node {
    input: "/model.8/cv2/conv/Conv_output_0"
    input: "/model.8/cv2/act/Sigmoid_output_0"
    output: "/model.8/cv2/act/Mul_output_0"
    name: "/model.8/cv2/act/Mul"
    op_type: "Mul"
  }
  node {
    input: "/model.8/cv2/act/Mul_output_0"
    input: "model.9.cv1.conv.weight"
    input: "model.9.cv1.conv.bias"
    output: "/model.9/cv1/conv/Conv_output_0"
    name: "/model.9/cv1/conv/Conv"
    op_type: "Conv"
    attribute {
      name: "dilations"
      ints: 1
      ints: 1
      type: INTS
    }
    attribute {
      name: "group"
      i: 1
      type: INT
    }
    attribute {
      name: "kernel_shape"
      ints: 1
      ints: 1
      type: INTS
    }
    attribute {
      name: "pads"
      ints: 0
      ints: 0
      ints: 0
      ints: 0
      type: INTS
    }
    attribute {
      name: "strides"
      ints: 1
      ints: 1
      type: INTS
    }
  }
  node {
    input: "/model.9/cv1/conv/Conv_output_0"
    output: "/model.9/cv1/act/Sigmoid_output_0"
    name: "/model.9/cv1/act/Sigmoid"
    op_type: "Sigmoid"
  }
  node {
    input: "/model.9/cv1/conv/Conv_output_0"
    input: "/model.9/cv1/act/Sigmoid_output_0"
    output: "/model.9/cv1/act/Mul_output_0"
    name: "/model.9/cv1/act/Mul"
    op_type: "Mul"
  }
  node {
    input: "/model.9/cv1/act/Mul_output_0"
    output: "/model.9/m/MaxPool_output_0"
    name: "/model.9/m/MaxPool"
    op_type: "MaxPool"
    attribute {
      name: "ceil_mode"
      i: 0
      type: INT
    }
    attribute {
      name: "dilations"
      ints: 1
      ints: 1
      type: INTS
    }
    attribute {
      name: "kernel_shape"
      ints: 5
      ints: 5
      type: INTS
    }
    attribute {
      name: "pads"
      ints: 2
      ints: 2
      ints: 2
      ints: 2
      type: INTS
    }
    attribute {
      name: "strides"
      ints: 1
      ints: 1
      type: INTS
    }
  }
  node {
    input: "/model.9/m/MaxPool_output_0"
    output: "/model.9/m_1/MaxPool_output_0"
    name: "/model.9/m_1/MaxPool"
    op_type: "MaxPool"
    attribute {
      name: "ceil_mode"
      i: 0
      type: INT
    }
    attribute {
      name: "dilations"
      ints: 1
      ints: 1
      type: INTS
    }
    attribute {
      name: "kernel_shape"
      ints: 5
      ints: 5
      type: INTS
    }
    attribute {
      name: "pads"
      ints: 2
      ints: 2
      ints: 2
      ints: 2
      type: INTS
    }
    attribute {
      name: "strides"
      ints: 1
      ints: 1
      type: INTS
    }
  }
  node {
    input: "/model.9/m_1/MaxPool_output_0"
    output: "/model.9/m_2/MaxPool_output_0"
    name: "/model.9/m_2/MaxPool"
    op_type: "MaxPool"
    attribute {
      name: "ceil_mode"
      i: 0
      type: INT
    }
    attribute {
      name: "dilations"
      ints: 1
      ints: 1
      type: INTS
    }
    attribute {
      name: "kernel_shape"
      ints: 5
      ints: 5
      type: INTS
    }
    attribute {
      name: "pads"
      ints: 2
      ints: 2
      ints: 2
      ints: 2
      type: INTS
    }
    attribute {
      name: "strides"
      ints: 1
      ints: 1
      type: INTS
    }
  }
  node {
    input: "/model.9/cv1/act/Mul_output_0"
    input: "/model.9/m/MaxPool_output_0"
    input: "/model.9/m_1/MaxPool_output_0"
    input: "/model.9/m_2/MaxPool_output_0"
    output: "/model.9/Concat_output_0"
    name: "/model.9/Concat"
    op_type: "Concat"
    attribute {
      name: "axis"
      i: 1
      type: INT
    }
  }
  node {
    input: "/model.9/Concat_output_0"
    input: "model.9.cv2.conv.weight"
    input: "model.9.cv2.conv.bias"
    output: "/model.9/cv2/conv/Conv_output_0"
    name: "/model.9/cv2/conv/Conv"
    op_type: "Conv"
    attribute {
      name: "dilations"
      ints: 1
      ints: 1
      type: INTS
    }
    attribute {
      name: "group"
      i: 1
      type: INT
    }
    attribute {
      name: "kernel_shape"
      ints: 1
      ints: 1
      type: INTS
    }
    attribute {
      name: "pads"
      ints: 0
      ints: 0
      ints: 0
      ints: 0
      type: INTS
    }
    attribute {
      name: "strides"
      ints: 1
      ints: 1
      type: INTS
    }
  }
  node {
    input: "/model.9/cv2/conv/Conv_output_0"
    output: "/model.9/cv2/act/Sigmoid_output_0"
    name: "/model.9/cv2/act/Sigmoid"
    op_type: "Sigmoid"
  }
  node {
    input: "/model.9/cv2/conv/Conv_output_0"
    input: "/model.9/cv2/act/Sigmoid_output_0"
    output: "/model.9/cv2/act/Mul_output_0"
    name: "/model.9/cv2/act/Mul"
    op_type: "Mul"
  }
  node {
    input: "/model.9/cv2/act/Mul_output_0"
    input: "model.10.cv1.conv.weight"
    input: "model.10.cv1.conv.bias"
    output: "/model.10/cv1/conv/Conv_output_0"
    name: "/model.10/cv1/conv/Conv"
    op_type: "Conv"
    attribute {
      name: "dilations"
      ints: 1
      ints: 1
      type: INTS
    }
    attribute {
      name: "group"
      i: 1
      type: INT
    }
    attribute {
      name: "kernel_shape"
      ints: 1
      ints: 1
      type: INTS
    }
    attribute {
      name: "pads"
      ints: 0
      ints: 0
      ints: 0
      ints: 0
      type: INTS
    }
    attribute {
      name: "strides"
      ints: 1
      ints: 1
      type: INTS
    }
  }
  node {
    input: "/model.10/cv1/conv/Conv_output_0"
    output: "/model.10/cv1/act/Sigmoid_output_0"
    name: "/model.10/cv1/act/Sigmoid"
    op_type: "Sigmoid"
  }
  node {
    input: "/model.10/cv1/conv/Conv_output_0"
    input: "/model.10/cv1/act/Sigmoid_output_0"
    output: "/model.10/cv1/act/Mul_output_0"
    name: "/model.10/cv1/act/Mul"
    op_type: "Mul"
  }
  node {
    input: "/model.10/cv1/act/Mul_output_0"
    input: "onnx::Split_262"
    output: "/model.10/Split_output_0"
    output: "/model.10/Split_output_1"
    name: "/model.10/Split"
    op_type: "Split"
    attribute {
      name: "axis"
      i: 1
      type: INT
    }
  }
  node {
    input: "/model.10/Split_output_1"
    input: "model.10.m.0.attn.qkv.conv.weight"
    input: "model.10.m.0.attn.qkv.conv.bias"
    output: "/model.10/m/m.0/attn/qkv/conv/Conv_output_0"
    name: "/model.10/m/m.0/attn/qkv/conv/Conv"
    op_type: "Conv"
    attribute {
      name: "dilations"
      ints: 1
      ints: 1
      type: INTS
    }
    attribute {
      name: "group"
      i: 1
      type: INT
    }
    attribute {
      name: "kernel_shape"
      ints: 1
      ints: 1
      type: INTS
    }
    attribute {
      name: "pads"
      ints: 0
      ints: 0
      ints: 0
      ints: 0
      type: INTS
    }
    attribute {
      name: "strides"
      ints: 1
      ints: 1
      type: INTS
    }
  }
  node {
    input: "/model.10/m/m.0/attn/qkv/conv/Conv_output_0"
    input: "/model.10/m/m.0/attn/Constant_output_0"
    output: "/model.10/m/m.0/attn/Reshape_output_0"
    name: "/model.10/m/m.0/attn/Reshape"
    op_type: "Reshape"
    attribute {
      name: "allowzero"
      i: 0
      type: INT
    }
  }
  node {
    input: "/model.10/m/m.0/attn/Reshape_output_0"
    input: "onnx::Split_326"
    output: "/model.10/m/m.0/attn/Split_output_0"
    output: "/model.10/m/m.0/attn/Split_output_1"
    output: "/model.10/m/m.0/attn/Split_output_2"
    name: "/model.10/m/m.0/attn/Split"
    op_type: "Split"
    attribute {
      name: "axis"
      i: 2
      type: INT
    }
  }
  node {
    input: "/model.10/m/m.0/attn/Split_output_0"
    output: "/model.10/m/m.0/attn/Transpose_output_0"
    name: "/model.10/m/m.0/attn/Transpose"
    op_type: "Transpose"
    attribute {
      name: "perm"
      ints: 0
      ints: 1
      ints: 3
      ints: 2
      type: INTS
    }
  }
  node {
    input: "/model.10/m/m.0/attn/Split_output_2"
    input: "/model.10/m/m.0/attn/Constant_3_output_0"
    output: "/model.10/m/m.0/attn/Reshape_2_output_0"
    name: "/model.10/m/m.0/attn/Reshape_2"
    op_type: "Reshape"
    attribute {
      name: "allowzero"
      i: 0
      type: INT
    }
  }
  node {
    input: "/model.10/m/m.0/attn/Transpose_output_0"
    input: "/model.10/m/m.0/attn/Split_output_1"
    output: "/model.10/m/m.0/attn/MatMul_output_0"
    name: "/model.10/m/m.0/attn/MatMul"
    op_type: "MatMul"
  }
  node {
    input: "/model.10/m/m.0/attn/Reshape_2_output_0"
    input: "model.10.m.0.attn.pe.conv.weight"
    input: "model.10.m.0.attn.pe.conv.bias"
    output: "/model.10/m/m.0/attn/pe/conv/Conv_output_0"
    name: "/model.10/m/m.0/attn/pe/conv/Conv"
    op_type: "Conv"
    attribute {
      name: "dilations"
      ints: 1
      ints: 1
      type: INTS
    }
    attribute {
      name: "group"
      i: 256
      type: INT
    }
    attribute {
      name: "kernel_shape"
      ints: 3
      ints: 3
      type: INTS
    }
    attribute {
      name: "pads"
      ints: 1
      ints: 1
      ints: 1
      ints: 1
      type: INTS
    }
    attribute {
      name: "strides"
      ints: 1
      ints: 1
      type: INTS
    }
  }
  node {
    input: "/model.10/m/m.0/attn/MatMul_output_0"
    input: "/model.10/m/m.0/attn/Constant_1_output_0"
    output: "/model.10/m/m.0/attn/Mul_output_0"
    name: "/model.10/m/m.0/attn/Mul"
    op_type: "Mul"
  }
  node {
    input: "/model.10/m/m.0/attn/Mul_output_0"
    output: "/model.10/m/m.0/attn/Softmax_output_0"
    name: "/model.10/m/m.0/attn/Softmax"
    op_type: "Softmax"
    attribute {
      name: "axis"
      i: -1
      type: INT
    }
  }
  node {
    input: "/model.10/m/m.0/attn/Softmax_output_0"
    output: "/model.10/m/m.0/attn/Transpose_1_output_0"
    name: "/model.10/m/m.0/attn/Transpose_1"
    op_type: "Transpose"
    attribute {
      name: "perm"
      ints: 0
      ints: 1
      ints: 3
      ints: 2
      type: INTS
    }
  }
  node {
    input: "/model.10/m/m.0/attn/Split_output_2"
    input: "/model.10/m/m.0/attn/Transpose_1_output_0"
    output: "/model.10/m/m.0/attn/MatMul_1_output_0"
    name: "/model.10/m/m.0/attn/MatMul_1"
    op_type: "MatMul"
  }
  node {
    input: "/model.10/m/m.0/attn/MatMul_1_output_0"
    input: "/model.10/m/m.0/attn/Constant_3_output_0"
    output: "/model.10/m/m.0/attn/Reshape_1_output_0"
    name: "/model.10/m/m.0/attn/Reshape_1"
    op_type: "Reshape"
    attribute {
      name: "allowzero"
      i: 0
      type: INT
    }
  }
  node {
    input: "/model.10/m/m.0/attn/Reshape_1_output_0"
    input: "/model.10/m/m.0/attn/pe/conv/Conv_output_0"
    output: "/model.10/m/m.0/attn/Add_output_0"
    name: "/model.10/m/m.0/attn/Add"
    op_type: "Add"
  }
  node {
    input: "/model.10/m/m.0/attn/Add_output_0"
    input: "model.10.m.0.attn.proj.conv.weight"
    input: "model.10.m.0.attn.proj.conv.bias"
    output: "/model.10/m/m.0/attn/proj/conv/Conv_output_0"
    name: "/model.10/m/m.0/attn/proj/conv/Conv"
    op_type: "Conv"
    attribute {
      name: "dilations"
      ints: 1
      ints: 1
      type: INTS
    }
    attribute {
      name: "group"
      i: 1
      type: INT
    }
    attribute {
      name: "kernel_shape"
      ints: 1
      ints: 1
      type: INTS
    }
    attribute {
      name: "pads"
      ints: 0
      ints: 0
      ints: 0
      ints: 0
      type: INTS
    }
    attribute {
      name: "strides"
      ints: 1
      ints: 1
      type: INTS
    }
  }
  node {
    input: "/model.10/Split_output_1"
    input: "/model.10/m/m.0/attn/proj/conv/Conv_output_0"
    output: "/model.10/m/m.0/Add_output_0"
    name: "/model.10/m/m.0/Add"
    op_type: "Add"
  }
  node {
    input: "/model.10/m/m.0/Add_output_0"
    input: "model.10.m.0.ffn.0.conv.weight"
    input: "model.10.m.0.ffn.0.conv.bias"
    output: "/model.10/m/m.0/ffn/ffn.0/conv/Conv_output_0"
    name: "/model.10/m/m.0/ffn/ffn.0/conv/Conv"
    op_type: "Conv"
    attribute {
      name: "dilations"
      ints: 1
      ints: 1
      type: INTS
    }
    attribute {
      name: "group"
      i: 1
      type: INT
    }
    attribute {
      name: "kernel_shape"
      ints: 1
      ints: 1
      type: INTS
    }
    attribute {
      name: "pads"
      ints: 0
      ints: 0
      ints: 0
      ints: 0
      type: INTS
    }
    attribute {
      name: "strides"
      ints: 1
      ints: 1
      type: INTS
    }
  }
  node {
    input: "/model.10/m/m.0/ffn/ffn.0/conv/Conv_output_0"
    output: "/model.10/m/m.0/ffn/ffn.0/act/Sigmoid_output_0"
    name: "/model.10/m/m.0/ffn/ffn.0/act/Sigmoid"
    op_type: "Sigmoid"
  }
  node {
    input: "/model.10/m/m.0/ffn/ffn.0/conv/Conv_output_0"
    input: "/model.10/m/m.0/ffn/ffn.0/act/Sigmoid_output_0"
    output: "/model.10/m/m.0/ffn/ffn.0/act/Mul_output_0"
    name: "/model.10/m/m.0/ffn/ffn.0/act/Mul"
    op_type: "Mul"
  }
  node {
    input: "/model.10/m/m.0/ffn/ffn.0/act/Mul_output_0"
    input: "model.10.m.0.ffn.1.conv.weight"
    input: "model.10.m.0.ffn.1.conv.bias"
    output: "/model.10/m/m.0/ffn/ffn.1/conv/Conv_output_0"
    name: "/model.10/m/m.0/ffn/ffn.1/conv/Conv"
    op_type: "Conv"
    attribute {
      name: "dilations"
      ints: 1
      ints: 1
      type: INTS
    }
    attribute {
      name: "group"
      i: 1
      type: INT
    }
    attribute {
      name: "kernel_shape"
      ints: 1
      ints: 1
      type: INTS
    }
    attribute {
      name: "pads"
      ints: 0
      ints: 0
      ints: 0
      ints: 0
      type: INTS
    }
    attribute {
      name: "strides"
      ints: 1
      ints: 1
      type: INTS
    }
  }
  node {
    input: "/model.10/m/m.0/Add_output_0"
    input: "/model.10/m/m.0/ffn/ffn.1/conv/Conv_output_0"
    output: "/model.10/m/m.0/Add_1_output_0"
    name: "/model.10/m/m.0/Add_1"
    op_type: "Add"
  }
  node {
    input: "/model.10/Split_output_0"
    input: "/model.10/m/m.0/Add_1_output_0"
    output: "/model.10/Concat_output_0"
    name: "/model.10/Concat"
    op_type: "Concat"
    attribute {
      name: "axis"
      i: 1
      type: INT
    }
  }
  node {
    input: "/model.10/Concat_output_0"
    input: "model.10.cv2.conv.weight"
    input: "model.10.cv2.conv.bias"
    output: "/model.10/cv2/conv/Conv_output_0"
    name: "/model.10/cv2/conv/Conv"
    op_type: "Conv"
    attribute {
      name: "dilations"
      ints: 1
      ints: 1
      type: INTS
    }
    attribute {
      name: "group"
      i: 1
      type: INT
    }
    attribute {
      name: "kernel_shape"
      ints: 1
      ints: 1
      type: INTS
    }
    attribute {
      name: "pads"
      ints: 0
      ints: 0
      ints: 0
      ints: 0
      type: INTS
    }
    attribute {
      name: "strides"
      ints: 1
      ints: 1
      type: INTS
    }
  }
  node {
    input: "/model.10/cv2/conv/Conv_output_0"
    output: "/model.10/cv2/act/Sigmoid_output_0"
    name: "/model.10/cv2/act/Sigmoid"
    op_type: "Sigmoid"
  }
  node {
    input: "/model.10/cv2/conv/Conv_output_0"
    input: "/model.10/cv2/act/Sigmoid_output_0"
    output: "/model.10/cv2/act/Mul_output_0"
    name: "/model.10/cv2/act/Mul"
    op_type: "Mul"
  }
  node {
    input: "/model.10/cv2/act/Mul_output_0"
    input: ""
    input: "/model.11/Constant_output_0"
    output: "/model.11/Resize_output_0"
    name: "/model.11/Resize"
    op_type: "Resize"
    attribute {
      name: "coordinate_transformation_mode"
      s: "asymmetric"
      type: STRING
    }
    attribute {
      name: "cubic_coeff_a"
      f: -0.75
      type: FLOAT
    }
    attribute {
      name: "mode"
      s: "nearest"
      type: STRING
    }
    attribute {
      name: "nearest_mode"
      s: "floor"
      type: STRING
    }
  }
  node {
    input: "/model.11/Resize_output_0"
    input: "/model.6/cv2/act/Mul_output_0"
    output: "/model.12/Concat_output_0"
    name: "/model.12/Concat"
    op_type: "Concat"
    attribute {
      name: "axis"
      i: 1
      type: INT
    }
  }
  node {
    input: "/model.12/Concat_output_0"
    input: "model.13.cv1.conv.weight"
    input: "model.13.cv1.conv.bias"
    output: "/model.13/cv1/conv/Conv_output_0"
    name: "/model.13/cv1/conv/Conv"
    op_type: "Conv"
    attribute {
      name: "dilations"
      ints: 1
      ints: 1
      type: INTS
    }
    attribute {
      name: "group"
      i: 1
      type: INT
    }
    attribute {
      name: "kernel_shape"
      ints: 1
      ints: 1
      type: INTS
    }
    attribute {
      name: "pads"
      ints: 0
      ints: 0
      ints: 0
      ints: 0
      type: INTS
    }
    attribute {
      name: "strides"
      ints: 1
      ints: 1
      type: INTS
    }
  }
  node {
    input: "/model.13/cv1/conv/Conv_output_0"
    output: "/model.13/cv1/act/Sigmoid_output_0"
    name: "/model.13/cv1/act/Sigmoid"
    op_type: "Sigmoid"
  }
  node {
    input: "/model.13/cv1/conv/Conv_output_0"
    input: "/model.13/cv1/act/Sigmoid_output_0"
    output: "/model.13/cv1/act/Mul_output_0"
    name: "/model.13/cv1/act/Mul"
    op_type: "Mul"
  }
  node {
    input: "/model.13/cv1/act/Mul_output_0"
    input: "onnx::Split_225"
    output: "/model.13/Split_output_0"
    output: "/model.13/Split_output_1"
    name: "/model.13/Split"
    op_type: "Split"
    attribute {
      name: "axis"
      i: 1
      type: INT
    }
  }
  node {
    input: "/model.13/Split_output_1"
    input: "model.13.m.0.cv1.conv.weight"
    input: "model.13.m.0.cv1.conv.bias"
    output: "/model.13/m.0/cv1/conv/Conv_output_0"
    name: "/model.13/m.0/cv1/conv/Conv"
    op_type: "Conv"
    attribute {
      name: "dilations"
      ints: 1
      ints: 1
      type: INTS
    }
    attribute {
      name: "group"
      i: 1
      type: INT
    }
    attribute {
      name: "kernel_shape"
      ints: 3
      ints: 3
      type: INTS
    }
    attribute {
      name: "pads"
      ints: 1
      ints: 1
      ints: 1
      ints: 1
      type: INTS
    }
    attribute {
      name: "strides"
      ints: 1
      ints: 1
      type: INTS
    }
  }
  node {
    input: "/model.13/m.0/cv1/conv/Conv_output_0"
    output: "/model.13/m.0/cv1/act/Sigmoid_output_0"
    name: "/model.13/m.0/cv1/act/Sigmoid"
    op_type: "Sigmoid"
  }
  node {
    input: "/model.13/m.0/cv1/conv/Conv_output_0"
    input: "/model.13/m.0/cv1/act/Sigmoid_output_0"
    output: "/model.13/m.0/cv1/act/Mul_output_0"
    name: "/model.13/m.0/cv1/act/Mul"
    op_type: "Mul"
  }
  node {
    input: "/model.13/m.0/cv1/act/Mul_output_0"
    input: "model.13.m.0.cv2.conv.weight"
    input: "model.13.m.0.cv2.conv.bias"
    output: "/model.13/m.0/cv2/conv/Conv_output_0"
    name: "/model.13/m.0/cv2/conv/Conv"
    op_type: "Conv"
    attribute {
      name: "dilations"
      ints: 1
      ints: 1
      type: INTS
    }
    attribute {
      name: "group"
      i: 1
      type: INT
    }
    attribute {
      name: "kernel_shape"
      ints: 3
      ints: 3
      type: INTS
    }
    attribute {
      name: "pads"
      ints: 1
      ints: 1
      ints: 1
      ints: 1
      type: INTS
    }
    attribute {
      name: "strides"
      ints: 1
      ints: 1
      type: INTS
    }
  }
  node {
    input: "/model.13/m.0/cv2/conv/Conv_output_0"
    output: "/model.13/m.0/cv2/act/Sigmoid_output_0"
    name: "/model.13/m.0/cv2/act/Sigmoid"
    op_type: "Sigmoid"
  }
  node {
    input: "/model.13/m.0/cv2/conv/Conv_output_0"
    input: "/model.13/m.0/cv2/act/Sigmoid_output_0"
    output: "/model.13/m.0/cv2/act/Mul_output_0"
    name: "/model.13/m.0/cv2/act/Mul"
    op_type: "Mul"
  }
  node {
    input: "/model.13/Split_output_1"
    input: "/model.13/m.0/cv2/act/Mul_output_0"
    output: "/model.13/m.0/Add_output_0"
    name: "/model.13/m.0/Add"
    op_type: "Add"
  }
  node {
    input: "/model.13/Split_output_0"
    input: "/model.13/Split_output_1"
    input: "/model.13/m.0/Add_output_0"
    output: "/model.13/Concat_output_0"
    name: "/model.13/Concat"
    op_type: "Concat"
    attribute {
      name: "axis"
      i: 1
      type: INT
    }
  }
  node {
    input: "/model.13/Concat_output_0"
    input: "model.13.cv2.conv.weight"
    input: "model.13.cv2.conv.bias"
    output: "/model.13/cv2/conv/Conv_output_0"
    name: "/model.13/cv2/conv/Conv"
    op_type: "Conv"
    attribute {
      name: "dilations"
      ints: 1
      ints: 1
      type: INTS
    }
    attribute {
      name: "group"
      i: 1
      type: INT
    }
    attribute {
      name: "kernel_shape"
      ints: 1
      ints: 1
      type: INTS
    }
    attribute {
      name: "pads"
      ints: 0
      ints: 0
      ints: 0
      ints: 0
      type: INTS
    }
    attribute {
      name: "strides"
      ints: 1
      ints: 1
      type: INTS
    }
  }
  node {
    input: "/model.13/cv2/conv/Conv_output_0"
    output: "/model.13/cv2/act/Sigmoid_output_0"
    name: "/model.13/cv2/act/Sigmoid"
    op_type: "Sigmoid"
  }
  node {
    input: "/model.13/cv2/conv/Conv_output_0"
    input: "/model.13/cv2/act/Sigmoid_output_0"
    output: "/model.13/cv2/act/Mul_output_0"
    name: "/model.13/cv2/act/Mul"
    op_type: "Mul"
  }
  node {
    input: "/model.13/cv2/act/Mul_output_0"
    input: ""
    input: "/model.11/Constant_output_0"
    output: "/model.14/Resize_output_0"
    name: "/model.14/Resize"
    op_type: "Resize"
    attribute {
      name: "coordinate_transformation_mode"
      s: "asymmetric"
      type: STRING
    }
    attribute {
      name: "cubic_coeff_a"
      f: -0.75
      type: FLOAT
    }
    attribute {
      name: "mode"
      s: "nearest"
      type: STRING
    }
    attribute {
      name: "nearest_mode"
      s: "floor"
      type: STRING
    }
  }
  node {
    input: "/model.14/Resize_output_0"
    input: "/model.4/cv2/act/Mul_output_0"
    output: "/model.15/Concat_output_0"
    name: "/model.15/Concat"
    op_type: "Concat"
    attribute {
      name: "axis"
      i: 1
      type: INT
    }
  }
  node {
    input: "/model.15/Concat_output_0"
    input: "model.16.cv1.conv.weight"
    input: "model.16.cv1.conv.bias"
    output: "/model.16/cv1/conv/Conv_output_0"
    name: "/model.16/cv1/conv/Conv"
    op_type: "Conv"
    attribute {
      name: "dilations"
      ints: 1
      ints: 1
      type: INTS
    }
    attribute {
      name: "group"
      i: 1
      type: INT
    }
    attribute {
      name: "kernel_shape"
      ints: 1
      ints: 1
      type: INTS
    }
    attribute {
      name: "pads"
      ints: 0
      ints: 0
      ints: 0
      ints: 0
      type: INTS
    }
    attribute {
      name: "strides"
      ints: 1
      ints: 1
      type: INTS
    }
  }
  node {
    input: "/model.16/cv1/conv/Conv_output_0"
    output: "/model.16/cv1/act/Sigmoid_output_0"
    name: "/model.16/cv1/act/Sigmoid"
    op_type: "Sigmoid"
  }
  node {
    input: "/model.16/cv1/conv/Conv_output_0"
    input: "/model.16/cv1/act/Sigmoid_output_0"
    output: "/model.16/cv1/act/Mul_output_0"
    name: "/model.16/cv1/act/Mul"
    op_type: "Mul"
  }
  node {
    input: "/model.16/cv1/act/Mul_output_0"
    input: "onnx::Split_205"
    output: "/model.16/Split_output_0"
    output: "/model.16/Split_output_1"
    name: "/model.16/Split"
    op_type: "Split"
    attribute {
      name: "axis"
      i: 1
      type: INT
    }
  }
  node {
    input: "/model.16/Split_output_1"
    input: "model.16.m.0.cv1.conv.weight"
    input: "model.16.m.0.cv1.conv.bias"
    output: "/model.16/m.0/cv1/conv/Conv_output_0"
    name: "/model.16/m.0/cv1/conv/Conv"
    op_type: "Conv"
    attribute {
      name: "dilations"
      ints: 1
      ints: 1
      type: INTS
    }
    attribute {
      name: "group"
      i: 1
      type: INT
    }
    attribute {
      name: "kernel_shape"
      ints: 3
      ints: 3
      type: INTS
    }
    attribute {
      name: "pads"
      ints: 1
      ints: 1
      ints: 1
      ints: 1
      type: INTS
    }
    attribute {
      name: "strides"
      ints: 1
      ints: 1
      type: INTS
    }
  }
  node {
    input: "/model.16/m.0/cv1/conv/Conv_output_0"
    output: "/model.16/m.0/cv1/act/Sigmoid_output_0"
    name: "/model.16/m.0/cv1/act/Sigmoid"
    op_type: "Sigmoid"
  }
  node {
    input: "/model.16/m.0/cv1/conv/Conv_output_0"
    input: "/model.16/m.0/cv1/act/Sigmoid_output_0"
    output: "/model.16/m.0/cv1/act/Mul_output_0"
    name: "/model.16/m.0/cv1/act/Mul"
    op_type: "Mul"
  }
  node {
    input: "/model.16/m.0/cv1/act/Mul_output_0"
    input: "model.16.m.0.cv2.conv.weight"
    input: "model.16.m.0.cv2.conv.bias"
    output: "/model.16/m.0/cv2/conv/Conv_output_0"
    name: "/model.16/m.0/cv2/conv/Conv"
    op_type: "Conv"
    attribute {
      name: "dilations"
      ints: 1
      ints: 1
      type: INTS
    }
    attribute {
      name: "group"
      i: 1
      type: INT
    }
    attribute {
      name: "kernel_shape"
      ints: 3
      ints: 3
      type: INTS
    }
    attribute {
      name: "pads"
      ints: 1
      ints: 1
      ints: 1
      ints: 1
      type: INTS
    }
    attribute {
      name: "strides"
      ints: 1
      ints: 1
      type: INTS
    }
  }
  node {
    input: "/model.16/m.0/cv2/conv/Conv_output_0"
    output: "/model.16/m.0/cv2/act/Sigmoid_output_0"
    name: "/model.16/m.0/cv2/act/Sigmoid"
    op_type: "Sigmoid"
  }
  node {
    input: "/model.16/m.0/cv2/conv/Conv_output_0"
    input: "/model.16/m.0/cv2/act/Sigmoid_output_0"
    output: "/model.16/m.0/cv2/act/Mul_output_0"
    name: "/model.16/m.0/cv2/act/Mul"
    op_type: "Mul"
  }
  node {
    input: "/model.16/Split_output_1"
    input: "/model.16/m.0/cv2/act/Mul_output_0"
    output: "/model.16/m.0/Add_output_0"
    name: "/model.16/m.0/Add"
    op_type: "Add"
  }
  node {
    input: "/model.16/Split_output_0"
    input: "/model.16/Split_output_1"
    input: "/model.16/m.0/Add_output_0"
    output: "/model.16/Concat_output_0"
    name: "/model.16/Concat"
    op_type: "Concat"
    attribute {
      name: "axis"
      i: 1
      type: INT
    }
  }
  node {
    input: "/model.16/Concat_output_0"
    input: "model.16.cv2.conv.weight"
    input: "model.16.cv2.conv.bias"
    output: "/model.16/cv2/conv/Conv_output_0"
    name: "/model.16/cv2/conv/Conv"
    op_type: "Conv"
    attribute {
      name: "dilations"
      ints: 1
      ints: 1
      type: INTS
    }
    attribute {
      name: "group"
      i: 1
      type: INT
    }
    attribute {
      name: "kernel_shape"
      ints: 1
      ints: 1
      type: INTS
    }
    attribute {
      name: "pads"
      ints: 0
      ints: 0
      ints: 0
      ints: 0
      type: INTS
    }
    attribute {
      name: "strides"
      ints: 1
      ints: 1
      type: INTS
    }
  }
  node {
    input: "/model.16/cv2/conv/Conv_output_0"
    output: "/model.16/cv2/act/Sigmoid_output_0"
    name: "/model.16/cv2/act/Sigmoid"
    op_type: "Sigmoid"
  }
  node {
    input: "/model.16/cv2/conv/Conv_output_0"
    input: "/model.16/cv2/act/Sigmoid_output_0"
    output: "/model.16/cv2/act/Mul_output_0"
    name: "/model.16/cv2/act/Mul"
    op_type: "Mul"
  }
  node {
    input: "/model.16/cv2/act/Mul_output_0"
    input: "model.17.conv.weight"
    input: "model.17.conv.bias"
    output: "/model.17/conv/Conv_output_0"
    name: "/model.17/conv/Conv"
    op_type: "Conv"
    attribute {
      name: "dilations"
      ints: 1
      ints: 1
      type: INTS
    }
    attribute {
      name: "group"
      i: 1
      type: INT
    }
    attribute {
      name: "kernel_shape"
      ints: 3
      ints: 3
      type: INTS
    }
    attribute {
      name: "pads"
      ints: 1
      ints: 1
      ints: 1
      ints: 1
      type: INTS
    }
    attribute {
      name: "strides"
      ints: 2
      ints: 2
      type: INTS
    }
  }
  node {
    input: "/model.16/cv2/act/Mul_output_0"
    input: "model.23.cv2.0.0.conv.weight"
    input: "model.23.cv2.0.0.conv.bias"
    output: "/model.23/cv2.0/cv2.0.0/conv/Conv_output_0"
    name: "/model.23/cv2.0/cv2.0.0/conv/Conv"
    op_type: "Conv"
    attribute {
      name: "dilations"
      ints: 1
      ints: 1
      type: INTS
    }
    attribute {
      name: "group"
      i: 1
      type: INT
    }
    attribute {
      name: "kernel_shape"
      ints: 3
      ints: 3
      type: INTS
    }
    attribute {
      name: "pads"
      ints: 1
      ints: 1
      ints: 1
      ints: 1
      type: INTS
    }
    attribute {
      name: "strides"
      ints: 1
      ints: 1
      type: INTS
    }
  }
  node {
    input: "/model.16/cv2/act/Mul_output_0"
    input: "model.23.cv3.0.0.0.conv.weight"
    input: "model.23.cv3.0.0.0.conv.bias"
    output: "/model.23/cv3.0/cv3.0.0/cv3.0.0.0/conv/Conv_output_0"
    name: "/model.23/cv3.0/cv3.0.0/cv3.0.0.0/conv/Conv"
    op_type: "Conv"
    attribute {
      name: "dilations"
      ints: 1
      ints: 1
      type: INTS
    }
    attribute {
      name: "group"
      i: 128
      type: INT
    }
    attribute {
      name: "kernel_shape"
      ints: 3
      ints: 3
      type: INTS
    }
    attribute {
      name: "pads"
      ints: 1
      ints: 1
      ints: 1
      ints: 1
      type: INTS
    }
    attribute {
      name: "strides"
      ints: 1
      ints: 1
      type: INTS
    }
  }
  node {
    input: "/model.17/conv/Conv_output_0"
    output: "/model.17/act/Sigmoid_output_0"
    name: "/model.17/act/Sigmoid"
    op_type: "Sigmoid"
  }
  node {
    input: "/model.23/cv2.0/cv2.0.0/conv/Conv_output_0"
    output: "/model.23/cv2.0/cv2.0.0/act/Sigmoid_output_0"
    name: "/model.23/cv2.0/cv2.0.0/act/Sigmoid"
    op_type: "Sigmoid"
  }
  node {
    input: "/model.23/cv3.0/cv3.0.0/cv3.0.0.0/conv/Conv_output_0"
    output: "/model.23/cv3.0/cv3.0.0/cv3.0.0.0/act/Sigmoid_output_0"
    name: "/model.23/cv3.0/cv3.0.0/cv3.0.0.0/act/Sigmoid"
    op_type: "Sigmoid"
  }
  node {
    input: "/model.17/conv/Conv_output_0"
    input: "/model.17/act/Sigmoid_output_0"
    output: "/model.17/act/Mul_output_0"
    name: "/model.17/act/Mul"
    op_type: "Mul"
  }
  node {
    input: "/model.23/cv2.0/cv2.0.0/conv/Conv_output_0"
    input: "/model.23/cv2.0/cv2.0.0/act/Sigmoid_output_0"
    output: "/model.23/cv2.0/cv2.0.0/act/Mul_output_0"
    name: "/model.23/cv2.0/cv2.0.0/act/Mul"
    op_type: "Mul"
  }
  node {
    input: "/model.23/cv3.0/cv3.0.0/cv3.0.0.0/conv/Conv_output_0"
    input: "/model.23/cv3.0/cv3.0.0/cv3.0.0.0/act/Sigmoid_output_0"
    output: "/model.23/cv3.0/cv3.0.0/cv3.0.0.0/act/Mul_output_0"
    name: "/model.23/cv3.0/cv3.0.0/cv3.0.0.0/act/Mul"
    op_type: "Mul"
  }
  node {
    input: "/model.17/act/Mul_output_0"
    input: "/model.13/cv2/act/Mul_output_0"
    output: "/model.18/Concat_output_0"
    name: "/model.18/Concat"
    op_type: "Concat"
    attribute {
      name: "axis"
      i: 1
      type: INT
    }
  }
  node {
    input: "/model.23/cv2.0/cv2.0.0/act/Mul_output_0"
    input: "model.23.cv2.0.1.conv.weight"
    input: "model.23.cv2.0.1.conv.bias"
    output: "/model.23/cv2.0/cv2.0.1/conv/Conv_output_0"
    name: "/model.23/cv2.0/cv2.0.1/conv/Conv"
    op_type: "Conv"
    attribute {
      name: "dilations"
      ints: 1
      ints: 1
      type: INTS
    }
    attribute {
      name: "group"
      i: 1
      type: INT
    }
    attribute {
      name: "kernel_shape"
      ints: 3
      ints: 3
      type: INTS
    }
    attribute {
      name: "pads"
      ints: 1
      ints: 1
      ints: 1
      ints: 1
      type: INTS
    }
    attribute {
      name: "strides"
      ints: 1
      ints: 1
      type: INTS
    }
  }
  node {
    input: "/model.23/cv3.0/cv3.0.0/cv3.0.0.0/act/Mul_output_0"
    input: "model.23.cv3.0.0.1.conv.weight"
    input: "model.23.cv3.0.0.1.conv.bias"
    output: "/model.23/cv3.0/cv3.0.0/cv3.0.0.1/conv/Conv_output_0"
    name: "/model.23/cv3.0/cv3.0.0/cv3.0.0.1/conv/Conv"
    op_type: "Conv"
    attribute {
      name: "dilations"
      ints: 1
      ints: 1
      type: INTS
    }
    attribute {
      name: "group"
      i: 1
      type: INT
    }
    attribute {
      name: "kernel_shape"
      ints: 1
      ints: 1
      type: INTS
    }
    attribute {
      name: "pads"
      ints: 0
      ints: 0
      ints: 0
      ints: 0
      type: INTS
    }
    attribute {
      name: "strides"
      ints: 1
      ints: 1
      type: INTS
    }
  }
  node {
    input: "/model.18/Concat_output_0"
    input: "model.19.cv1.conv.weight"
    input: "model.19.cv1.conv.bias"
    output: "/model.19/cv1/conv/Conv_output_0"
    name: "/model.19/cv1/conv/Conv"
    op_type: "Conv"
    attribute {
      name: "dilations"
      ints: 1
      ints: 1
      type: INTS
    }
    attribute {
      name: "group"
      i: 1
      type: INT
    }
    attribute {
      name: "kernel_shape"
      ints: 1
      ints: 1
      type: INTS
    }
    attribute {
      name: "pads"
      ints: 0
      ints: 0
      ints: 0
      ints: 0
      type: INTS
    }
    attribute {
      name: "strides"
      ints: 1
      ints: 1
      type: INTS
    }
  }
  node {
    input: "/model.23/cv2.0/cv2.0.1/conv/Conv_output_0"
    output: "/model.23/cv2.0/cv2.0.1/act/Sigmoid_output_0"
    name: "/model.23/cv2.0/cv2.0.1/act/Sigmoid"
    op_type: "Sigmoid"
  }
  node {
    input: "/model.23/cv3.0/cv3.0.0/cv3.0.0.1/conv/Conv_output_0"
    output: "/model.23/cv3.0/cv3.0.0/cv3.0.0.1/act/Sigmoid_output_0"
    name: "/model.23/cv3.0/cv3.0.0/cv3.0.0.1/act/Sigmoid"
    op_type: "Sigmoid"
  }
  node {
    input: "/model.19/cv1/conv/Conv_output_0"
    output: "/model.19/cv1/act/Sigmoid_output_0"
    name: "/model.19/cv1/act/Sigmoid"
    op_type: "Sigmoid"
  }
  node {
    input: "/model.23/cv2.0/cv2.0.1/conv/Conv_output_0"
    input: "/model.23/cv2.0/cv2.0.1/act/Sigmoid_output_0"
    output: "/model.23/cv2.0/cv2.0.1/act/Mul_output_0"
    name: "/model.23/cv2.0/cv2.0.1/act/Mul"
    op_type: "Mul"
  }
  node {
    input: "/model.23/cv3.0/cv3.0.0/cv3.0.0.1/conv/Conv_output_0"
    input: "/model.23/cv3.0/cv3.0.0/cv3.0.0.1/act/Sigmoid_output_0"
    output: "/model.23/cv3.0/cv3.0.0/cv3.0.0.1/act/Mul_output_0"
    name: "/model.23/cv3.0/cv3.0.0/cv3.0.0.1/act/Mul"
    op_type: "Mul"
  }
  node {
    input: "/model.19/cv1/conv/Conv_output_0"
    input: "/model.19/cv1/act/Sigmoid_output_0"
    output: "/model.19/cv1/act/Mul_output_0"
    name: "/model.19/cv1/act/Mul"
    op_type: "Mul"
  }
  node {
    input: "/model.23/cv2.0/cv2.0.1/act/Mul_output_0"
    input: "model.23.cv2.0.2.weight"
    input: "model.23.cv2.0.2.bias"
    output: "/model.23/cv2.0/cv2.0.2/Conv_output_0"
    name: "/model.23/cv2.0/cv2.0.2/Conv"
    op_type: "Conv"
    attribute {
      name: "dilations"
      ints: 1
      ints: 1
      type: INTS
    }
    attribute {
      name: "group"
      i: 1
      type: INT
    }
    attribute {
      name: "kernel_shape"
      ints: 1
      ints: 1
      type: INTS
    }
    attribute {
      name: "pads"
      ints: 0
      ints: 0
      ints: 0
      ints: 0
      type: INTS
    }
    attribute {
      name: "strides"
      ints: 1
      ints: 1
      type: INTS
    }
  }
  node {
    input: "/model.23/cv3.0/cv3.0.0/cv3.0.0.1/act/Mul_output_0"
    input: "model.23.cv3.0.1.0.conv.weight"
    input: "model.23.cv3.0.1.0.conv.bias"
    output: "/model.23/cv3.0/cv3.0.1/cv3.0.1.0/conv/Conv_output_0"
    name: "/model.23/cv3.0/cv3.0.1/cv3.0.1.0/conv/Conv"
    op_type: "Conv"
    attribute {
      name: "dilations"
      ints: 1
      ints: 1
      type: INTS
    }
    attribute {
      name: "group"
      i: 128
      type: INT
    }
    attribute {
      name: "kernel_shape"
      ints: 3
      ints: 3
      type: INTS
    }
    attribute {
      name: "pads"
      ints: 1
      ints: 1
      ints: 1
      ints: 1
      type: INTS
    }
    attribute {
      name: "strides"
      ints: 1
      ints: 1
      type: INTS
    }
  }
  node {
    input: "/model.19/cv1/act/Mul_output_0"
    input: "onnx::Split_225"
    output: "/model.19/Split_output_0"
    output: "/model.19/Split_output_1"
    name: "/model.19/Split"
    op_type: "Split"
    attribute {
      name: "axis"
      i: 1
      type: INT
    }
  }
  node {
    input: "/model.23/cv3.0/cv3.0.1/cv3.0.1.0/conv/Conv_output_0"
    output: "/model.23/cv3.0/cv3.0.1/cv3.0.1.0/act/Sigmoid_output_0"
    name: "/model.23/cv3.0/cv3.0.1/cv3.0.1.0/act/Sigmoid"
    op_type: "Sigmoid"
  }
  node {
    input: "/model.19/Split_output_1"
    input: "model.19.m.0.cv1.conv.weight"
    input: "model.19.m.0.cv1.conv.bias"
    output: "/model.19/m.0/cv1/conv/Conv_output_0"
    name: "/model.19/m.0/cv1/conv/Conv"
    op_type: "Conv"
    attribute {
      name: "dilations"
      ints: 1
      ints: 1
      type: INTS
    }
    attribute {
      name: "group"
      i: 1
      type: INT
    }
    attribute {
      name: "kernel_shape"
      ints: 3
      ints: 3
      type: INTS
    }
    attribute {
      name: "pads"
      ints: 1
      ints: 1
      ints: 1
      ints: 1
      type: INTS
    }
    attribute {
      name: "strides"
      ints: 1
      ints: 1
      type: INTS
    }
  }
  node {
    input: "/model.23/cv3.0/cv3.0.1/cv3.0.1.0/conv/Conv_output_0"
    input: "/model.23/cv3.0/cv3.0.1/cv3.0.1.0/act/Sigmoid_output_0"
    output: "/model.23/cv3.0/cv3.0.1/cv3.0.1.0/act/Mul_output_0"
    name: "/model.23/cv3.0/cv3.0.1/cv3.0.1.0/act/Mul"
    op_type: "Mul"
  }
  node {
    input: "/model.19/m.0/cv1/conv/Conv_output_0"
    output: "/model.19/m.0/cv1/act/Sigmoid_output_0"
    name: "/model.19/m.0/cv1/act/Sigmoid"
    op_type: "Sigmoid"
  }
  node {
    input: "/model.23/cv3.0/cv3.0.1/cv3.0.1.0/act/Mul_output_0"
    input: "model.23.cv3.0.1.1.conv.weight"
    input: "model.23.cv3.0.1.1.conv.bias"
    output: "/model.23/cv3.0/cv3.0.1/cv3.0.1.1/conv/Conv_output_0"
    name: "/model.23/cv3.0/cv3.0.1/cv3.0.1.1/conv/Conv"
    op_type: "Conv"
    attribute {
      name: "dilations"
      ints: 1
      ints: 1
      type: INTS
    }
    attribute {
      name: "group"
      i: 1
      type: INT
    }
    attribute {
      name: "kernel_shape"
      ints: 1
      ints: 1
      type: INTS
    }
    attribute {
      name: "pads"
      ints: 0
      ints: 0
      ints: 0
      ints: 0
      type: INTS
    }
    attribute {
      name: "strides"
      ints: 1
      ints: 1
      type: INTS
    }
  }
  node {
    input: "/model.19/m.0/cv1/conv/Conv_output_0"
    input: "/model.19/m.0/cv1/act/Sigmoid_output_0"
    output: "/model.19/m.0/cv1/act/Mul_output_0"
    name: "/model.19/m.0/cv1/act/Mul"
    op_type: "Mul"
  }
  node {
    input: "/model.23/cv3.0/cv3.0.1/cv3.0.1.1/conv/Conv_output_0"
    output: "/model.23/cv3.0/cv3.0.1/cv3.0.1.1/act/Sigmoid_output_0"
    name: "/model.23/cv3.0/cv3.0.1/cv3.0.1.1/act/Sigmoid"
    op_type: "Sigmoid"
  }
  node {
    input: "/model.19/m.0/cv1/act/Mul_output_0"
    input: "model.19.m.0.cv2.conv.weight"
    input: "model.19.m.0.cv2.conv.bias"
    output: "/model.19/m.0/cv2/conv/Conv_output_0"
    name: "/model.19/m.0/cv2/conv/Conv"
    op_type: "Conv"
    attribute {
      name: "dilations"
      ints: 1
      ints: 1
      type: INTS
    }
    attribute {
      name: "group"
      i: 1
      type: INT
    }
    attribute {
      name: "kernel_shape"
      ints: 3
      ints: 3
      type: INTS
    }
    attribute {
      name: "pads"
      ints: 1
      ints: 1
      ints: 1
      ints: 1
      type: INTS
    }
    attribute {
      name: "strides"
      ints: 1
      ints: 1
      type: INTS
    }
  }
  node {
    input: "/model.23/cv3.0/cv3.0.1/cv3.0.1.1/conv/Conv_output_0"
    input: "/model.23/cv3.0/cv3.0.1/cv3.0.1.1/act/Sigmoid_output_0"
    output: "/model.23/cv3.0/cv3.0.1/cv3.0.1.1/act/Mul_output_0"
    name: "/model.23/cv3.0/cv3.0.1/cv3.0.1.1/act/Mul"
    op_type: "Mul"
  }
  node {
    input: "/model.19/m.0/cv2/conv/Conv_output_0"
    output: "/model.19/m.0/cv2/act/Sigmoid_output_0"
    name: "/model.19/m.0/cv2/act/Sigmoid"
    op_type: "Sigmoid"
  }
  node {
    input: "/model.23/cv3.0/cv3.0.1/cv3.0.1.1/act/Mul_output_0"
    input: "model.23.cv3.0.2.weight"
    input: "model.23.cv3.0.2.bias"
    output: "/model.23/cv3.0/cv3.0.2/Conv_output_0"
    name: "/model.23/cv3.0/cv3.0.2/Conv"
    op_type: "Conv"
    attribute {
      name: "dilations"
      ints: 1
      ints: 1
      type: INTS
    }
    attribute {
      name: "group"
      i: 1
      type: INT
    }
    attribute {
      name: "kernel_shape"
      ints: 1
      ints: 1
      type: INTS
    }
    attribute {
      name: "pads"
      ints: 0
      ints: 0
      ints: 0
      ints: 0
      type: INTS
    }
    attribute {
      name: "strides"
      ints: 1
      ints: 1
      type: INTS
    }
  }
  node {
    input: "/model.19/m.0/cv2/conv/Conv_output_0"
    input: "/model.19/m.0/cv2/act/Sigmoid_output_0"
    output: "/model.19/m.0/cv2/act/Mul_output_0"
    name: "/model.19/m.0/cv2/act/Mul"
    op_type: "Mul"
  }
  node {
    input: "/model.23/cv2.0/cv2.0.2/Conv_output_0"
    input: "/model.23/cv3.0/cv3.0.2/Conv_output_0"
    output: "/model.23/Concat_output_0"
    name: "/model.23/Concat"
    op_type: "Concat"
    attribute {
      name: "axis"
      i: 1
      type: INT
    }
  }
  node {
    input: "/model.19/Split_output_1"
    input: "/model.19/m.0/cv2/act/Mul_output_0"
    output: "/model.19/m.0/Add_output_0"
    name: "/model.19/m.0/Add"
    op_type: "Add"
  }
  node {
    input: "/model.23/Concat_output_0"
    input: "/model.23/Constant_output_0"
    output: "/model.23/Reshape_output_0"
    name: "/model.23/Reshape"
    op_type: "Reshape"
    attribute {
      name: "allowzero"
      i: 0
      type: INT
    }
  }
  node {
    input: "/model.19/Split_output_0"
    input: "/model.19/Split_output_1"
    input: "/model.19/m.0/Add_output_0"
    output: "/model.19/Concat_output_0"
    name: "/model.19/Concat"
    op_type: "Concat"
    attribute {
      name: "axis"
      i: 1
      type: INT
    }
  }
  node {
    input: "/model.19/Concat_output_0"
    input: "model.19.cv2.conv.weight"
    input: "model.19.cv2.conv.bias"
    output: "/model.19/cv2/conv/Conv_output_0"
    name: "/model.19/cv2/conv/Conv"
    op_type: "Conv"
    attribute {
      name: "dilations"
      ints: 1
      ints: 1
      type: INTS
    }
    attribute {
      name: "group"
      i: 1
      type: INT
    }
    attribute {
      name: "kernel_shape"
      ints: 1
      ints: 1
      type: INTS
    }
    attribute {
      name: "pads"
      ints: 0
      ints: 0
      ints: 0
      ints: 0
      type: INTS
    }
    attribute {
      name: "strides"
      ints: 1
      ints: 1
      type: INTS
    }
  }
  node {
    input: "/model.19/cv2/conv/Conv_output_0"
    output: "/model.19/cv2/act/Sigmoid_output_0"
    name: "/model.19/cv2/act/Sigmoid"
    op_type: "Sigmoid"
  }
  node {
    input: "/model.19/cv2/conv/Conv_output_0"
    input: "/model.19/cv2/act/Sigmoid_output_0"
    output: "/model.19/cv2/act/Mul_output_0"
    name: "/model.19/cv2/act/Mul"
    op_type: "Mul"
  }
  node {
    input: "/model.19/cv2/act/Mul_output_0"
    input: "model.20.conv.weight"
    input: "model.20.conv.bias"
    output: "/model.20/conv/Conv_output_0"
    name: "/model.20/conv/Conv"
    op_type: "Conv"
    attribute {
      name: "dilations"
      ints: 1
      ints: 1
      type: INTS
    }
    attribute {
      name: "group"
      i: 1
      type: INT
    }
    attribute {
      name: "kernel_shape"
      ints: 3
      ints: 3
      type: INTS
    }
    attribute {
      name: "pads"
      ints: 1
      ints: 1
      ints: 1
      ints: 1
      type: INTS
    }
    attribute {
      name: "strides"
      ints: 2
      ints: 2
      type: INTS
    }
  }
  node {
    input: "/model.19/cv2/act/Mul_output_0"
    input: "model.23.cv2.1.0.conv.weight"
    input: "model.23.cv2.1.0.conv.bias"
    output: "/model.23/cv2.1/cv2.1.0/conv/Conv_output_0"
    name: "/model.23/cv2.1/cv2.1.0/conv/Conv"
    op_type: "Conv"
    attribute {
      name: "dilations"
      ints: 1
      ints: 1
      type: INTS
    }
    attribute {
      name: "group"
      i: 1
      type: INT
    }
    attribute {
      name: "kernel_shape"
      ints: 3
      ints: 3
      type: INTS
    }
    attribute {
      name: "pads"
      ints: 1
      ints: 1
      ints: 1
      ints: 1
      type: INTS
    }
    attribute {
      name: "strides"
      ints: 1
      ints: 1
      type: INTS
    }
  }
  node {
    input: "/model.19/cv2/act/Mul_output_0"
    input: "model.23.cv3.1.0.0.conv.weight"
    input: "model.23.cv3.1.0.0.conv.bias"
    output: "/model.23/cv3.1/cv3.1.0/cv3.1.0.0/conv/Conv_output_0"
    name: "/model.23/cv3.1/cv3.1.0/cv3.1.0.0/conv/Conv"
    op_type: "Conv"
    attribute {
      name: "dilations"
      ints: 1
      ints: 1
      type: INTS
    }
    attribute {
      name: "group"
      i: 256
      type: INT
    }
    attribute {
      name: "kernel_shape"
      ints: 3
      ints: 3
      type: INTS
    }
    attribute {
      name: "pads"
      ints: 1
      ints: 1
      ints: 1
      ints: 1
      type: INTS
    }
    attribute {
      name: "strides"
      ints: 1
      ints: 1
      type: INTS
    }
  }
  node {
    input: "/model.20/conv/Conv_output_0"
    output: "/model.20/act/Sigmoid_output_0"
    name: "/model.20/act/Sigmoid"
    op_type: "Sigmoid"
  }
  node {
    input: "/model.23/cv2.1/cv2.1.0/conv/Conv_output_0"
    output: "/model.23/cv2.1/cv2.1.0/act/Sigmoid_output_0"
    name: "/model.23/cv2.1/cv2.1.0/act/Sigmoid"
    op_type: "Sigmoid"
  }
  node {
    input: "/model.23/cv3.1/cv3.1.0/cv3.1.0.0/conv/Conv_output_0"
    output: "/model.23/cv3.1/cv3.1.0/cv3.1.0.0/act/Sigmoid_output_0"
    name: "/model.23/cv3.1/cv3.1.0/cv3.1.0.0/act/Sigmoid"
    op_type: "Sigmoid"
  }
  node {
    input: "/model.20/conv/Conv_output_0"
    input: "/model.20/act/Sigmoid_output_0"
    output: "/model.20/act/Mul_output_0"
    name: "/model.20/act/Mul"
    op_type: "Mul"
  }
  node {
    input: "/model.23/cv2.1/cv2.1.0/conv/Conv_output_0"
    input: "/model.23/cv2.1/cv2.1.0/act/Sigmoid_output_0"
    output: "/model.23/cv2.1/cv2.1.0/act/Mul_output_0"
    name: "/model.23/cv2.1/cv2.1.0/act/Mul"
    op_type: "Mul"
  }
  node {
    input: "/model.23/cv3.1/cv3.1.0/cv3.1.0.0/conv/Conv_output_0"
    input: "/model.23/cv3.1/cv3.1.0/cv3.1.0.0/act/Sigmoid_output_0"
    output: "/model.23/cv3.1/cv3.1.0/cv3.1.0.0/act/Mul_output_0"
    name: "/model.23/cv3.1/cv3.1.0/cv3.1.0.0/act/Mul"
    op_type: "Mul"
  }
  node {
    input: "/model.20/act/Mul_output_0"
    input: "/model.10/cv2/act/Mul_output_0"
    output: "/model.21/Concat_output_0"
    name: "/model.21/Concat"
    op_type: "Concat"
    attribute {
      name: "axis"
      i: 1
      type: INT
    }
  }
  node {
    input: "/model.23/cv2.1/cv2.1.0/act/Mul_output_0"
    input: "model.23.cv2.1.1.conv.weight"
    input: "model.23.cv2.1.1.conv.bias"
    output: "/model.23/cv2.1/cv2.1.1/conv/Conv_output_0"
    name: "/model.23/cv2.1/cv2.1.1/conv/Conv"
    op_type: "Conv"
    attribute {
      name: "dilations"
      ints: 1
      ints: 1
      type: INTS
    }
    attribute {
      name: "group"
      i: 1
      type: INT
    }
    attribute {
      name: "kernel_shape"
      ints: 3
      ints: 3
      type: INTS
    }
    attribute {
      name: "pads"
      ints: 1
      ints: 1
      ints: 1
      ints: 1
      type: INTS
    }
    attribute {
      name: "strides"
      ints: 1
      ints: 1
      type: INTS
    }
  }
  node {
    input: "/model.23/cv3.1/cv3.1.0/cv3.1.0.0/act/Mul_output_0"
    input: "model.23.cv3.1.0.1.conv.weight"
    input: "model.23.cv3.1.0.1.conv.bias"
    output: "/model.23/cv3.1/cv3.1.0/cv3.1.0.1/conv/Conv_output_0"
    name: "/model.23/cv3.1/cv3.1.0/cv3.1.0.1/conv/Conv"
    op_type: "Conv"
    attribute {
      name: "dilations"
      ints: 1
      ints: 1
      type: INTS
    }
    attribute {
      name: "group"
      i: 1
      type: INT
    }
    attribute {
      name: "kernel_shape"
      ints: 1
      ints: 1
      type: INTS
    }
    attribute {
      name: "pads"
      ints: 0
      ints: 0
      ints: 0
      ints: 0
      type: INTS
    }
    attribute {
      name: "strides"
      ints: 1
      ints: 1
      type: INTS
    }
  }
  node {
    input: "/model.21/Concat_output_0"
    input: "model.22.cv1.conv.weight"
    input: "model.22.cv1.conv.bias"
    output: "/model.22/cv1/conv/Conv_output_0"
    name: "/model.22/cv1/conv/Conv"
    op_type: "Conv"
    attribute {
      name: "dilations"
      ints: 1
      ints: 1
      type: INTS
    }
    attribute {
      name: "group"
      i: 1
      type: INT
    }
    attribute {
      name: "kernel_shape"
      ints: 1
      ints: 1
      type: INTS
    }
    attribute {
      name: "pads"
      ints: 0
      ints: 0
      ints: 0
      ints: 0
      type: INTS
    }
    attribute {
      name: "strides"
      ints: 1
      ints: 1
      type: INTS
    }
  }
  node {
    input: "/model.23/cv2.1/cv2.1.1/conv/Conv_output_0"
    output: "/model.23/cv2.1/cv2.1.1/act/Sigmoid_output_0"
    name: "/model.23/cv2.1/cv2.1.1/act/Sigmoid"
    op_type: "Sigmoid"
  }
  node {
    input: "/model.23/cv3.1/cv3.1.0/cv3.1.0.1/conv/Conv_output_0"
    output: "/model.23/cv3.1/cv3.1.0/cv3.1.0.1/act/Sigmoid_output_0"
    name: "/model.23/cv3.1/cv3.1.0/cv3.1.0.1/act/Sigmoid"
    op_type: "Sigmoid"
  }
  node {
    input: "/model.22/cv1/conv/Conv_output_0"
    output: "/model.22/cv1/act/Sigmoid_output_0"
    name: "/model.22/cv1/act/Sigmoid"
    op_type: "Sigmoid"
  }
  node {
    input: "/model.23/cv2.1/cv2.1.1/conv/Conv_output_0"
    input: "/model.23/cv2.1/cv2.1.1/act/Sigmoid_output_0"
    output: "/model.23/cv2.1/cv2.1.1/act/Mul_output_0"
    name: "/model.23/cv2.1/cv2.1.1/act/Mul"
    op_type: "Mul"
  }
  node {
    input: "/model.23/cv3.1/cv3.1.0/cv3.1.0.1/conv/Conv_output_0"
    input: "/model.23/cv3.1/cv3.1.0/cv3.1.0.1/act/Sigmoid_output_0"
    output: "/model.23/cv3.1/cv3.1.0/cv3.1.0.1/act/Mul_output_0"
    name: "/model.23/cv3.1/cv3.1.0/cv3.1.0.1/act/Mul"
    op_type: "Mul"
  }
  node {
    input: "/model.22/cv1/conv/Conv_output_0"
    input: "/model.22/cv1/act/Sigmoid_output_0"
    output: "/model.22/cv1/act/Mul_output_0"
    name: "/model.22/cv1/act/Mul"
    op_type: "Mul"
  }
  node {
    input: "/model.23/cv2.1/cv2.1.1/act/Mul_output_0"
    input: "model.23.cv2.1.2.weight"
    input: "model.23.cv2.1.2.bias"
    output: "/model.23/cv2.1/cv2.1.2/Conv_output_0"
    name: "/model.23/cv2.1/cv2.1.2/Conv"
    op_type: "Conv"
    attribute {
      name: "dilations"
      ints: 1
      ints: 1
      type: INTS
    }
    attribute {
      name: "group"
      i: 1
      type: INT
    }
    attribute {
      name: "kernel_shape"
      ints: 1
      ints: 1
      type: INTS
    }
    attribute {
      name: "pads"
      ints: 0
      ints: 0
      ints: 0
      ints: 0
      type: INTS
    }
    attribute {
      name: "strides"
      ints: 1
      ints: 1
      type: INTS
    }
  }
  node {
    input: "/model.23/cv3.1/cv3.1.0/cv3.1.0.1/act/Mul_output_0"
    input: "model.23.cv3.1.1.0.conv.weight"
    input: "model.23.cv3.1.1.0.conv.bias"
    output: "/model.23/cv3.1/cv3.1.1/cv3.1.1.0/conv/Conv_output_0"
    name: "/model.23/cv3.1/cv3.1.1/cv3.1.1.0/conv/Conv"
    op_type: "Conv"
    attribute {
      name: "dilations"
      ints: 1
      ints: 1
      type: INTS
    }
    attribute {
      name: "group"
      i: 128
      type: INT
    }
    attribute {
      name: "kernel_shape"
      ints: 3
      ints: 3
      type: INTS
    }
    attribute {
      name: "pads"
      ints: 1
      ints: 1
      ints: 1
      ints: 1
      type: INTS
    }
    attribute {
      name: "strides"
      ints: 1
      ints: 1
      type: INTS
    }
  }
  node {
    input: "/model.22/cv1/act/Mul_output_0"
    input: "onnx::Split_262"
    output: "/model.22/Split_output_0"
    output: "/model.22/Split_output_1"
    name: "/model.22/Split"
    op_type: "Split"
    attribute {
      name: "axis"
      i: 1
      type: INT
    }
  }
  node {
    input: "/model.23/cv3.1/cv3.1.1/cv3.1.1.0/conv/Conv_output_0"
    output: "/model.23/cv3.1/cv3.1.1/cv3.1.1.0/act/Sigmoid_output_0"
    name: "/model.23/cv3.1/cv3.1.1/cv3.1.1.0/act/Sigmoid"
    op_type: "Sigmoid"
  }
  node {
    input: "/model.22/Split_output_1"
    input: "model.22.m.0.cv1.conv.weight"
    input: "model.22.m.0.cv1.conv.bias"
    output: "/model.22/m.0/cv1/conv/Conv_output_0"
    name: "/model.22/m.0/cv1/conv/Conv"
    op_type: "Conv"
    attribute {
      name: "dilations"
      ints: 1
      ints: 1
      type: INTS
    }
    attribute {
      name: "group"
      i: 1
      type: INT
    }
    attribute {
      name: "kernel_shape"
      ints: 1
      ints: 1
      type: INTS
    }
    attribute {
      name: "pads"
      ints: 0
      ints: 0
      ints: 0
      ints: 0
      type: INTS
    }
    attribute {
      name: "strides"
      ints: 1
      ints: 1
      type: INTS
    }
  }
  node {
    input: "/model.22/Split_output_1"
    input: "model.22.m.0.cv2.conv.weight"
    input: "model.22.m.0.cv2.conv.bias"
    output: "/model.22/m.0/cv2/conv/Conv_output_0"
    name: "/model.22/m.0/cv2/conv/Conv"
    op_type: "Conv"
    attribute {
      name: "dilations"
      ints: 1
      ints: 1
      type: INTS
    }
    attribute {
      name: "group"
      i: 1
      type: INT
    }
    attribute {
      name: "kernel_shape"
      ints: 1
      ints: 1
      type: INTS
    }
    attribute {
      name: "pads"
      ints: 0
      ints: 0
      ints: 0
      ints: 0
      type: INTS
    }
    attribute {
      name: "strides"
      ints: 1
      ints: 1
      type: INTS
    }
  }
  node {
    input: "/model.23/cv3.1/cv3.1.1/cv3.1.1.0/conv/Conv_output_0"
    input: "/model.23/cv3.1/cv3.1.1/cv3.1.1.0/act/Sigmoid_output_0"
    output: "/model.23/cv3.1/cv3.1.1/cv3.1.1.0/act/Mul_output_0"
    name: "/model.23/cv3.1/cv3.1.1/cv3.1.1.0/act/Mul"
    op_type: "Mul"
  }
  node {
    input: "/model.22/m.0/cv1/conv/Conv_output_0"
    output: "/model.22/m.0/cv1/act/Sigmoid_output_0"
    name: "/model.22/m.0/cv1/act/Sigmoid"
    op_type: "Sigmoid"
  }
  node {
    input: "/model.22/m.0/cv2/conv/Conv_output_0"
    output: "/model.22/m.0/cv2/act/Sigmoid_output_0"
    name: "/model.22/m.0/cv2/act/Sigmoid"
    op_type: "Sigmoid"
  }
  node {
    input: "/model.23/cv3.1/cv3.1.1/cv3.1.1.0/act/Mul_output_0"
    input: "model.23.cv3.1.1.1.conv.weight"
    input: "model.23.cv3.1.1.1.conv.bias"
    output: "/model.23/cv3.1/cv3.1.1/cv3.1.1.1/conv/Conv_output_0"
    name: "/model.23/cv3.1/cv3.1.1/cv3.1.1.1/conv/Conv"
    op_type: "Conv"
    attribute {
      name: "dilations"
      ints: 1
      ints: 1
      type: INTS
    }
    attribute {
      name: "group"
      i: 1
      type: INT
    }
    attribute {
      name: "kernel_shape"
      ints: 1
      ints: 1
      type: INTS
    }
    attribute {
      name: "pads"
      ints: 0
      ints: 0
      ints: 0
      ints: 0
      type: INTS
    }
    attribute {
      name: "strides"
      ints: 1
      ints: 1
      type: INTS
    }
  }
  node {
    input: "/model.22/m.0/cv1/conv/Conv_output_0"
    input: "/model.22/m.0/cv1/act/Sigmoid_output_0"
    output: "/model.22/m.0/cv1/act/Mul_output_0"
    name: "/model.22/m.0/cv1/act/Mul"
    op_type: "Mul"
  }
  node {
    input: "/model.22/m.0/cv2/conv/Conv_output_0"
    input: "/model.22/m.0/cv2/act/Sigmoid_output_0"
    output: "/model.22/m.0/cv2/act/Mul_output_0"
    name: "/model.22/m.0/cv2/act/Mul"
    op_type: "Mul"
  }
  node {
    input: "/model.23/cv3.1/cv3.1.1/cv3.1.1.1/conv/Conv_output_0"
    output: "/model.23/cv3.1/cv3.1.1/cv3.1.1.1/act/Sigmoid_output_0"
    name: "/model.23/cv3.1/cv3.1.1/cv3.1.1.1/act/Sigmoid"
    op_type: "Sigmoid"
  }
  node {
    input: "/model.22/m.0/cv1/act/Mul_output_0"
    input: "model.22.m.0.m.0.cv1.conv.weight"
    input: "model.22.m.0.m.0.cv1.conv.bias"
    output: "/model.22/m.0/m/m.0/cv1/conv/Conv_output_0"
    name: "/model.22/m.0/m/m.0/cv1/conv/Conv"
    op_type: "Conv"
    attribute {
      name: "dilations"
      ints: 1
      ints: 1
      type: INTS
    }
    attribute {
      name: "group"
      i: 1
      type: INT
    }
    attribute {
      name: "kernel_shape"
      ints: 3
      ints: 3
      type: INTS
    }
    attribute {
      name: "pads"
      ints: 1
      ints: 1
      ints: 1
      ints: 1
      type: INTS
    }
    attribute {
      name: "strides"
      ints: 1
      ints: 1
      type: INTS
    }
  }
  node {
    input: "/model.23/cv3.1/cv3.1.1/cv3.1.1.1/conv/Conv_output_0"
    input: "/model.23/cv3.1/cv3.1.1/cv3.1.1.1/act/Sigmoid_output_0"
    output: "/model.23/cv3.1/cv3.1.1/cv3.1.1.1/act/Mul_output_0"
    name: "/model.23/cv3.1/cv3.1.1/cv3.1.1.1/act/Mul"
    op_type: "Mul"
  }
  node {
    input: "/model.22/m.0/m/m.0/cv1/conv/Conv_output_0"
    output: "/model.22/m.0/m/m.0/cv1/act/Sigmoid_output_0"
    name: "/model.22/m.0/m/m.0/cv1/act/Sigmoid"
    op_type: "Sigmoid"
  }
  node {
    input: "/model.23/cv3.1/cv3.1.1/cv3.1.1.1/act/Mul_output_0"
    input: "model.23.cv3.1.2.weight"
    input: "model.23.cv3.1.2.bias"
    output: "/model.23/cv3.1/cv3.1.2/Conv_output_0"
    name: "/model.23/cv3.1/cv3.1.2/Conv"
    op_type: "Conv"
    attribute {
      name: "dilations"
      ints: 1
      ints: 1
      type: INTS
    }
    attribute {
      name: "group"
      i: 1
      type: INT
    }
    attribute {
      name: "kernel_shape"
      ints: 1
      ints: 1
      type: INTS
    }
    attribute {
      name: "pads"
      ints: 0
      ints: 0
      ints: 0
      ints: 0
      type: INTS
    }
    attribute {
      name: "strides"
      ints: 1
      ints: 1
      type: INTS
    }
  }
  node {
    input: "/model.22/m.0/m/m.0/cv1/conv/Conv_output_0"
    input: "/model.22/m.0/m/m.0/cv1/act/Sigmoid_output_0"
    output: "/model.22/m.0/m/m.0/cv1/act/Mul_output_0"
    name: "/model.22/m.0/m/m.0/cv1/act/Mul"
    op_type: "Mul"
  }
  node {
    input: "/model.23/cv2.1/cv2.1.2/Conv_output_0"
    input: "/model.23/cv3.1/cv3.1.2/Conv_output_0"
    output: "/model.23/Concat_1_output_0"
    name: "/model.23/Concat_1"
    op_type: "Concat"
    attribute {
      name: "axis"
      i: 1
      type: INT
    }
  }
  node {
    input: "/model.22/m.0/m/m.0/cv1/act/Mul_output_0"
    input: "model.22.m.0.m.0.cv2.conv.weight"
    input: "model.22.m.0.m.0.cv2.conv.bias"
    output: "/model.22/m.0/m/m.0/cv2/conv/Conv_output_0"
    name: "/model.22/m.0/m/m.0/cv2/conv/Conv"
    op_type: "Conv"
    attribute {
      name: "dilations"
      ints: 1
      ints: 1
      type: INTS
    }
    attribute {
      name: "group"
      i: 1
      type: INT
    }
    attribute {
      name: "kernel_shape"
      ints: 3
      ints: 3
      type: INTS
    }
    attribute {
      name: "pads"
      ints: 1
      ints: 1
      ints: 1
      ints: 1
      type: INTS
    }
    attribute {
      name: "strides"
      ints: 1
      ints: 1
      type: INTS
    }
  }
  node {
    input: "/model.23/Concat_1_output_0"
    input: "/model.23/Constant_output_0"
    output: "/model.23/Reshape_1_output_0"
    name: "/model.23/Reshape_1"
    op_type: "Reshape"
    attribute {
      name: "allowzero"
      i: 0
      type: INT
    }
  }
  node {
    input: "/model.22/m.0/m/m.0/cv2/conv/Conv_output_0"
    output: "/model.22/m.0/m/m.0/cv2/act/Sigmoid_output_0"
    name: "/model.22/m.0/m/m.0/cv2/act/Sigmoid"
    op_type: "Sigmoid"
  }
  node {
    input: "/model.22/m.0/m/m.0/cv2/conv/Conv_output_0"
    input: "/model.22/m.0/m/m.0/cv2/act/Sigmoid_output_0"
    output: "/model.22/m.0/m/m.0/cv2/act/Mul_output_0"
    name: "/model.22/m.0/m/m.0/cv2/act/Mul"
    op_type: "Mul"
  }
  node {
    input: "/model.22/m.0/cv1/act/Mul_output_0"
    input: "/model.22/m.0/m/m.0/cv2/act/Mul_output_0"
    output: "/model.22/m.0/m/m.0/Add_output_0"
    name: "/model.22/m.0/m/m.0/Add"
    op_type: "Add"
  }
  node {
    input: "/model.22/m.0/m/m.0/Add_output_0"
    input: "model.22.m.0.m.1.cv1.conv.weight"
    input: "model.22.m.0.m.1.cv1.conv.bias"
    output: "/model.22/m.0/m/m.1/cv1/conv/Conv_output_0"
    name: "/model.22/m.0/m/m.1/cv1/conv/Conv"
    op_type: "Conv"
    attribute {
      name: "dilations"
      ints: 1
      ints: 1
      type: INTS
    }
    attribute {
      name: "group"
      i: 1
      type: INT
    }
    attribute {
      name: "kernel_shape"
      ints: 3
      ints: 3
      type: INTS
    }
    attribute {
      name: "pads"
      ints: 1
      ints: 1
      ints: 1
      ints: 1
      type: INTS
    }
    attribute {
      name: "strides"
      ints: 1
      ints: 1
      type: INTS
    }
  }
  node {
    input: "/model.22/m.0/m/m.1/cv1/conv/Conv_output_0"
    output: "/model.22/m.0/m/m.1/cv1/act/Sigmoid_output_0"
    name: "/model.22/m.0/m/m.1/cv1/act/Sigmoid"
    op_type: "Sigmoid"
  }
  node {
    input: "/model.22/m.0/m/m.1/cv1/conv/Conv_output_0"
    input: "/model.22/m.0/m/m.1/cv1/act/Sigmoid_output_0"
    output: "/model.22/m.0/m/m.1/cv1/act/Mul_output_0"
    name: "/model.22/m.0/m/m.1/cv1/act/Mul"
    op_type: "Mul"
  }
  node {
    input: "/model.22/m.0/m/m.1/cv1/act/Mul_output_0"
    input: "model.22.m.0.m.1.cv2.conv.weight"
    input: "model.22.m.0.m.1.cv2.conv.bias"
    output: "/model.22/m.0/m/m.1/cv2/conv/Conv_output_0"
    name: "/model.22/m.0/m/m.1/cv2/conv/Conv"
    op_type: "Conv"
    attribute {
      name: "dilations"
      ints: 1
      ints: 1
      type: INTS
    }
    attribute {
      name: "group"
      i: 1
      type: INT
    }
    attribute {
      name: "kernel_shape"
      ints: 3
      ints: 3
      type: INTS
    }
    attribute {
      name: "pads"
      ints: 1
      ints: 1
      ints: 1
      ints: 1
      type: INTS
    }
    attribute {
      name: "strides"
      ints: 1
      ints: 1
      type: INTS
    }
  }
  node {
    input: "/model.22/m.0/m/m.1/cv2/conv/Conv_output_0"
    output: "/model.22/m.0/m/m.1/cv2/act/Sigmoid_output_0"
    name: "/model.22/m.0/m/m.1/cv2/act/Sigmoid"
    op_type: "Sigmoid"
  }
  node {
    input: "/model.22/m.0/m/m.1/cv2/conv/Conv_output_0"
    input: "/model.22/m.0/m/m.1/cv2/act/Sigmoid_output_0"
    output: "/model.22/m.0/m/m.1/cv2/act/Mul_output_0"
    name: "/model.22/m.0/m/m.1/cv2/act/Mul"
    op_type: "Mul"
  }
  node {
    input: "/model.22/m.0/m/m.0/Add_output_0"
    input: "/model.22/m.0/m/m.1/cv2/act/Mul_output_0"
    output: "/model.22/m.0/m/m.1/Add_output_0"
    name: "/model.22/m.0/m/m.1/Add"
    op_type: "Add"
  }
  node {
    input: "/model.22/m.0/m/m.1/Add_output_0"
    input: "/model.22/m.0/cv2/act/Mul_output_0"
    output: "/model.22/m.0/Concat_output_0"
    name: "/model.22/m.0/Concat"
    op_type: "Concat"
    attribute {
      name: "axis"
      i: 1
      type: INT
    }
  }
  node {
    input: "/model.22/m.0/Concat_output_0"
    input: "model.22.m.0.cv3.conv.weight"
    input: "model.22.m.0.cv3.conv.bias"
    output: "/model.22/m.0/cv3/conv/Conv_output_0"
    name: "/model.22/m.0/cv3/conv/Conv"
    op_type: "Conv"
    attribute {
      name: "dilations"
      ints: 1
      ints: 1
      type: INTS
    }
    attribute {
      name: "group"
      i: 1
      type: INT
    }
    attribute {
      name: "kernel_shape"
      ints: 1
      ints: 1
      type: INTS
    }
    attribute {
      name: "pads"
      ints: 0
      ints: 0
      ints: 0
      ints: 0
      type: INTS
    }
    attribute {
      name: "strides"
      ints: 1
      ints: 1
      type: INTS
    }
  }
  node {
    input: "/model.22/m.0/cv3/conv/Conv_output_0"
    output: "/model.22/m.0/cv3/act/Sigmoid_output_0"
    name: "/model.22/m.0/cv3/act/Sigmoid"
    op_type: "Sigmoid"
  }
  node {
    input: "/model.22/m.0/cv3/conv/Conv_output_0"
    input: "/model.22/m.0/cv3/act/Sigmoid_output_0"
    output: "/model.22/m.0/cv3/act/Mul_output_0"
    name: "/model.22/m.0/cv3/act/Mul"
    op_type: "Mul"
  }
  node {
    input: "/model.22/Split_output_0"
    input: "/model.22/Split_output_1"
    input: "/model.22/m.0/cv3/act/Mul_output_0"
    output: "/model.22/Concat_output_0"
    name: "/model.22/Concat"
    op_type: "Concat"
    attribute {
      name: "axis"
      i: 1
      type: INT
    }
  }
  node {
    input: "/model.22/Concat_output_0"
    input: "model.22.cv2.conv.weight"
    input: "model.22.cv2.conv.bias"
    output: "/model.22/cv2/conv/Conv_output_0"
    name: "/model.22/cv2/conv/Conv"
    op_type: "Conv"
    attribute {
      name: "dilations"
      ints: 1
      ints: 1
      type: INTS
    }
    attribute {
      name: "group"
      i: 1
      type: INT
    }
    attribute {
      name: "kernel_shape"
      ints: 1
      ints: 1
      type: INTS
    }
    attribute {
      name: "pads"
      ints: 0
      ints: 0
      ints: 0
      ints: 0
      type: INTS
    }
    attribute {
      name: "strides"
      ints: 1
      ints: 1
      type: INTS
    }
  }
  node {
    input: "/model.22/cv2/conv/Conv_output_0"
    output: "/model.22/cv2/act/Sigmoid_output_0"
    name: "/model.22/cv2/act/Sigmoid"
    op_type: "Sigmoid"
  }
  node {
    input: "/model.22/cv2/conv/Conv_output_0"
    input: "/model.22/cv2/act/Sigmoid_output_0"
    output: "/model.22/cv2/act/Mul_output_0"
    name: "/model.22/cv2/act/Mul"
    op_type: "Mul"
  }
  node {
    input: "/model.22/cv2/act/Mul_output_0"
    input: "model.23.cv2.2.0.conv.weight"
    input: "model.23.cv2.2.0.conv.bias"
    output: "/model.23/cv2.2/cv2.2.0/conv/Conv_output_0"
    name: "/model.23/cv2.2/cv2.2.0/conv/Conv"
    op_type: "Conv"
    attribute {
      name: "dilations"
      ints: 1
      ints: 1
      type: INTS
    }
    attribute {
      name: "group"
      i: 1
      type: INT
    }
    attribute {
      name: "kernel_shape"
      ints: 3
      ints: 3
      type: INTS
    }
    attribute {
      name: "pads"
      ints: 1
      ints: 1
      ints: 1
      ints: 1
      type: INTS
    }
    attribute {
      name: "strides"
      ints: 1
      ints: 1
      type: INTS
    }
  }
  node {
    input: "/model.22/cv2/act/Mul_output_0"
    input: "model.23.cv3.2.0.0.conv.weight"
    input: "model.23.cv3.2.0.0.conv.bias"
    output: "/model.23/cv3.2/cv3.2.0/cv3.2.0.0/conv/Conv_output_0"
    name: "/model.23/cv3.2/cv3.2.0/cv3.2.0.0/conv/Conv"
    op_type: "Conv"
    attribute {
      name: "dilations"
      ints: 1
      ints: 1
      type: INTS
    }
    attribute {
      name: "group"
      i: 512
      type: INT
    }
    attribute {
      name: "kernel_shape"
      ints: 3
      ints: 3
      type: INTS
    }
    attribute {
      name: "pads"
      ints: 1
      ints: 1
      ints: 1
      ints: 1
      type: INTS
    }
    attribute {
      name: "strides"
      ints: 1
      ints: 1
      type: INTS
    }
  }
  node {
    input: "/model.23/cv2.2/cv2.2.0/conv/Conv_output_0"
    output: "/model.23/cv2.2/cv2.2.0/act/Sigmoid_output_0"
    name: "/model.23/cv2.2/cv2.2.0/act/Sigmoid"
    op_type: "Sigmoid"
  }
  node {
    input: "/model.23/cv3.2/cv3.2.0/cv3.2.0.0/conv/Conv_output_0"
    output: "/model.23/cv3.2/cv3.2.0/cv3.2.0.0/act/Sigmoid_output_0"
    name: "/model.23/cv3.2/cv3.2.0/cv3.2.0.0/act/Sigmoid"
    op_type: "Sigmoid"
  }
  node {
    input: "/model.23/cv2.2/cv2.2.0/conv/Conv_output_0"
    input: "/model.23/cv2.2/cv2.2.0/act/Sigmoid_output_0"
    output: "/model.23/cv2.2/cv2.2.0/act/Mul_output_0"
    name: "/model.23/cv2.2/cv2.2.0/act/Mul"
    op_type: "Mul"
  }
  node {
    input: "/model.23/cv3.2/cv3.2.0/cv3.2.0.0/conv/Conv_output_0"
    input: "/model.23/cv3.2/cv3.2.0/cv3.2.0.0/act/Sigmoid_output_0"
    output: "/model.23/cv3.2/cv3.2.0/cv3.2.0.0/act/Mul_output_0"
    name: "/model.23/cv3.2/cv3.2.0/cv3.2.0.0/act/Mul"
    op_type: "Mul"
  }
  node {
    input: "/model.23/cv2.2/cv2.2.0/act/Mul_output_0"
    input: "model.23.cv2.2.1.conv.weight"
    input: "model.23.cv2.2.1.conv.bias"
    output: "/model.23/cv2.2/cv2.2.1/conv/Conv_output_0"
    name: "/model.23/cv2.2/cv2.2.1/conv/Conv"
    op_type: "Conv"
    attribute {
      name: "dilations"
      ints: 1
      ints: 1
      type: INTS
    }
    attribute {
      name: "group"
      i: 1
      type: INT
    }
    attribute {
      name: "kernel_shape"
      ints: 3
      ints: 3
      type: INTS
    }
    attribute {
      name: "pads"
      ints: 1
      ints: 1
      ints: 1
      ints: 1
      type: INTS
    }
    attribute {
      name: "strides"
      ints: 1
      ints: 1
      type: INTS
    }
  }
  node {
    input: "/model.23/cv3.2/cv3.2.0/cv3.2.0.0/act/Mul_output_0"
    input: "model.23.cv3.2.0.1.conv.weight"
    input: "model.23.cv3.2.0.1.conv.bias"
    output: "/model.23/cv3.2/cv3.2.0/cv3.2.0.1/conv/Conv_output_0"
    name: "/model.23/cv3.2/cv3.2.0/cv3.2.0.1/conv/Conv"
    op_type: "Conv"
    attribute {
      name: "dilations"
      ints: 1
      ints: 1
      type: INTS
    }
    attribute {
      name: "group"
      i: 1
      type: INT
    }
    attribute {
      name: "kernel_shape"
      ints: 1
      ints: 1
      type: INTS
    }
    attribute {
      name: "pads"
      ints: 0
      ints: 0
      ints: 0
      ints: 0
      type: INTS
    }
    attribute {
      name: "strides"
      ints: 1
      ints: 1
      type: INTS
    }
  }
  node {
    input: "/model.23/cv2.2/cv2.2.1/conv/Conv_output_0"
    output: "/model.23/cv2.2/cv2.2.1/act/Sigmoid_output_0"
    name: "/model.23/cv2.2/cv2.2.1/act/Sigmoid"
    op_type: "Sigmoid"
  }
  node {
    input: "/model.23/cv3.2/cv3.2.0/cv3.2.0.1/conv/Conv_output_0"
    output: "/model.23/cv3.2/cv3.2.0/cv3.2.0.1/act/Sigmoid_output_0"
    name: "/model.23/cv3.2/cv3.2.0/cv3.2.0.1/act/Sigmoid"
    op_type: "Sigmoid"
  }
  node {
    input: "/model.23/cv2.2/cv2.2.1/conv/Conv_output_0"
    input: "/model.23/cv2.2/cv2.2.1/act/Sigmoid_output_0"
    output: "/model.23/cv2.2/cv2.2.1/act/Mul_output_0"
    name: "/model.23/cv2.2/cv2.2.1/act/Mul"
    op_type: "Mul"
  }
  node {
    input: "/model.23/cv3.2/cv3.2.0/cv3.2.0.1/conv/Conv_output_0"
    input: "/model.23/cv3.2/cv3.2.0/cv3.2.0.1/act/Sigmoid_output_0"
    output: "/model.23/cv3.2/cv3.2.0/cv3.2.0.1/act/Mul_output_0"
    name: "/model.23/cv3.2/cv3.2.0/cv3.2.0.1/act/Mul"
    op_type: "Mul"
  }
  node {
    input: "/model.23/cv2.2/cv2.2.1/act/Mul_output_0"
    input: "model.23.cv2.2.2.weight"
    input: "model.23.cv2.2.2.bias"
    output: "/model.23/cv2.2/cv2.2.2/Conv_output_0"
    name: "/model.23/cv2.2/cv2.2.2/Conv"
    op_type: "Conv"
    attribute {
      name: "dilations"
      ints: 1
      ints: 1
      type: INTS
    }
    attribute {
      name: "group"
      i: 1
      type: INT
    }
    attribute {
      name: "kernel_shape"
      ints: 1
      ints: 1
      type: INTS
    }
    attribute {
      name: "pads"
      ints: 0
      ints: 0
      ints: 0
      ints: 0
      type: INTS
    }
    attribute {
      name: "strides"
      ints: 1
      ints: 1
      type: INTS
    }
  }
  node {
    input: "/model.23/cv3.2/cv3.2.0/cv3.2.0.1/act/Mul_output_0"
    input: "model.23.cv3.2.1.0.conv.weight"
    input: "model.23.cv3.2.1.0.conv.bias"
    output: "/model.23/cv3.2/cv3.2.1/cv3.2.1.0/conv/Conv_output_0"
    name: "/model.23/cv3.2/cv3.2.1/cv3.2.1.0/conv/Conv"
    op_type: "Conv"
    attribute {
      name: "dilations"
      ints: 1
      ints: 1
      type: INTS
    }
    attribute {
      name: "group"
      i: 128
      type: INT
    }
    attribute {
      name: "kernel_shape"
      ints: 3
      ints: 3
      type: INTS
    }
    attribute {
      name: "pads"
      ints: 1
      ints: 1
      ints: 1
      ints: 1
      type: INTS
    }
    attribute {
      name: "strides"
      ints: 1
      ints: 1
      type: INTS
    }
  }
  node {
    input: "/model.23/cv3.2/cv3.2.1/cv3.2.1.0/conv/Conv_output_0"
    output: "/model.23/cv3.2/cv3.2.1/cv3.2.1.0/act/Sigmoid_output_0"
    name: "/model.23/cv3.2/cv3.2.1/cv3.2.1.0/act/Sigmoid"
    op_type: "Sigmoid"
  }
  node {
    input: "/model.23/cv3.2/cv3.2.1/cv3.2.1.0/conv/Conv_output_0"
    input: "/model.23/cv3.2/cv3.2.1/cv3.2.1.0/act/Sigmoid_output_0"
    output: "/model.23/cv3.2/cv3.2.1/cv3.2.1.0/act/Mul_output_0"
    name: "/model.23/cv3.2/cv3.2.1/cv3.2.1.0/act/Mul"
    op_type: "Mul"
  }
  node {
    input: "/model.23/cv3.2/cv3.2.1/cv3.2.1.0/act/Mul_output_0"
    input: "model.23.cv3.2.1.1.conv.weight"
    input: "model.23.cv3.2.1.1.conv.bias"
    output: "/model.23/cv3.2/cv3.2.1/cv3.2.1.1/conv/Conv_output_0"
    name: "/model.23/cv3.2/cv3.2.1/cv3.2.1.1/conv/Conv"
    op_type: "Conv"
    attribute {
      name: "dilations"
      ints: 1
      ints: 1
      type: INTS
    }
    attribute {
      name: "group"
      i: 1
      type: INT
    }
    attribute {
      name: "kernel_shape"
      ints: 1
      ints: 1
      type: INTS
    }
    attribute {
      name: "pads"
      ints: 0
      ints: 0
      ints: 0
      ints: 0
      type: INTS
    }
    attribute {
      name: "strides"
      ints: 1
      ints: 1
      type: INTS
    }
  }
  node {
    input: "/model.23/cv3.2/cv3.2.1/cv3.2.1.1/conv/Conv_output_0"
    output: "/model.23/cv3.2/cv3.2.1/cv3.2.1.1/act/Sigmoid_output_0"
    name: "/model.23/cv3.2/cv3.2.1/cv3.2.1.1/act/Sigmoid"
    op_type: "Sigmoid"
  }
  node {
    input: "/model.23/cv3.2/cv3.2.1/cv3.2.1.1/conv/Conv_output_0"
    input: "/model.23/cv3.2/cv3.2.1/cv3.2.1.1/act/Sigmoid_output_0"
    output: "/model.23/cv3.2/cv3.2.1/cv3.2.1.1/act/Mul_output_0"
    name: "/model.23/cv3.2/cv3.2.1/cv3.2.1.1/act/Mul"
    op_type: "Mul"
  }
  node {
    input: "/model.23/cv3.2/cv3.2.1/cv3.2.1.1/act/Mul_output_0"
    input: "model.23.cv3.2.2.weight"
    input: "model.23.cv3.2.2.bias"
    output: "/model.23/cv3.2/cv3.2.2/Conv_output_0"
    name: "/model.23/cv3.2/cv3.2.2/Conv"
    op_type: "Conv"
    attribute {
      name: "dilations"
      ints: 1
      ints: 1
      type: INTS
    }
    attribute {
      name: "group"
      i: 1
      type: INT
    }
    attribute {
      name: "kernel_shape"
      ints: 1
      ints: 1
      type: INTS
    }
    attribute {
      name: "pads"
      ints: 0
      ints: 0
      ints: 0
      ints: 0
      type: INTS
    }
    attribute {
      name: "strides"
      ints: 1
      ints: 1
      type: INTS
    }
  }
  node {
    input: "/model.23/cv2.2/cv2.2.2/Conv_output_0"
    input: "/model.23/cv3.2/cv3.2.2/Conv_output_0"
    output: "/model.23/Concat_2_output_0"
    name: "/model.23/Concat_2"
    op_type: "Concat"
    attribute {
      name: "axis"
      i: 1
      type: INT
    }
  }
  node {
    input: "/model.23/Concat_2_output_0"
    input: "/model.23/Constant_output_0"
    output: "/model.23/Reshape_2_output_0"
    name: "/model.23/Reshape_2"
    op_type: "Reshape"
    attribute {
      name: "allowzero"
      i: 0
      type: INT
    }
  }
  node {
    input: "/model.23/Reshape_output_0"
    input: "/model.23/Reshape_1_output_0"
    input: "/model.23/Reshape_2_output_0"
    output: "/model.23/Concat_3_output_0"
    name: "/model.23/Concat_3"
    op_type: "Concat"
    attribute {
      name: "axis"
      i: 2
      type: INT
    }
  }
  node {
    input: "/model.23/Concat_3_output_0"
    input: "onnx::Split_562"
    output: "/model.23/Split_output_0"
    output: "/model.23/Split_output_1"
    name: "/model.23/Split"
    op_type: "Split"
    attribute {
      name: "axis"
      i: 1
      type: INT
    }
  }
  node {
    input: "/model.23/Split_output_0"
    input: "/model.23/dfl/Constant_output_0"
    output: "/model.23/dfl/Reshape_output_0"
    name: "/model.23/dfl/Reshape"
    op_type: "Reshape"
    attribute {
      name: "allowzero"
      i: 0
      type: INT
    }
  }
  node {
    input: "/model.23/Split_output_1"
    output: "/model.23/Sigmoid_output_0"
    name: "/model.23/Sigmoid"
    op_type: "Sigmoid"
  }
  node {
    input: "/model.23/dfl/Reshape_output_0"
    output: "/model.23/dfl/Transpose_output_0"
    name: "/model.23/dfl/Transpose"
    op_type: "Transpose"
    attribute {
      name: "perm"
      ints: 0
      ints: 2
      ints: 1
      ints: 3
      type: INTS
    }
  }
  node {
    input: "/model.23/dfl/Transpose_output_0"
    output: "/model.23/dfl/Softmax_output_0"
    name: "/model.23/dfl/Softmax"
    op_type: "Softmax"
    attribute {
      name: "axis"
      i: 1
      type: INT
    }
  }
  node {
    input: "/model.23/dfl/Softmax_output_0"
    input: "model.23.dfl.conv.weight"
    output: "/model.23/dfl/conv/Conv_output_0"
    name: "/model.23/dfl/conv/Conv"
    op_type: "Conv"
    attribute {
      name: "dilations"
      ints: 1
      ints: 1
      type: INTS
    }
    attribute {
      name: "group"
      i: 1
      type: INT
    }
    attribute {
      name: "kernel_shape"
      ints: 1
      ints: 1
      type: INTS
    }
    attribute {
      name: "pads"
      ints: 0
      ints: 0
      ints: 0
      ints: 0
      type: INTS
    }
    attribute {
      name: "strides"
      ints: 1
      ints: 1
      type: INTS
    }
  }
  name: "main_graph"
  input {
    name: "images"
    type {
      tensor_type {
        elem_type: 1
        shape {
          dim {
            dim_value: 1
          }
          dim {
            dim_value: 3
          }
          dim {
            dim_value: 224
          }
          dim {
            dim_value: 320
          }
        }
      }
    }
  }
  output {
    name: "/model.23/Sigmoid_output_0"
    type {
      tensor_type {
        elem_type: 1
        shape {
          dim {
            dim_value: 1
          }
          dim {
            dim_value: 4
          }
          dim {
            dim_value: 1470
          }
        }
      }
    }
  }
  output {
    name: "/model.23/dfl/conv/Conv_output_0"
    type {
      tensor_type {
        elem_type: 1
        shape {
          dim {
            dim_value: 1
          }
          dim {
            dim_value: 1
          }
          dim {
            dim_value: 4
          }
          dim {
            dim_value: 1470
          }
        }
      }
    }
  }
  value_info {
    name: "/model.0/conv/Conv_output_0"
    type {
      tensor_type {
        elem_type: 1
        shape {
          dim {
            dim_value: 1
          }
          dim {
            dim_value: 32
          }
          dim {
            dim_value: 112
          }
          dim {
            dim_value: 160
          }
        }
      }
    }
  }
  value_info {
    name: "/model.0/act/Sigmoid_output_0"
    type {
      tensor_type {
        elem_type: 1
        shape {
          dim {
            dim_value: 1
          }
          dim {
            dim_value: 32
          }
          dim {
            dim_value: 112
          }
          dim {
            dim_value: 160
          }
        }
      }
    }
  }
  value_info {
    name: "/model.0/act/Mul_output_0"
    type {
      tensor_type {
        elem_type: 1
        shape {
          dim {
            dim_value: 1
          }
          dim {
            dim_value: 32
          }
          dim {
            dim_value: 112
          }
          dim {
            dim_value: 160
          }
        }
      }
    }
  }
  value_info {
    name: "/model.1/conv/Conv_output_0"
    type {
      tensor_type {
        elem_type: 1
        shape {
          dim {
            dim_value: 1
          }
          dim {
            dim_value: 64
          }
          dim {
            dim_value: 56
          }
          dim {
            dim_value: 80
          }
        }
      }
    }
  }
  value_info {
    name: "/model.1/act/Sigmoid_output_0"
    type {
      tensor_type {
        elem_type: 1
        shape {
          dim {
            dim_value: 1
          }
          dim {
            dim_value: 64
          }
          dim {
            dim_value: 56
          }
          dim {
            dim_value: 80
          }
        }
      }
    }
  }
  value_info {
    name: "/model.1/act/Mul_output_0"
    type {
      tensor_type {
        elem_type: 1
        shape {
          dim {
            dim_value: 1
          }
          dim {
            dim_value: 64
          }
          dim {
            dim_value: 56
          }
          dim {
            dim_value: 80
          }
        }
      }
    }
  }
  value_info {
    name: "/model.2/cv1/conv/Conv_output_0"
    type {
      tensor_type {
        elem_type: 1
        shape {
          dim {
            dim_value: 1
          }
          dim {
            dim_value: 64
          }
          dim {
            dim_value: 56
          }
          dim {
            dim_value: 80
          }
        }
      }
    }
  }
  value_info {
    name: "/model.2/cv1/act/Sigmoid_output_0"
    type {
      tensor_type {
        elem_type: 1
        shape {
          dim {
            dim_value: 1
          }
          dim {
            dim_value: 64
          }
          dim {
            dim_value: 56
          }
          dim {
            dim_value: 80
          }
        }
      }
    }
  }
  value_info {
    name: "/model.2/cv1/act/Mul_output_0"
    type {
      tensor_type {
        elem_type: 1
        shape {
          dim {
            dim_value: 1
          }
          dim {
            dim_value: 64
          }
          dim {
            dim_value: 56
          }
          dim {
            dim_value: 80
          }
        }
      }
    }
  }
  value_info {
    name: "/model.2/Split_output_0"
    type {
      tensor_type {
        elem_type: 1
        shape {
          dim {
            dim_value: 1
          }
          dim {
            dim_value: 32
          }
          dim {
            dim_value: 56
          }
          dim {
            dim_value: 80
          }
        }
      }
    }
  }
  value_info {
    name: "/model.2/Split_output_1"
    type {
      tensor_type {
        elem_type: 1
        shape {
          dim {
            dim_value: 1
          }
          dim {
            dim_value: 32
          }
          dim {
            dim_value: 56
          }
          dim {
            dim_value: 80
          }
        }
      }
    }
  }
  value_info {
    name: "/model.2/m.0/cv1/conv/Conv_output_0"
    type {
      tensor_type {
        elem_type: 1
        shape {
          dim {
            dim_value: 1
          }
          dim {
            dim_value: 16
          }
          dim {
            dim_value: 56
          }
          dim {
            dim_value: 80
          }
        }
      }
    }
  }
  value_info {
    name: "/model.2/m.0/cv1/act/Sigmoid_output_0"
    type {
      tensor_type {
        elem_type: 1
        shape {
          dim {
            dim_value: 1
          }
          dim {
            dim_value: 16
          }
          dim {
            dim_value: 56
          }
          dim {
            dim_value: 80
          }
        }
      }
    }
  }
  value_info {
    name: "/model.2/m.0/cv1/act/Mul_output_0"
    type {
      tensor_type {
        elem_type: 1
        shape {
          dim {
            dim_value: 1
          }
          dim {
            dim_value: 16
          }
          dim {
            dim_value: 56
          }
          dim {
            dim_value: 80
          }
        }
      }
    }
  }
  value_info {
    name: "/model.2/m.0/cv2/conv/Conv_output_0"
    type {
      tensor_type {
        elem_type: 1
        shape {
          dim {
            dim_value: 1
          }
          dim {
            dim_value: 32
          }
          dim {
            dim_value: 56
          }
          dim {
            dim_value: 80
          }
        }
      }
    }
  }
  value_info {
    name: "/model.2/m.0/cv2/act/Sigmoid_output_0"
    type {
      tensor_type {
        elem_type: 1
        shape {
          dim {
            dim_value: 1
          }
          dim {
            dim_value: 32
          }
          dim {
            dim_value: 56
          }
          dim {
            dim_value: 80
          }
        }
      }
    }
  }
  value_info {
    name: "/model.2/m.0/cv2/act/Mul_output_0"
    type {
      tensor_type {
        elem_type: 1
        shape {
          dim {
            dim_value: 1
          }
          dim {
            dim_value: 32
          }
          dim {
            dim_value: 56
          }
          dim {
            dim_value: 80
          }
        }
      }
    }
  }
  value_info {
    name: "/model.2/m.0/Add_output_0"
    type {
      tensor_type {
        elem_type: 1
        shape {
          dim {
            dim_value: 1
          }
          dim {
            dim_value: 32
          }
          dim {
            dim_value: 56
          }
          dim {
            dim_value: 80
          }
        }
      }
    }
  }
  value_info {
    name: "/model.2/Concat_output_0"
    type {
      tensor_type {
        elem_type: 1
        shape {
          dim {
            dim_value: 1
          }
          dim {
            dim_value: 96
          }
          dim {
            dim_value: 56
          }
          dim {
            dim_value: 80
          }
        }
      }
    }
  }
  value_info {
    name: "/model.2/cv2/conv/Conv_output_0"
    type {
      tensor_type {
        elem_type: 1
        shape {
          dim {
            dim_value: 1
          }
          dim {
            dim_value: 128
          }
          dim {
            dim_value: 56
          }
          dim {
            dim_value: 80
          }
        }
      }
    }
  }
  value_info {
    name: "/model.2/cv2/act/Sigmoid_output_0"
    type {
      tensor_type {
        elem_type: 1
        shape {
          dim {
            dim_value: 1
          }
          dim {
            dim_value: 128
          }
          dim {
            dim_value: 56
          }
          dim {
            dim_value: 80
          }
        }
      }
    }
  }
  value_info {
    name: "/model.2/cv2/act/Mul_output_0"
    type {
      tensor_type {
        elem_type: 1
        shape {
          dim {
            dim_value: 1
          }
          dim {
            dim_value: 128
          }
          dim {
            dim_value: 56
          }
          dim {
            dim_value: 80
          }
        }
      }
    }
  }
  value_info {
    name: "/model.3/conv/Conv_output_0"
    type {
      tensor_type {
        elem_type: 1
        shape {
          dim {
            dim_value: 1
          }
          dim {
            dim_value: 128
          }
          dim {
            dim_value: 28
          }
          dim {
            dim_value: 40
          }
        }
      }
    }
  }
  value_info {
    name: "/model.3/act/Sigmoid_output_0"
    type {
      tensor_type {
        elem_type: 1
        shape {
          dim {
            dim_value: 1
          }
          dim {
            dim_value: 128
          }
          dim {
            dim_value: 28
          }
          dim {
            dim_value: 40
          }
        }
      }
    }
  }
  value_info {
    name: "/model.3/act/Mul_output_0"
    type {
      tensor_type {
        elem_type: 1
        shape {
          dim {
            dim_value: 1
          }
          dim {
            dim_value: 128
          }
          dim {
            dim_value: 28
          }
          dim {
            dim_value: 40
          }
        }
      }
    }
  }
  value_info {
    name: "/model.4/cv1/conv/Conv_output_0"
    type {
      tensor_type {
        elem_type: 1
        shape {
          dim {
            dim_value: 1
          }
          dim {
            dim_value: 128
          }
          dim {
            dim_value: 28
          }
          dim {
            dim_value: 40
          }
        }
      }
    }
  }
  value_info {
    name: "/model.4/cv1/act/Sigmoid_output_0"
    type {
      tensor_type {
        elem_type: 1
        shape {
          dim {
            dim_value: 1
          }
          dim {
            dim_value: 128
          }
          dim {
            dim_value: 28
          }
          dim {
            dim_value: 40
          }
        }
      }
    }
  }
  value_info {
    name: "/model.4/cv1/act/Mul_output_0"
    type {
      tensor_type {
        elem_type: 1
        shape {
          dim {
            dim_value: 1
          }
          dim {
            dim_value: 128
          }
          dim {
            dim_value: 28
          }
          dim {
            dim_value: 40
          }
        }
      }
    }
  }
  value_info {
    name: "/model.4/Split_output_0"
    type {
      tensor_type {
        elem_type: 1
        shape {
          dim {
            dim_value: 1
          }
          dim {
            dim_value: 64
          }
          dim {
            dim_value: 28
          }
          dim {
            dim_value: 40
          }
        }
      }
    }
  }
  value_info {
    name: "/model.4/Split_output_1"
    type {
      tensor_type {
        elem_type: 1
        shape {
          dim {
            dim_value: 1
          }
          dim {
            dim_value: 64
          }
          dim {
            dim_value: 28
          }
          dim {
            dim_value: 40
          }
        }
      }
    }
  }
  value_info {
    name: "/model.4/m.0/cv1/conv/Conv_output_0"
    type {
      tensor_type {
        elem_type: 1
        shape {
          dim {
            dim_value: 1
          }
          dim {
            dim_value: 32
          }
          dim {
            dim_value: 28
          }
          dim {
            dim_value: 40
          }
        }
      }
    }
  }
  value_info {
    name: "/model.4/m.0/cv1/act/Sigmoid_output_0"
    type {
      tensor_type {
        elem_type: 1
        shape {
          dim {
            dim_value: 1
          }
          dim {
            dim_value: 32
          }
          dim {
            dim_value: 28
          }
          dim {
            dim_value: 40
          }
        }
      }
    }
  }
  value_info {
    name: "/model.4/m.0/cv1/act/Mul_output_0"
    type {
      tensor_type {
        elem_type: 1
        shape {
          dim {
            dim_value: 1
          }
          dim {
            dim_value: 32
          }
          dim {
            dim_value: 28
          }
          dim {
            dim_value: 40
          }
        }
      }
    }
  }
  value_info {
    name: "/model.4/m.0/cv2/conv/Conv_output_0"
    type {
      tensor_type {
        elem_type: 1
        shape {
          dim {
            dim_value: 1
          }
          dim {
            dim_value: 64
          }
          dim {
            dim_value: 28
          }
          dim {
            dim_value: 40
          }
        }
      }
    }
  }
  value_info {
    name: "/model.4/m.0/cv2/act/Sigmoid_output_0"
    type {
      tensor_type {
        elem_type: 1
        shape {
          dim {
            dim_value: 1
          }
          dim {
            dim_value: 64
          }
          dim {
            dim_value: 28
          }
          dim {
            dim_value: 40
          }
        }
      }
    }
  }
  value_info {
    name: "/model.4/m.0/cv2/act/Mul_output_0"
    type {
      tensor_type {
        elem_type: 1
        shape {
          dim {
            dim_value: 1
          }
          dim {
            dim_value: 64
          }
          dim {
            dim_value: 28
          }
          dim {
            dim_value: 40
          }
        }
      }
    }
  }
  value_info {
    name: "/model.4/m.0/Add_output_0"
    type {
      tensor_type {
        elem_type: 1
        shape {
          dim {
            dim_value: 1
          }
          dim {
            dim_value: 64
          }
          dim {
            dim_value: 28
          }
          dim {
            dim_value: 40
          }
        }
      }
    }
  }
  value_info {
    name: "/model.4/Concat_output_0"
    type {
      tensor_type {
        elem_type: 1
        shape {
          dim {
            dim_value: 1
          }
          dim {
            dim_value: 192
          }
          dim {
            dim_value: 28
          }
          dim {
            dim_value: 40
          }
        }
      }
    }
  }
  value_info {
    name: "/model.4/cv2/conv/Conv_output_0"
    type {
      tensor_type {
        elem_type: 1
        shape {
          dim {
            dim_value: 1
          }
          dim {
            dim_value: 256
          }
          dim {
            dim_value: 28
          }
          dim {
            dim_value: 40
          }
        }
      }
    }
  }
  value_info {
    name: "/model.4/cv2/act/Sigmoid_output_0"
    type {
      tensor_type {
        elem_type: 1
        shape {
          dim {
            dim_value: 1
          }
          dim {
            dim_value: 256
          }
          dim {
            dim_value: 28
          }
          dim {
            dim_value: 40
          }
        }
      }
    }
  }
  value_info {
    name: "/model.4/cv2/act/Mul_output_0"
    type {
      tensor_type {
        elem_type: 1
        shape {
          dim {
            dim_value: 1
          }
          dim {
            dim_value: 256
          }
          dim {
            dim_value: 28
          }
          dim {
            dim_value: 40
          }
        }
      }
    }
  }
  value_info {
    name: "/model.5/conv/Conv_output_0"
    type {
      tensor_type {
        elem_type: 1
        shape {
          dim {
            dim_value: 1
          }
          dim {
            dim_value: 256
          }
          dim {
            dim_value: 14
          }
          dim {
            dim_value: 20
          }
        }
      }
    }
  }
  value_info {
    name: "/model.5/act/Sigmoid_output_0"
    type {
      tensor_type {
        elem_type: 1
        shape {
          dim {
            dim_value: 1
          }
          dim {
            dim_value: 256
          }
          dim {
            dim_value: 14
          }
          dim {
            dim_value: 20
          }
        }
      }
    }
  }
  value_info {
    name: "/model.5/act/Mul_output_0"
    type {
      tensor_type {
        elem_type: 1
        shape {
          dim {
            dim_value: 1
          }
          dim {
            dim_value: 256
          }
          dim {
            dim_value: 14
          }
          dim {
            dim_value: 20
          }
        }
      }
    }
  }
  value_info {
    name: "/model.6/cv1/conv/Conv_output_0"
    type {
      tensor_type {
        elem_type: 1
        shape {
          dim {
            dim_value: 1
          }
          dim {
            dim_value: 256
          }
          dim {
            dim_value: 14
          }
          dim {
            dim_value: 20
          }
        }
      }
    }
  }
  value_info {
    name: "/model.6/cv1/act/Sigmoid_output_0"
    type {
      tensor_type {
        elem_type: 1
        shape {
          dim {
            dim_value: 1
          }
          dim {
            dim_value: 256
          }
          dim {
            dim_value: 14
          }
          dim {
            dim_value: 20
          }
        }
      }
    }
  }
  value_info {
    name: "/model.6/cv1/act/Mul_output_0"
    type {
      tensor_type {
        elem_type: 1
        shape {
          dim {
            dim_value: 1
          }
          dim {
            dim_value: 256
          }
          dim {
            dim_value: 14
          }
          dim {
            dim_value: 20
          }
        }
      }
    }
  }
  value_info {
    name: "/model.6/Split_output_0"
    type {
      tensor_type {
        elem_type: 1
        shape {
          dim {
            dim_value: 1
          }
          dim {
            dim_value: 128
          }
          dim {
            dim_value: 14
          }
          dim {
            dim_value: 20
          }
        }
      }
    }
  }
  value_info {
    name: "/model.6/Split_output_1"
    type {
      tensor_type {
        elem_type: 1
        shape {
          dim {
            dim_value: 1
          }
          dim {
            dim_value: 128
          }
          dim {
            dim_value: 14
          }
          dim {
            dim_value: 20
          }
        }
      }
    }
  }
  value_info {
    name: "/model.6/m.0/cv1/conv/Conv_output_0"
    type {
      tensor_type {
        elem_type: 1
        shape {
          dim {
            dim_value: 1
          }
          dim {
            dim_value: 64
          }
          dim {
            dim_value: 14
          }
          dim {
            dim_value: 20
          }
        }
      }
    }
  }
  value_info {
    name: "/model.6/m.0/cv2/conv/Conv_output_0"
    type {
      tensor_type {
        elem_type: 1
        shape {
          dim {
            dim_value: 1
          }
          dim {
            dim_value: 64
          }
          dim {
            dim_value: 14
          }
          dim {
            dim_value: 20
          }
        }
      }
    }
  }
  value_info {
    name: "/model.6/m.0/cv1/act/Sigmoid_output_0"
    type {
      tensor_type {
        elem_type: 1
        shape {
          dim {
            dim_value: 1
          }
          dim {
            dim_value: 64
          }
          dim {
            dim_value: 14
          }
          dim {
            dim_value: 20
          }
        }
      }
    }
  }
  value_info {
    name: "/model.6/m.0/cv2/act/Sigmoid_output_0"
    type {
      tensor_type {
        elem_type: 1
        shape {
          dim {
            dim_value: 1
          }
          dim {
            dim_value: 64
          }
          dim {
            dim_value: 14
          }
          dim {
            dim_value: 20
          }
        }
      }
    }
  }
  value_info {
    name: "/model.6/m.0/cv1/act/Mul_output_0"
    type {
      tensor_type {
        elem_type: 1
        shape {
          dim {
            dim_value: 1
          }
          dim {
            dim_value: 64
          }
          dim {
            dim_value: 14
          }
          dim {
            dim_value: 20
          }
        }
      }
    }
  }
  value_info {
    name: "/model.6/m.0/cv2/act/Mul_output_0"
    type {
      tensor_type {
        elem_type: 1
        shape {
          dim {
            dim_value: 1
          }
          dim {
            dim_value: 64
          }
          dim {
            dim_value: 14
          }
          dim {
            dim_value: 20
          }
        }
      }
    }
  }
  value_info {
    name: "/model.6/m.0/m/m.0/cv1/conv/Conv_output_0"
    type {
      tensor_type {
        elem_type: 1
        shape {
          dim {
            dim_value: 1
          }
          dim {
            dim_value: 64
          }
          dim {
            dim_value: 14
          }
          dim {
            dim_value: 20
          }
        }
      }
    }
  }
  value_info {
    name: "/model.6/m.0/m/m.0/cv1/act/Sigmoid_output_0"
    type {
      tensor_type {
        elem_type: 1
        shape {
          dim {
            dim_value: 1
          }
          dim {
            dim_value: 64
          }
          dim {
            dim_value: 14
          }
          dim {
            dim_value: 20
          }
        }
      }
    }
  }
  value_info {
    name: "/model.6/m.0/m/m.0/cv1/act/Mul_output_0"
    type {
      tensor_type {
        elem_type: 1
        shape {
          dim {
            dim_value: 1
          }
          dim {
            dim_value: 64
          }
          dim {
            dim_value: 14
          }
          dim {
            dim_value: 20
          }
        }
      }
    }
  }
  value_info {
    name: "/model.6/m.0/m/m.0/cv2/conv/Conv_output_0"
    type {
      tensor_type {
        elem_type: 1
        shape {
          dim {
            dim_value: 1
          }
          dim {
            dim_value: 64
          }
          dim {
            dim_value: 14
          }
          dim {
            dim_value: 20
          }
        }
      }
    }
  }
  value_info {
    name: "/model.6/m.0/m/m.0/cv2/act/Sigmoid_output_0"
    type {
      tensor_type {
        elem_type: 1
        shape {
          dim {
            dim_value: 1
          }
          dim {
            dim_value: 64
          }
          dim {
            dim_value: 14
          }
          dim {
            dim_value: 20
          }
        }
      }
    }
  }
  value_info {
    name: "/model.6/m.0/m/m.0/cv2/act/Mul_output_0"
    type {
      tensor_type {
        elem_type: 1
        shape {
          dim {
            dim_value: 1
          }
          dim {
            dim_value: 64
          }
          dim {
            dim_value: 14
          }
          dim {
            dim_value: 20
          }
        }
      }
    }
  }
  value_info {
    name: "/model.6/m.0/m/m.0/Add_output_0"
    type {
      tensor_type {
        elem_type: 1
        shape {
          dim {
            dim_value: 1
          }
          dim {
            dim_value: 64
          }
          dim {
            dim_value: 14
          }
          dim {
            dim_value: 20
          }
        }
      }
    }
  }
  value_info {
    name: "/model.6/m.0/m/m.1/cv1/conv/Conv_output_0"
    type {
      tensor_type {
        elem_type: 1
        shape {
          dim {
            dim_value: 1
          }
          dim {
            dim_value: 64
          }
          dim {
            dim_value: 14
          }
          dim {
            dim_value: 20
          }
        }
      }
    }
  }
  value_info {
    name: "/model.6/m.0/m/m.1/cv1/act/Sigmoid_output_0"
    type {
      tensor_type {
        elem_type: 1
        shape {
          dim {
            dim_value: 1
          }
          dim {
            dim_value: 64
          }
          dim {
            dim_value: 14
          }
          dim {
            dim_value: 20
          }
        }
      }
    }
  }
  value_info {
    name: "/model.6/m.0/m/m.1/cv1/act/Mul_output_0"
    type {
      tensor_type {
        elem_type: 1
        shape {
          dim {
            dim_value: 1
          }
          dim {
            dim_value: 64
          }
          dim {
            dim_value: 14
          }
          dim {
            dim_value: 20
          }
        }
      }
    }
  }
  value_info {
    name: "/model.6/m.0/m/m.1/cv2/conv/Conv_output_0"
    type {
      tensor_type {
        elem_type: 1
        shape {
          dim {
            dim_value: 1
          }
          dim {
            dim_value: 64
          }
          dim {
            dim_value: 14
          }
          dim {
            dim_value: 20
          }
        }
      }
    }
  }
  value_info {
    name: "/model.6/m.0/m/m.1/cv2/act/Sigmoid_output_0"
    type {
      tensor_type {
        elem_type: 1
        shape {
          dim {
            dim_value: 1
          }
          dim {
            dim_value: 64
          }
          dim {
            dim_value: 14
          }
          dim {
            dim_value: 20
          }
        }
      }
    }
  }
  value_info {
    name: "/model.6/m.0/m/m.1/cv2/act/Mul_output_0"
    type {
      tensor_type {
        elem_type: 1
        shape {
          dim {
            dim_value: 1
          }
          dim {
            dim_value: 64
          }
          dim {
            dim_value: 14
          }
          dim {
            dim_value: 20
          }
        }
      }
    }
  }
  value_info {
    name: "/model.6/m.0/m/m.1/Add_output_0"
    type {
      tensor_type {
        elem_type: 1
        shape {
          dim {
            dim_value: 1
          }
          dim {
            dim_value: 64
          }
          dim {
            dim_value: 14
          }
          dim {
            dim_value: 20
          }
        }
      }
    }
  }
  value_info {
    name: "/model.6/m.0/Concat_output_0"
    type {
      tensor_type {
        elem_type: 1
        shape {
          dim {
            dim_value: 1
          }
          dim {
            dim_value: 128
          }
          dim {
            dim_value: 14
          }
          dim {
            dim_value: 20
          }
        }
      }
    }
  }
  value_info {
    name: "/model.6/m.0/cv3/conv/Conv_output_0"
    type {
      tensor_type {
        elem_type: 1
        shape {
          dim {
            dim_value: 1
          }
          dim {
            dim_value: 128
          }
          dim {
            dim_value: 14
          }
          dim {
            dim_value: 20
          }
        }
      }
    }
  }
  value_info {
    name: "/model.6/m.0/cv3/act/Sigmoid_output_0"
    type {
      tensor_type {
        elem_type: 1
        shape {
          dim {
            dim_value: 1
          }
          dim {
            dim_value: 128
          }
          dim {
            dim_value: 14
          }
          dim {
            dim_value: 20
          }
        }
      }
    }
  }
  value_info {
    name: "/model.6/m.0/cv3/act/Mul_output_0"
    type {
      tensor_type {
        elem_type: 1
        shape {
          dim {
            dim_value: 1
          }
          dim {
            dim_value: 128
          }
          dim {
            dim_value: 14
          }
          dim {
            dim_value: 20
          }
        }
      }
    }
  }
  value_info {
    name: "/model.6/Concat_output_0"
    type {
      tensor_type {
        elem_type: 1
        shape {
          dim {
            dim_value: 1
          }
          dim {
            dim_value: 384
          }
          dim {
            dim_value: 14
          }
          dim {
            dim_value: 20
          }
        }
      }
    }
  }
  value_info {
    name: "/model.6/cv2/conv/Conv_output_0"
    type {
      tensor_type {
        elem_type: 1
        shape {
          dim {
            dim_value: 1
          }
          dim {
            dim_value: 256
          }
          dim {
            dim_value: 14
          }
          dim {
            dim_value: 20
          }
        }
      }
    }
  }
  value_info {
    name: "/model.6/cv2/act/Sigmoid_output_0"
    type {
      tensor_type {
        elem_type: 1
        shape {
          dim {
            dim_value: 1
          }
          dim {
            dim_value: 256
          }
          dim {
            dim_value: 14
          }
          dim {
            dim_value: 20
          }
        }
      }
    }
  }
  value_info {
    name: "/model.6/cv2/act/Mul_output_0"
    type {
      tensor_type {
        elem_type: 1
        shape {
          dim {
            dim_value: 1
          }
          dim {
            dim_value: 256
          }
          dim {
            dim_value: 14
          }
          dim {
            dim_value: 20
          }
        }
      }
    }
  }
  value_info {
    name: "/model.7/conv/Conv_output_0"
    type {
      tensor_type {
        elem_type: 1
        shape {
          dim {
            dim_value: 1
          }
          dim {
            dim_value: 512
          }
          dim {
            dim_value: 7
          }
          dim {
            dim_value: 10
          }
        }
      }
    }
  }
  value_info {
    name: "/model.7/act/Sigmoid_output_0"
    type {
      tensor_type {
        elem_type: 1
        shape {
          dim {
            dim_value: 1
          }
          dim {
            dim_value: 512
          }
          dim {
            dim_value: 7
          }
          dim {
            dim_value: 10
          }
        }
      }
    }
  }
  value_info {
    name: "/model.7/act/Mul_output_0"
    type {
      tensor_type {
        elem_type: 1
        shape {
          dim {
            dim_value: 1
          }
          dim {
            dim_value: 512
          }
          dim {
            dim_value: 7
          }
          dim {
            dim_value: 10
          }
        }
      }
    }
  }
  value_info {
    name: "/model.8/cv1/conv/Conv_output_0"
    type {
      tensor_type {
        elem_type: 1
        shape {
          dim {
            dim_value: 1
          }
          dim {
            dim_value: 512
          }
          dim {
            dim_value: 7
          }
          dim {
            dim_value: 10
          }
        }
      }
    }
  }
  value_info {
    name: "/model.8/cv1/act/Sigmoid_output_0"
    type {
      tensor_type {
        elem_type: 1
        shape {
          dim {
            dim_value: 1
          }
          dim {
            dim_value: 512
          }
          dim {
            dim_value: 7
          }
          dim {
            dim_value: 10
          }
        }
      }
    }
  }
  value_info {
    name: "/model.8/cv1/act/Mul_output_0"
    type {
      tensor_type {
        elem_type: 1
        shape {
          dim {
            dim_value: 1
          }
          dim {
            dim_value: 512
          }
          dim {
            dim_value: 7
          }
          dim {
            dim_value: 10
          }
        }
      }
    }
  }
  value_info {
    name: "/model.8/Split_output_0"
    type {
      tensor_type {
        elem_type: 1
        shape {
          dim {
            dim_value: 1
          }
          dim {
            dim_value: 256
          }
          dim {
            dim_value: 7
          }
          dim {
            dim_value: 10
          }
        }
      }
    }
  }
  value_info {
    name: "/model.8/Split_output_1"
    type {
      tensor_type {
        elem_type: 1
        shape {
          dim {
            dim_value: 1
          }
          dim {
            dim_value: 256
          }
          dim {
            dim_value: 7
          }
          dim {
            dim_value: 10
          }
        }
      }
    }
  }
  value_info {
    name: "/model.8/m.0/cv1/conv/Conv_output_0"
    type {
      tensor_type {
        elem_type: 1
        shape {
          dim {
            dim_value: 1
          }
          dim {
            dim_value: 128
          }
          dim {
            dim_value: 7
          }
          dim {
            dim_value: 10
          }
        }
      }
    }
  }
  value_info {
    name: "/model.8/m.0/cv2/conv/Conv_output_0"
    type {
      tensor_type {
        elem_type: 1
        shape {
          dim {
            dim_value: 1
          }
          dim {
            dim_value: 128
          }
          dim {
            dim_value: 7
          }
          dim {
            dim_value: 10
          }
        }
      }
    }
  }
  value_info {
    name: "/model.8/m.0/cv1/act/Sigmoid_output_0"
    type {
      tensor_type {
        elem_type: 1
        shape {
          dim {
            dim_value: 1
          }
          dim {
            dim_value: 128
          }
          dim {
            dim_value: 7
          }
          dim {
            dim_value: 10
          }
        }
      }
    }
  }
  value_info {
    name: "/model.8/m.0/cv2/act/Sigmoid_output_0"
    type {
      tensor_type {
        elem_type: 1
        shape {
          dim {
            dim_value: 1
          }
          dim {
            dim_value: 128
          }
          dim {
            dim_value: 7
          }
          dim {
            dim_value: 10
          }
        }
      }
    }
  }
  value_info {
    name: "/model.8/m.0/cv1/act/Mul_output_0"
    type {
      tensor_type {
        elem_type: 1
        shape {
          dim {
            dim_value: 1
          }
          dim {
            dim_value: 128
          }
          dim {
            dim_value: 7
          }
          dim {
            dim_value: 10
          }
        }
      }
    }
  }
  value_info {
    name: "/model.8/m.0/cv2/act/Mul_output_0"
    type {
      tensor_type {
        elem_type: 1
        shape {
          dim {
            dim_value: 1
          }
          dim {
            dim_value: 128
          }
          dim {
            dim_value: 7
          }
          dim {
            dim_value: 10
          }
        }
      }
    }
  }
  value_info {
    name: "/model.8/m.0/m/m.0/cv1/conv/Conv_output_0"
    type {
      tensor_type {
        elem_type: 1
        shape {
          dim {
            dim_value: 1
          }
          dim {
            dim_value: 128
          }
          dim {
            dim_value: 7
          }
          dim {
            dim_value: 10
          }
        }
      }
    }
  }
  value_info {
    name: "/model.8/m.0/m/m.0/cv1/act/Sigmoid_output_0"
    type {
      tensor_type {
        elem_type: 1
        shape {
          dim {
            dim_value: 1
          }
          dim {
            dim_value: 128
          }
          dim {
            dim_value: 7
          }
          dim {
            dim_value: 10
          }
        }
      }
    }
  }
  value_info {
    name: "/model.8/m.0/m/m.0/cv1/act/Mul_output_0"
    type {
      tensor_type {
        elem_type: 1
        shape {
          dim {
            dim_value: 1
          }
          dim {
            dim_value: 128
          }
          dim {
            dim_value: 7
          }
          dim {
            dim_value: 10
          }
        }
      }
    }
  }
  value_info {
    name: "/model.8/m.0/m/m.0/cv2/conv/Conv_output_0"
    type {
      tensor_type {
        elem_type: 1
        shape {
          dim {
            dim_value: 1
          }
          dim {
            dim_value: 128
          }
          dim {
            dim_value: 7
          }
          dim {
            dim_value: 10
          }
        }
      }
    }
  }
  value_info {
    name: "/model.8/m.0/m/m.0/cv2/act/Sigmoid_output_0"
    type {
      tensor_type {
        elem_type: 1
…
          dim {
            dim_value: 28
          }
          dim {
            dim_value: 40
          }
        }
      }
    }
  }
  value_info {
    name: "/model.16/cv2/act/Mul_output_0"
    type {
      tensor_type {
        elem_type: 1
        shape {
          dim {
            dim_value: 1
          }
          dim {
            dim_value: 128
          }
          dim {
            dim_value: 28
          }
          dim {
            dim_value: 40
          }
        }
      }
    }
  }
  value_info {
    name: "/model.17/conv/Conv_output_0"
    type {
      tensor_type {
        elem_type: 1
        shape {
          dim {
            dim_value: 1
          }
          dim {
            dim_value: 128
          }
          dim {
            dim_value: 14
          }
          dim {
            dim_value: 20
          }
        }
      }
    }
  }
  value_info {
    name: "/model.23/cv2.0/cv2.0.0/conv/Conv_output_0"
    type {
      tensor_type {
        elem_type: 1
        shape {
          dim {
            dim_value: 1
          }
          dim {
            dim_value: 64
          }
          dim {
            dim_value: 28
          }
          dim {
            dim_value: 40
          }
        }
      }
    }
  }
  value_info {
    name: "/model.23/cv3.0/cv3.0.0/cv3.0.0.0/conv/Conv_output_0"
    type {
      tensor_type {
        elem_type: 1
        shape {
          dim {
            dim_value: 1
          }
          dim {
            dim_value: 128
          }
          dim {
            dim_value: 28
          }
          dim {
            dim_value: 40
          }
        }
      }
    }
  }
  value_info {
    name: "/model.17/act/Sigmoid_output_0"
    type {
      tensor_type {
        elem_type: 1
        shape {
          dim {
            dim_value: 1
          }
          dim {
            dim_value: 128
          }
          dim {
            dim_value: 14
          }
          dim {
            dim_value: 20
          }
        }
      }
    }
  }
  value_info {
    name: "/model.23/cv2.0/cv2.0.0/act/Sigmoid_output_0"
    type {
      tensor_type {
        elem_type: 1
        shape {
          dim {
            dim_value: 1
          }
          dim {
            dim_value: 64
          }
          dim {
            dim_value: 28
          }
          dim {
            dim_value: 40
          }
        }
      }
    }
  }
  value_info {
    name: "/model.23/cv3.0/cv3.0.0/cv3.0.0.0/act/Sigmoid_output_0"
    type {
      tensor_type {
        elem_type: 1
        shape {
          dim {
            dim_value: 1
          }
          dim {
            dim_value: 128
          }
          dim {
            dim_value: 28
          }
          dim {
            dim_value: 40
          }
        }
      }
    }
  }
  value_info {
    name: "/model.17/act/Mul_output_0"
    type {
      tensor_type {
        elem_type: 1
        shape {
          dim {
            dim_value: 1
          }
          dim {
            dim_value: 128
          }
          dim {
            dim_value: 14
          }
          dim {
            dim_value: 20
          }
        }
      }
    }
  }
  value_info {
    name: "/model.23/cv2.0/cv2.0.0/act/Mul_output_0"
    type {
      tensor_type {
        elem_type: 1
        shape {
          dim {
            dim_value: 1
          }
          dim {
            dim_value: 64
          }
          dim {
            dim_value: 28
          }
          dim {
            dim_value: 40
          }
        }
      }
    }
  }
  value_info {
    name: "/model.23/cv3.0/cv3.0.0/cv3.0.0.0/act/Mul_output_0"
    type {
      tensor_type {
        elem_type: 1
        shape {
          dim {
            dim_value: 1
          }
          dim {
            dim_value: 128
          }
          dim {
            dim_value: 28
          }
          dim {
            dim_value: 40
          }
        }
      }
    }
  }
  value_info {
    name: "/model.18/Concat_output_0"
    type {
      tensor_type {
        elem_type: 1
        shape {
          dim {
            dim_value: 1
          }
          dim {
            dim_value: 384
          }
          dim {
            dim_value: 14
          }
          dim {
            dim_value: 20
          }
        }
      }
    }
  }
  value_info {
    name: "/model.23/cv2.0/cv2.0.1/conv/Conv_output_0"
    type {
      tensor_type {
        elem_type: 1
        shape {
          dim {
            dim_value: 1
          }
          dim {
            dim_value: 64
          }
          dim {
            dim_value: 28
          }
          dim {
            dim_value: 40
          }
        }
      }
    }
  }
  value_info {
    name: "/model.23/cv3.0/cv3.0.0/cv3.0.0.1/conv/Conv_output_0"
    type {
      tensor_type {
        elem_type: 1
        shape {
          dim {
            dim_value: 1
          }
          dim {
            dim_value: 128
          }
          dim {
            dim_value: 28
          }
          dim {
            dim_value: 40
          }
        }
      }
    }
  }
  value_info {
    name: "/model.19/cv1/conv/Conv_output_0"
    type {
      tensor_type {
        elem_type: 1
        shape {
          dim {
            dim_value: 1
          }
          dim {
            dim_value: 256
          }
          dim {
            dim_value: 14
          }
          dim {
            dim_value: 20
          }
        }
      }
    }
  }
  value_info {
    name: "/model.23/cv2.0/cv2.0.1/act/Sigmoid_output_0"
    type {
      tensor_type {
        elem_type: 1
        shape {
          dim {
            dim_value: 1
          }
          dim {
            dim_value: 64
          }
          dim {
            dim_value: 28
          }
          dim {
            dim_value: 40
          }
        }
      }
    }
  }
  value_info {
    name: "/model.23/cv3.0/cv3.0.0/cv3.0.0.1/act/Sigmoid_output_0"
    type {
      tensor_type {
        elem_type: 1
        shape {
          dim {
            dim_value: 1
          }
          dim {
            dim_value: 128
          }
          dim {
            dim_value: 28
          }
          dim {
            dim_value: 40
          }
        }
      }
    }
  }
  value_info {
    name: "/model.19/cv1/act/Sigmoid_output_0"
    type {
      tensor_type {
        elem_type: 1
        shape {
          dim {
            dim_value: 1
          }
          dim {
            dim_value: 256
          }
          dim {
            dim_value: 14
          }
          dim {
            dim_value: 20
          }
        }
      }
    }
  }
  value_info {
    name: "/model.23/cv2.0/cv2.0.1/act/Mul_output_0"
    type {
      tensor_type {
        elem_type: 1
        shape {
          dim {
            dim_value: 1
          }
          dim {
            dim_value: 64
          }
          dim {
            dim_value: 28
          }
          dim {
            dim_value: 40
          }
        }
      }
    }
  }
  value_info {
    name: "/model.23/cv3.0/cv3.0.0/cv3.0.0.1/act/Mul_output_0"
    type {
      tensor_type {
        elem_type: 1
        shape {
          dim {
            dim_value: 1
          }
          dim {
            dim_value: 128
          }
          dim {
            dim_value: 28
          }
          dim {
            dim_value: 40
          }
        }
      }
    }
  }
  value_info {
    name: "/model.19/cv1/act/Mul_output_0"
    type {
      tensor_type {
        elem_type: 1
        shape {
          dim {
            dim_value: 1
          }
          dim {
            dim_value: 256
          }
          dim {
            dim_value: 14
          }
          dim {
            dim_value: 20
          }
        }
      }
    }
  }
  value_info {
    name: "/model.23/cv2.0/cv2.0.2/Conv_output_0"
    type {
      tensor_type {
        elem_type: 1
        shape {
          dim {
            dim_value: 1
          }
          dim {
            dim_value: 64
          }
          dim {
            dim_value: 28
          }
          dim {
            dim_value: 40
          }
        }
      }
    }
  }
  value_info {
    name: "/model.23/cv3.0/cv3.0.1/cv3.0.1.0/conv/Conv_output_0"
    type {
      tensor_type {
        elem_type: 1
        shape {
          dim {
            dim_value: 1
          }
          dim {
            dim_value: 128
          }
          dim {
            dim_value: 28
          }
          dim {
            dim_value: 40
          }
        }
      }
    }
  }
  value_info {
    name: "/model.19/Split_output_0"
    type {
      tensor_type {
        elem_type: 1
        shape {
          dim {
            dim_value: 1
          }
          dim {
            dim_value: 128
          }
          dim {
            dim_value: 14
          }
          dim {
            dim_value: 20
          }
        }
      }
    }
  }
  value_info {
    name: "/model.19/Split_output_1"
    type {
      tensor_type {
        elem_type: 1
        shape {
          dim {
            dim_value: 1
          }
          dim {
            dim_value: 128
          }
          dim {
            dim_value: 14
          }
          dim {
            dim_value: 20
          }
        }
      }
    }
  }
  value_info {
    name: "/model.23/cv3.0/cv3.0.1/cv3.0.1.0/act/Sigmoid_output_0"
    type {
      tensor_type {
        elem_type: 1
        shape {
          dim {
            dim_value: 1
          }
          dim {
            dim_value: 128
          }
          dim {
            dim_value: 28
          }
          dim {
            dim_value: 40
          }
        }
      }
    }
  }
  value_info {
    name: "/model.19/m.0/cv1/conv/Conv_output_0"
    type {
      tensor_type {
        elem_type: 1
        shape {
          dim {
            dim_value: 1
          }
          dim {
            dim_value: 64
          }
          dim {
            dim_value: 14
          }
          dim {
            dim_value: 20
          }
        }
      }
    }
  }
  value_info {
    name: "/model.23/cv3.0/cv3.0.1/cv3.0.1.0/act/Mul_output_0"
    type {
      tensor_type {
        elem_type: 1
        shape {
          dim {
            dim_value: 1
          }
          dim {
            dim_value: 128
          }
          dim {
            dim_value: 28
          }
          dim {
            dim_value: 40
          }
        }
      }
    }
  }
  value_info {
    name: "/model.19/m.0/cv1/act/Sigmoid_output_0"
    type {
      tensor_type {
        elem_type: 1
        shape {
          dim {
            dim_value: 1
          }
          dim {
            dim_value: 64
          }
          dim {
            dim_value: 14
          }
          dim {
            dim_value: 20
          }
        }
      }
    }
  }
  value_info {
    name: "/model.23/cv3.0/cv3.0.1/cv3.0.1.1/conv/Conv_output_0"
    type {
      tensor_type {
        elem_type: 1
        shape {
          dim {
            dim_value: 1
          }
          dim {
            dim_value: 128
          }
          dim {
            dim_value: 28
          }
          dim {
            dim_value: 40
          }
        }
      }
    }
  }
  value_info {
    name: "/model.19/m.0/cv1/act/Mul_output_0"
    type {
      tensor_type {
        elem_type: 1
        shape {
          dim {
            dim_value: 1
          }
          dim {
            dim_value: 64
          }
          dim {
            dim_value: 14
          }
          dim {
            dim_value: 20
          }
        }
      }
    }
  }
  value_info {
    name: "/model.23/cv3.0/cv3.0.1/cv3.0.1.1/act/Sigmoid_output_0"
    type {
      tensor_type {
        elem_type: 1
        shape {
          dim {
            dim_value: 1
          }
          dim {
            dim_value: 128
          }
          dim {
            dim_value: 28
          }
          dim {
            dim_value: 40
          }
        }
      }
    }
  }
  value_info {
    name: "/model.19/m.0/cv2/conv/Conv_output_0"
    type {
      tensor_type {
        elem_type: 1
        shape {
          dim {
            dim_value: 1
          }
          dim {
            dim_value: 128
          }
          dim {
            dim_value: 14
          }
          dim {
            dim_value: 20
          }
        }
      }
    }
  }
  value_info {
    name: "/model.23/cv3.0/cv3.0.1/cv3.0.1.1/act/Mul_output_0"
    type {
      tensor_type {
        elem_type: 1
        shape {
          dim {
            dim_value: 1
          }
          dim {
            dim_value: 128
          }
          dim {
            dim_value: 28
          }
          dim {
            dim_value: 40
          }
        }
      }
    }
  }
  value_info {
    name: "/model.19/m.0/cv2/act/Sigmoid_output_0"
    type {
      tensor_type {
        elem_type: 1
        shape {
          dim {
            dim_value: 1
          }
          dim {
            dim_value: 128
          }
          dim {
            dim_value: 14
          }
          dim {
            dim_value: 20
          }
        }
      }
    }
  }
  value_info {
    name: "/model.23/cv3.0/cv3.0.2/Conv_output_0"
    type {
      tensor_type {
        elem_type: 1
        shape {
          dim {
            dim_value: 1
          }
          dim {
            dim_value: 4
          }
          dim {
            dim_value: 28
          }
          dim {
            dim_value: 40
          }
        }
      }
    }
  }
  value_info {
    name: "/model.19/m.0/cv2/act/Mul_output_0"
    type {
      tensor_type {
        elem_type: 1
        shape {
          dim {
            dim_value: 1
          }
          dim {
            dim_value: 128
          }
          dim {
            dim_value: 14
          }
          dim {
            dim_value: 20
          }
        }
      }
    }
  }
  value_info {
    name: "/model.23/Concat_output_0"
    type {
      tensor_type {
        elem_type: 1
        shape {
          dim {
            dim_value: 1
          }
          dim {
            dim_value: 68
          }
          dim {
            dim_value: 28
          }
          dim {
            dim_value: 40
          }
        }
      }
    }
  }
  value_info {
    name: "/model.19/m.0/Add_output_0"
    type {
      tensor_type {
        elem_type: 1
        shape {
          dim {
            dim_value: 1
          }
          dim {
            dim_value: 128
          }
          dim {
            dim_value: 14
          }
          dim {
            dim_value: 20
          }
        }
      }
    }
  }
  value_info {
    name: "/model.23/Reshape_output_0"
    type {
      tensor_type {
        elem_type: 1
        shape {
          dim {
            dim_value: 1
          }
          dim {
            dim_value: 68
          }
          dim {
            dim_value: 1120
          }
        }
      }
    }
  }
  value_info {
    name: "/model.19/Concat_output_0"
    type {
      tensor_type {
        elem_type: 1
        shape {
          dim {
            dim_value: 1
          }
          dim {
            dim_value: 384
          }
          dim {
            dim_value: 14
          }
          dim {
            dim_value: 20
          }
        }
      }
    }
  }
  value_info {
    name: "/model.19/cv2/conv/Conv_output_0"
    type {
      tensor_type {
        elem_type: 1
        shape {
          dim {
            dim_value: 1
          }
          dim {
            dim_value: 256
          }
          dim {
            dim_value: 14
          }
          dim {
            dim_value: 20
          }
        }
      }
    }
  }
  value_info {
    name: "/model.19/cv2/act/Sigmoid_output_0"
    type {
      tensor_type {
        elem_type: 1
        shape {
          dim {
            dim_value: 1
          }
          dim {
            dim_value: 256
          }
          dim {
            dim_value: 14
          }
          dim {
            dim_value: 20
          }
        }
      }
    }
  }
  value_info {
    name: "/model.19/cv2/act/Mul_output_0"
    type {
      tensor_type {
        elem_type: 1
        shape {
          dim {
            dim_value: 1
          }
          dim {
            dim_value: 256
          }
          dim {
            dim_value: 14
          }
          dim {
            dim_value: 20
          }
        }
      }
    }
  }
  value_info {
    name: "/model.20/conv/Conv_output_0"
    type {
      tensor_type {
        elem_type: 1
        shape {
          dim {
            dim_value: 1
          }
          dim {
            dim_value: 256
          }
          dim {
            dim_value: 7
          }
          dim {
            dim_value: 10
          }
        }
      }
    }
  }
  value_info {
    name: "/model.23/cv2.1/cv2.1.0/conv/Conv_output_0"
    type {
      tensor_type {
        elem_type: 1
        shape {
          dim {
            dim_value: 1
          }
          dim {
            dim_value: 64
          }
          dim {
            dim_value: 14
          }
          dim {
            dim_value: 20
          }
        }
      }
    }
  }
  value_info {
    name: "/model.23/cv3.1/cv3.1.0/cv3.1.0.0/conv/Conv_output_0"
    type {
      tensor_type {
        elem_type: 1
        shape {
          dim {
            dim_value: 1
          }
          dim {
            dim_value: 256
          }
          dim {
            dim_value: 14
          }
          dim {
            dim_value: 20
          }
        }
      }
    }
  }
  value_info {
    name: "/model.20/act/Sigmoid_output_0"
    type {
      tensor_type {
        elem_type: 1
        shape {
          dim {
            dim_value: 1
          }
          dim {
            dim_value: 256
          }
          dim {
            dim_value: 7
          }
          dim {
            dim_value: 10
          }
        }
      }
    }
  }
  value_info {
    name: "/model.23/cv2.1/cv2.1.0/act/Sigmoid_output_0"
    type {
      tensor_type {
        elem_type: 1
        shape {
          dim {
            dim_value: 1
          }
          dim {
            dim_value: 64
          }
          dim {
            dim_value: 14
          }
          dim {
            dim_value: 20
          }
        }
      }
    }
  }
  value_info {
    name: "/model.23/cv3.1/cv3.1.0/cv3.1.0.0/act/Sigmoid_output_0"
    type {
      tensor_type {
        elem_type: 1
        shape {
          dim {
            dim_value: 1
          }
          dim {
            dim_value: 256
          }
          dim {
            dim_value: 14
          }
          dim {
            dim_value: 20
          }
        }
      }
    }
  }
  value_info {
    name: "/model.20/act/Mul_output_0"
    type {
      tensor_type {
        elem_type: 1
        shape {
          dim {
            dim_value: 1
          }
          dim {
            dim_value: 256
          }
          dim {
            dim_value: 7
          }
          dim {
            dim_value: 10
          }
        }
      }
    }
  }
  value_info {
    name: "/model.23/cv2.1/cv2.1.0/act/Mul_output_0"
    type {
      tensor_type {
        elem_type: 1
        shape {
          dim {
            dim_value: 1
          }
          dim {
            dim_value: 64
          }
          dim {
            dim_value: 14
          }
          dim {
            dim_value: 20
          }
        }
      }
    }
  }
  value_info {
    name: "/model.23/cv3.1/cv3.1.0/cv3.1.0.0/act/Mul_output_0"
    type {
      tensor_type {
        elem_type: 1
        shape {
          dim {
            dim_value: 1
          }
          dim {
            dim_value: 256
          }
          dim {
            dim_value: 14
          }
          dim {
            dim_value: 20
          }
        }
      }
    }
  }
  value_info {
    name: "/model.21/Concat_output_0"
    type {
      tensor_type {
        elem_type: 1
        shape {
          dim {
            dim_value: 1
          }
          dim {
            dim_value: 768
          }
          dim {
            dim_value: 7
          }
          dim {
            dim_value: 10
          }
        }
      }
    }
  }
  value_info {
    name: "/model.23/cv2.1/cv2.1.1/conv/Conv_output_0"
    type {
      tensor_type {
        elem_type: 1
        shape {
          dim {
            dim_value: 1
          }
          dim {
            dim_value: 64
          }
          dim {
            dim_value: 14
          }
          dim {
            dim_value: 20
          }
        }
      }
    }
  }
  value_info {
    name: "/model.23/cv3.1/cv3.1.0/cv3.1.0.1/conv/Conv_output_0"
    type {
      tensor_type {
        elem_type: 1
        shape {
          dim {
            dim_value: 1
          }
          dim {
            dim_value: 128
          }
          dim {
            dim_value: 14
          }
          dim {
            dim_value: 20
          }
        }
      }
    }
  }
  value_info {
    name: "/model.22/cv1/conv/Conv_output_0"
    type {
      tensor_type {
        elem_type: 1
        shape {
          dim {
            dim_value: 1
          }
          dim {
            dim_value: 512
          }
          dim {
            dim_value: 7
          }
          dim {
            dim_value: 10
          }
        }
      }
    }
  }
  value_info {
    name: "/model.23/cv2.1/cv2.1.1/act/Sigmoid_output_0"
    type {
      tensor_type {
        elem_type: 1
        shape {
          dim {
            dim_value: 1
          }
          dim {
            dim_value: 64
          }
          dim {
            dim_value: 14
          }
          dim {
            dim_value: 20
          }
        }
      }
    }
  }
  value_info {
    name: "/model.23/cv3.1/cv3.1.0/cv3.1.0.1/act/Sigmoid_output_0"
    type {
      tensor_type {
        elem_type: 1
        shape {
          dim {
            dim_value: 1
          }
          dim {
            dim_value: 128
          }
          dim {
            dim_value: 14
          }
          dim {
            dim_value: 20
          }
        }
      }
    }
  }
  value_info {
    name: "/model.22/cv1/act/Sigmoid_output_0"
    type {
      tensor_type {
        elem_type: 1
        shape {
          dim {
            dim_value: 1
          }
          dim {
            dim_value: 512
          }
          dim {
            dim_value: 7
          }
          dim {
            dim_value: 10
          }
        }
      }
    }
  }
  value_info {
    name: "/model.23/cv2.1/cv2.1.1/act/Mul_output_0"
    type {
      tensor_type {
        elem_type: 1
        shape {
          dim {
            dim_value: 1
          }
          dim {
            dim_value: 64
          }
          dim {
            dim_value: 14
          }
          dim {
            dim_value: 20
          }
        }
      }
    }
  }
  value_info {
    name: "/model.23/cv3.1/cv3.1.0/cv3.1.0.1/act/Mul_output_0"
    type {
      tensor_type {
        elem_type: 1
        shape {
          dim {
            dim_value: 1
          }
          dim {
            dim_value: 128
          }
          dim {
            dim_value: 14
          }
          dim {
            dim_value: 20
          }
        }
      }
    }
  }
  value_info {
    name: "/model.22/cv1/act/Mul_output_0"
    type {
      tensor_type {
        elem_type: 1
        shape {
          dim {
            dim_value: 1
          }
          dim {
            dim_value: 512
          }
          dim {
            dim_value: 7
          }
          dim {
            dim_value: 10
          }
        }
      }
    }
  }
  value_info {
    name: "/model.23/cv2.1/cv2.1.2/Conv_output_0"
    type {
      tensor_type {
        elem_type: 1
        shape {
          dim {
            dim_value: 1
          }
          dim {
            dim_value: 64
          }
          dim {
            dim_value: 14
          }
          dim {
            dim_value: 20
          }
        }
      }
    }
  }
  value_info {
    name: "/model.23/cv3.1/cv3.1.1/cv3.1.1.0/conv/Conv_output_0"
    type {
      tensor_type {
        elem_type: 1
        shape {
          dim {
            dim_value: 1
          }
          dim {
            dim_value: 128
          }
          dim {
            dim_value: 14
          }
          dim {
            dim_value: 20
          }
        }
      }
    }
  }
  value_info {
    name: "/model.22/Split_output_0"
    type {
      tensor_type {
        elem_type: 1
        shape {
          dim {
            dim_value: 1
          }
          dim {
            dim_value: 256
          }
          dim {
            dim_value: 7
          }
          dim {
            dim_value: 10
          }
        }
      }
    }
  }
  value_info {
    name: "/model.22/Split_output_1"
    type {
      tensor_type {
        elem_type: 1
        shape {
          dim {
            dim_value: 1
          }
          dim {
            dim_value: 256
          }
          dim {
            dim_value: 7
          }
          dim {
            dim_value: 10
          }
        }
      }
    }
  }
  value_info {
    name: "/model.23/cv3.1/cv3.1.1/cv3.1.1.0/act/Sigmoid_output_0"
    type {
      tensor_type {
        elem_type: 1
        shape {
          dim {
            dim_value: 1
          }
          dim {
            dim_value: 128
          }
          dim {
            dim_value: 14
          }
          dim {
            dim_value: 20
          }
        }
      }
    }
  }
  value_info {
    name: "/model.22/m.0/cv1/conv/Conv_output_0"
    type {
      tensor_type {
        elem_type: 1
        shape {
          dim {
            dim_value: 1
          }
          dim {
            dim_value: 128
          }
          dim {
            dim_value: 7
          }
          dim {
            dim_value: 10
          }
        }
      }
    }
  }
  value_info {
    name: "/model.22/m.0/cv2/conv/Conv_output_0"
    type {
      tensor_type {
        elem_type: 1
        shape {
          dim {
            dim_value: 1
          }
          dim {
            dim_value: 128
          }
          dim {
            dim_value: 7
          }
          dim {
            dim_value: 10
          }
        }
      }
    }
  }
  value_info {
    name: "/model.23/cv3.1/cv3.1.1/cv3.1.1.0/act/Mul_output_0"
    type {
      tensor_type {
        elem_type: 1
        shape {
          dim {
            dim_value: 1
          }
          dim {
            dim_value: 128
          }
          dim {
            dim_value: 14
          }
          dim {
            dim_value: 20
          }
        }
      }
    }
  }
  value_info {
    name: "/model.22/m.0/cv1/act/Sigmoid_output_0"
    type {
      tensor_type {
        elem_type: 1
        shape {
          dim {
            dim_value: 1
          }
          dim {
            dim_value: 128
          }
          dim {
            dim_value: 7
          }
          dim {
            dim_value: 10
          }
        }
      }
    }
  }
  value_info {
    name: "/model.22/m.0/cv2/act/Sigmoid_output_0"
    type {
      tensor_type {
        elem_type: 1
        shape {
          dim {
            dim_value: 1
          }
          dim {
            dim_value: 128
          }
          dim {
            dim_value: 7
          }
          dim {
            dim_value: 10
          }
        }
      }
    }
  }
  value_info {
    name: "/model.23/cv3.1/cv3.1.1/cv3.1.1.1/conv/Conv_output_0"
    type {
      tensor_type {
        elem_type: 1
        shape {
          dim {
            dim_value: 1
          }
          dim {
            dim_value: 128
          }
          dim {
            dim_value: 14
          }
          dim {
            dim_value: 20
          }
        }
      }
    }
  }
  value_info {
    name: "/model.22/m.0/cv1/act/Mul_output_0"
    type {
      tensor_type {
        elem_type: 1
        shape {
          dim {
            dim_value: 1
          }
          dim {
            dim_value: 128
          }
          dim {
            dim_value: 7
          }
          dim {
            dim_value: 10
          }
        }
      }
    }
  }
  value_info {
    name: "/model.22/m.0/cv2/act/Mul_output_0"
    type {
      tensor_type {
        elem_type: 1
        shape {
          dim {
            dim_value: 1
          }
          dim {
            dim_value: 128
          }
          dim {
            dim_value: 7
          }
          dim {
            dim_value: 10
          }
        }
      }
    }
  }
  value_info {
    name: "/model.23/cv3.1/cv3.1.1/cv3.1.1.1/act/Sigmoid_output_0"
    type {
      tensor_type {
        elem_type: 1
        shape {
          dim {
            dim_value: 1
          }
          dim {
            dim_value: 128
          }
          dim {
            dim_value: 14
          }
          dim {
            dim_value: 20
          }
        }
      }
    }
  }
  value_info {
    name: "/model.22/m.0/m/m.0/cv1/conv/Conv_output_0"
    type {
      tensor_type {
        elem_type: 1
        shape {
          dim {
            dim_value: 1
          }
          dim {
            dim_value: 128
          }
          dim {
            dim_value: 7
          }
          dim {
            dim_value: 10
          }
        }
      }
    }
  }
  value_info {
    name: "/model.23/cv3.1/cv3.1.1/cv3.1.1.1/act/Mul_output_0"
    type {
      tensor_type {
        elem_type: 1
        shape {
          dim {
            dim_value: 1
          }
          dim {
            dim_value: 128
          }
          dim {
            dim_value: 14
          }
          dim {
            dim_value: 20
          }
        }
      }
    }
  }
  value_info {
    name: "/model.22/m.0/m/m.0/cv1/act/Sigmoid_output_0"
    type {
      tensor_type {
        elem_type: 1
        shape {
          dim {
            dim_value: 1
          }
          dim {
            dim_value: 128
          }
          dim {
            dim_value: 7
          }
          dim {
            dim_value: 10
          }
        }
      }
    }
  }
  value_info {
    name: "/model.23/cv3.1/cv3.1.2/Conv_output_0"
    type {
      tensor_type {
        elem_type: 1
        shape {
          dim {
            dim_value: 1
          }
          dim {
            dim_value: 4
          }
          dim {
            dim_value: 14
          }
          dim {
            dim_value: 20
          }
        }
      }
    }
  }
  value_info {
    name: "/model.22/m.0/m/m.0/cv1/act/Mul_output_0"
    type {
      tensor_type {
        elem_type: 1
        shape {
          dim {
            dim_value: 1
          }
          dim {
            dim_value: 128
          }
          dim {
            dim_value: 7
          }
          dim {
            dim_value: 10
          }
        }
      }
    }
  }
  value_info {
    name: "/model.23/Concat_1_output_0"
    type {
      tensor_type {
        elem_type: 1
        shape {
          dim {
            dim_value: 1
          }
          dim {
            dim_value: 68
          }
          dim {
            dim_value: 14
          }
          dim {
            dim_value: 20
          }
        }
      }
    }
  }
  value_info {
    name: "/model.22/m.0/m/m.0/cv2/conv/Conv_output_0"
    type {
      tensor_type {
        elem_type: 1
        shape {
          dim {
            dim_value: 1
          }
          dim {
            dim_value: 128
          }
          dim {
            dim_value: 7
          }
          dim {
            dim_value: 10
          }
        }
      }
    }
  }
  value_info {
    name: "/model.23/Reshape_1_output_0"
    type {
      tensor_type {
        elem_type: 1
        shape {
          dim {
            dim_value: 1
          }
          dim {
            dim_value: 68
          }
          dim {
            dim_value: 280
          }
        }
      }
    }
  }
  value_info {
    name: "/model.22/m.0/m/m.0/cv2/act/Sigmoid_output_0"
    type {
      tensor_type {
        elem_type: 1
        shape {
          dim {
            dim_value: 1
          }
          dim {
            dim_value: 128
          }
          dim {
            dim_value: 7
          }
          dim {
            dim_value: 10
          }
        }
      }
    }
  }
  value_info {
    name: "/model.22/m.0/m/m.0/cv2/act/Mul_output_0"
    type {
      tensor_type {
        elem_type: 1
        shape {
          dim {
            dim_value: 1
          }
          dim {
            dim_value: 128
          }
          dim {
            dim_value: 7
          }
          dim {
            dim_value: 10
          }
        }
      }
    }
  }
  value_info {
    name: "/model.22/m.0/m/m.0/Add_output_0"
    type {
      tensor_type {
        elem_type: 1
        shape {
          dim {
            dim_value: 1
          }
          dim {
            dim_value: 128
          }
          dim {
            dim_value: 7
          }
          dim {
            dim_value: 10
          }
        }
      }
    }
  }
  value_info {
    name: "/model.22/m.0/m/m.1/cv1/conv/Conv_output_0"
    type {
      tensor_type {
        elem_type: 1
        shape {
          dim {
            dim_value: 1
          }
          dim {
            dim_value: 128
          }
          dim {
            dim_value: 7
          }
          dim {
            dim_value: 10
          }
        }
      }
    }
  }
  value_info {
    name: "/model.22/m.0/m/m.1/cv1/act/Sigmoid_output_0"
    type {
      tensor_type {
        elem_type: 1
        shape {
          dim {
            dim_value: 1
          }
          dim {
            dim_value: 128
          }
          dim {
            dim_value: 7
          }
          dim {
            dim_value: 10
          }
        }
      }
    }
  }
  value_info {
    name: "/model.22/m.0/m/m.1/cv1/act/Mul_output_0"
    type {
      tensor_type {
        elem_type: 1
        shape {
          dim {
            dim_value: 1
          }
          dim {
            dim_value: 128
          }
          dim {
            dim_value: 7
          }
          dim {
            dim_value: 10
          }
        }
      }
    }
  }
  value_info {
    name: "/model.22/m.0/m/m.1/cv2/conv/Conv_output_0"
    type {
      tensor_type {
        elem_type: 1
        shape {
          dim {
            dim_value: 1
          }
          dim {
            dim_value: 128
          }
          dim {
            dim_value: 7
          }
          dim {
            dim_value: 10
          }
        }
      }
    }
  }
  value_info {
    name: "/model.22/m.0/m/m.1/cv2/act/Sigmoid_output_0"
    type {
      tensor_type {
        elem_type: 1
        shape {
          dim {
            dim_value: 1
          }
          dim {
            dim_value: 128
          }
          dim {
            dim_value: 7
          }
          dim {
            dim_value: 10
          }
        }
      }
    }
  }
  value_info {
    name: "/model.22/m.0/m/m.1/cv2/act/Mul_output_0"
    type {
      tensor_type {
        elem_type: 1
        shape {
          dim {
            dim_value: 1
          }
          dim {
            dim_value: 128
          }
          dim {
            dim_value: 7
          }
          dim {
            dim_value: 10
          }
        }
      }
    }
  }
  value_info {
    name: "/model.22/m.0/m/m.1/Add_output_0"
    type {
      tensor_type {
        elem_type: 1
        shape {
          dim {
            dim_value: 1
          }
          dim {
            dim_value: 128
          }
          dim {
            dim_value: 7
          }
          dim {
            dim_value: 10
          }
        }
      }
    }
  }
  value_info {
    name: "/model.22/m.0/Concat_output_0"
    type {
      tensor_type {
        elem_type: 1
        shape {
          dim {
            dim_value: 1
          }
          dim {
            dim_value: 256
          }
          dim {
            dim_value: 7
          }
          dim {
            dim_value: 10
          }
        }
      }
    }
  }
  value_info {
    name: "/model.22/m.0/cv3/conv/Conv_output_0"
    type {
      tensor_type {
        elem_type: 1
        shape {
          dim {
            dim_value: 1
          }
          dim {
            dim_value: 256
          }
          dim {
            dim_value: 7
          }
          dim {
            dim_value: 10
          }
        }
      }
    }
  }
  value_info {
    name: "/model.22/m.0/cv3/act/Sigmoid_output_0"
    type {
      tensor_type {
        elem_type: 1
        shape {
          dim {
            dim_value: 1
          }
          dim {
            dim_value: 256
          }
          dim {
            dim_value: 7
          }
          dim {
            dim_value: 10
          }
        }
      }
    }
  }
  value_info {
    name: "/model.22/m.0/cv3/act/Mul_output_0"
    type {
      tensor_type {
        elem_type: 1
        shape {
          dim {
            dim_value: 1
          }
          dim {
            dim_value: 256
          }
          dim {
            dim_value: 7
          }
          dim {
            dim_value: 10
          }
        }
      }
    }
  }
  value_info {
    name: "/model.22/Concat_output_0"
    type {
      tensor_type {
        elem_type: 1
        shape {
          dim {
            dim_value: 1
          }
          dim {
            dim_value: 768
          }
          dim {
            dim_value: 7
          }
          dim {
            dim_value: 10
          }
        }
      }
    }
  }
  value_info {
    name: "/model.22/cv2/conv/Conv_output_0"
    type {
      tensor_type {
        elem_type: 1
        shape {
          dim {
            dim_value: 1
          }
          dim {
            dim_value: 512
          }
          dim {
            dim_value: 7
          }
          dim {
            dim_value: 10
          }
        }
      }
    }
  }
  value_info {
    name: "/model.22/cv2/act/Sigmoid_output_0"
    type {
      tensor_type {
        elem_type: 1
        shape {
          dim {
            dim_value: 1
          }
          dim {
            dim_value: 512
          }
          dim {
            dim_value: 7
          }
          dim {
            dim_value: 10
          }
        }
      }
    }
  }
  value_info {
    name: "/model.22/cv2/act/Mul_output_0"
    type {
      tensor_type {
        elem_type: 1
        shape {
          dim {
            dim_value: 1
          }
          dim {
            dim_value: 512
          }
          dim {
            dim_value: 7
          }
          dim {
            dim_value: 10
          }
        }
      }
    }
  }
  value_info {
    name: "/model.23/cv2.2/cv2.2.0/conv/Conv_output_0"
    type {
      tensor_type {
        elem_type: 1
        shape {
          dim {
            dim_value: 1
          }
          dim {
            dim_value: 64
          }
          dim {
            dim_value: 7
          }
          dim {
            dim_value: 10
          }
        }
      }
    }
  }
  value_info {
    name: "/model.23/cv3.2/cv3.2.0/cv3.2.0.0/conv/Conv_output_0"
    type {
      tensor_type {
        elem_type: 1
        shape {
          dim {
            dim_value: 1
          }
          dim {
            dim_value: 512
          }
          dim {
            dim_value: 7
          }
          dim {
            dim_value: 10
          }
        }
      }
    }
  }
  value_info {
    name: "/model.23/cv2.2/cv2.2.0/act/Sigmoid_output_0"
    type {
      tensor_type {
        elem_type: 1
        shape {
          dim {
            dim_value: 1
          }
          dim {
            dim_value: 64
          }
          dim {
            dim_value: 7
          }
          dim {
            dim_value: 10
          }
        }
      }
    }
  }
  value_info {
    name: "/model.23/cv3.2/cv3.2.0/cv3.2.0.0/act/Sigmoid_output_0"
    type {
      tensor_type {
        elem_type: 1
        shape {
          dim {
            dim_value: 1
          }
          dim {
            dim_value: 512
          }
          dim {
            dim_value: 7
          }
          dim {
            dim_value: 10
          }
        }
      }
    }
  }
  value_info {
    name: "/model.23/cv2.2/cv2.2.0/act/Mul_output_0"
    type {
      tensor_type {
        elem_type: 1
        shape {
          dim {
            dim_value: 1
          }
          dim {
            dim_value: 64
          }
          dim {
            dim_value: 7
          }
          dim {
            dim_value: 10
          }
        }
      }
    }
  }
  value_info {
    name: "/model.23/cv3.2/cv3.2.0/cv3.2.0.0/act/Mul_output_0"
    type {
      tensor_type {
        elem_type: 1
        shape {
          dim {
            dim_value: 1
          }
          dim {
            dim_value: 512
          }
          dim {
            dim_value: 7
          }
          dim {
            dim_value: 10
          }
        }
      }
    }
  }
  value_info {
    name: "/model.23/cv2.2/cv2.2.1/conv/Conv_output_0"
    type {
      tensor_type {
        elem_type: 1
        shape {
          dim {
            dim_value: 1
          }
          dim {
            dim_value: 64
          }
          dim {
            dim_value: 7
          }
          dim {
            dim_value: 10
          }
        }
      }
    }
  }
  value_info {
    name: "/model.23/cv3.2/cv3.2.0/cv3.2.0.1/conv/Conv_output_0"
    type {
      tensor_type {
        elem_type: 1
        shape {
          dim {
            dim_value: 1
          }
          dim {
            dim_value: 128
          }
          dim {
            dim_value: 7
          }
          dim {
            dim_value: 10
          }
        }
      }
    }
  }
  value_info {
    name: "/model.23/cv2.2/cv2.2.1/act/Sigmoid_output_0"
    type {
      tensor_type {
        elem_type: 1
        shape {
          dim {
            dim_value: 1
          }
          dim {
            dim_value: 64
          }
          dim {
            dim_value: 7
          }
          dim {
            dim_value: 10
          }
        }
      }
    }
  }
  value_info {
    name: "/model.23/cv3.2/cv3.2.0/cv3.2.0.1/act/Sigmoid_output_0"
    type {
      tensor_type {
        elem_type: 1
        shape {
          dim {
            dim_value: 1
          }
          dim {
            dim_value: 128
          }
          dim {
            dim_value: 7
          }
          dim {
            dim_value: 10
          }
        }
      }
    }
  }
  value_info {
    name: "/model.23/cv2.2/cv2.2.1/act/Mul_output_0"
    type {
      tensor_type {
        elem_type: 1
        shape {
          dim {
            dim_value: 1
          }
          dim {
            dim_value: 64
          }
          dim {
            dim_value: 7
          }
          dim {
            dim_value: 10
          }
        }
      }
    }
  }
  value_info {
    name: "/model.23/cv3.2/cv3.2.0/cv3.2.0.1/act/Mul_output_0"
    type {
      tensor_type {
        elem_type: 1
        shape {
          dim {
            dim_value: 1
          }
          dim {
            dim_value: 128
          }
          dim {
            dim_value: 7
          }
          dim {
            dim_value: 10
          }
        }
      }
    }
  }
  value_info {
    name: "/model.23/cv2.2/cv2.2.2/Conv_output_0"
    type {
      tensor_type {
        elem_type: 1
        shape {
          dim {
            dim_value: 1
          }
          dim {
            dim_value: 64
          }
          dim {
            dim_value: 7
          }
          dim {
            dim_value: 10
          }
        }
      }
    }
  }
  value_info {
    name: "/model.23/cv3.2/cv3.2.1/cv3.2.1.0/conv/Conv_output_0"
    type {
      tensor_type {
        elem_type: 1
        shape {
          dim {
            dim_value: 1
          }
          dim {
            dim_value: 128
          }
          dim {
            dim_value: 7
          }
          dim {
            dim_value: 10
          }
        }
      }
    }
  }
  value_info {
    name: "/model.23/cv3.2/cv3.2.1/cv3.2.1.0/act/Sigmoid_output_0"
    type {
      tensor_type {
        elem_type: 1
        shape {
          dim {
            dim_value: 1
          }
          dim {
            dim_value: 128
          }
          dim {
            dim_value: 7
          }
          dim {
            dim_value: 10
          }
        }
      }
    }
  }
  value_info {
    name: "/model.23/cv3.2/cv3.2.1/cv3.2.1.0/act/Mul_output_0"
    type {
      tensor_type {
        elem_type: 1
        shape {
          dim {
            dim_value: 1
          }
          dim {
            dim_value: 128
          }
          dim {
            dim_value: 7
          }
          dim {
            dim_value: 10
          }
        }
      }
    }
  }
  value_info {
    name: "/model.23/cv3.2/cv3.2.1/cv3.2.1.1/conv/Conv_output_0"
    type {
      tensor_type {
        elem_type: 1
        shape {
          dim {
            dim_value: 1
          }
          dim {
            dim_value: 128
          }
          dim {
            dim_value: 7
          }
          dim {
            dim_value: 10
          }
        }
      }
    }
  }
  value_info {
    name: "/model.23/cv3.2/cv3.2.1/cv3.2.1.1/act/Sigmoid_output_0"
    type {
      tensor_type {
        elem_type: 1
        shape {
          dim {
            dim_value: 1
          }
          dim {
            dim_value: 128
          }
          dim {
            dim_value: 7
          }
          dim {
            dim_value: 10
          }
        }
      }
    }
  }
  value_info {
    name: "/model.23/cv3.2/cv3.2.1/cv3.2.1.1/act/Mul_output_0"
    type {
      tensor_type {
        elem_type: 1
        shape {
          dim {
            dim_value: 1
          }
          dim {
            dim_value: 128
          }
          dim {
            dim_value: 7
          }
          dim {
            dim_value: 10
          }
        }
      }
    }
  }
  value_info {
    name: "/model.23/cv3.2/cv3.2.2/Conv_output_0"
    type {
      tensor_type {
        elem_type: 1
        shape {
          dim {
            dim_value: 1
          }
          dim {
            dim_value: 4
          }
          dim {
            dim_value: 7
          }
          dim {
            dim_value: 10
          }
        }
      }
    }
  }
  value_info {
    name: "/model.23/Concat_2_output_0"
    type {
      tensor_type {
        elem_type: 1
        shape {
          dim {
            dim_value: 1
          }
          dim {
            dim_value: 68
          }
          dim {
            dim_value: 7
          }
          dim {
            dim_value: 10
          }
        }
      }
    }
  }
  value_info {
    name: "/model.23/Reshape_2_output_0"
    type {
      tensor_type {
        elem_type: 1
        shape {
          dim {
            dim_value: 1
          }
          dim {
            dim_value: 68
          }
          dim {
            dim_value: 70
          }
        }
      }
    }
  }
  value_info {
    name: "/model.23/Concat_3_output_0"
    type {
      tensor_type {
        elem_type: 1
        shape {
          dim {
            dim_value: 1
          }
          dim {
            dim_value: 68
          }
          dim {
            dim_value: 1470
          }
        }
      }
    }
  }
  value_info {
    name: "/model.23/Split_output_0"
    type {
      tensor_type {
        elem_type: 1
        shape {
          dim {
            dim_value: 1
          }
          dim {
            dim_value: 64
          }
          dim {
            dim_value: 1470
          }
        }
      }
    }
  }
  value_info {
    name: "/model.23/Split_output_1"
    type {
      tensor_type {
        elem_type: 1
        shape {
          dim {
            dim_value: 1
          }
          dim {
            dim_value: 4
          }
          dim {
            dim_value: 1470
          }
        }
      }
    }
  }
  value_info {
    name: "/model.23/dfl/Reshape_output_0"
    type {
      tensor_type {
        elem_type: 1
        shape {
          dim {
            dim_value: 1
          }
          dim {
            dim_value: 4
          }
          dim {
            dim_value: 16
          }
          dim {
            dim_value: 1470
          }
        }
      }
    }
  }
  value_info {
    name: "/model.23/dfl/Transpose_output_0"
    type {
      tensor_type {
        elem_type: 1
        shape {
          dim {
            dim_value: 1
          }
          dim {
            dim_value: 16
          }
          dim {
            dim_value: 4
          }
          dim {
            dim_value: 1470
          }
        }
      }
    }
  }
  value_info {
    name: "/model.23/dfl/Softmax_output_0"
    type {
      tensor_type {
        elem_type: 1
        shape {
          dim {
            dim_value: 1
          }
          dim {
            dim_value: 16
          }
          dim {
            dim_value: 4
          }
          dim {
            dim_value: 1470
          }
        }
      }
    }
  }
}
opset_import {
  version: 19
}
metadata_props {
  key: "description"
  value: "Ultralytics YOLO11s model trained on keihin-test-4.yaml"
}
metadata_props {
  key: "author"
  value: "Ultralytics"
}
metadata_props {
  key: "date"
  value: "2025-04-05T14:21:03.526285"
}
metadata_props {
  key: "version"
  value: "8.3.101"
}
metadata_props {
  key: "license"
  value: "AGPL-3.0 License (https://ultralytics.com/license)"
}
metadata_props {
  key: "docs"
  value: "https://docs.ultralytics.com"
}
metadata_props {
  key: "stride"
  value: "32"
}
metadata_props {
  key: "task"
  value: "detect"
}
metadata_props {
  key: "batch"
  value: "1"
}
metadata_props {
  key: "imgsz"
  value: "[224, 320]"
}
metadata_props {
  key: "names"
  value: "{0: \'dogclip\', 1: \'leafairy\', 2: \'bluefish\', 3: \'whitefish\'}"
}
metadata_props {
  key: "args"
  value: "{\'batch\': 1, \'half\': False, \'dynamic\': False, \'simplify\': True, \'opset\': None, \'nms\': False}"
}
