#loc = loc(unknown)
module @yolo11s attributes {module.FLOPs = 3787969080 : i64, module.addr_mode = "basic", module.asymmetric = false, module.chip = "cv181x", module.cores = 1 : i64, module.devices = 1 : i64, module.high_precision = false, module.mode = "INT8", module.platform = "ONNX", module.q_group_size = 0 : i64, module.state = "TPU_LOWERED", module.top_run_mode = "STATIC", module.weight_file = "yolo11s_tpu_lowered_cv181x_int8_sym_weight.npz"} {
  func.func @main(%arg0: tensor<1x3x224x320xf32> loc(unknown)) -> (tensor<1x1x4x1470xf32>, tensor<1x4x1470xf32>) {
    %0 = "top.None"() : () -> none loc(#loc)
    %1 = "top.Input"(%arg0) {channel_format = "nchw", do_preprocess = true, keep_aspect_ratio = true, keep_ratio_mode = "letterbox", mean = [0.000000e+00, 0.000000e+00, 0.000000e+00], pad_type = "center", pad_value = 0 : i64, pixel_format = "rgb", resize_dims = [224, 320], scale = [0.0039215688593685627, 0.0039215688593685627, 0.0039215688593685627]} : (tensor<1x3x224x320xf32>) -> tensor<1x3x224x320x!quant.calibrated<f32<-1.000000e+00:1.000000e+00>>> loc(#loc1)
    %2 = "tpu.GenericCpu"(%1) {cpu_op_name = "quant", param = {from = "FP32", scale = 1.270000e+02 : f32, to = "INT8"}} : (tensor<1x3x224x320x!quant.calibrated<f32<-1.000000e+00:1.000000e+00>>>) -> tensor<1x3x224x320x!quant.uniform<i8:f32, 0.0078740157480314959>> loc(#loc2)
    %3 = "top.Weight"() : () -> tensor<32x3x3x3xsi8> loc(#loc3)
    %4 = "top.Weight"() : () -> tensor<1x32x1x1xi32> loc(#loc4)
    %5 = "tpu.Conv2D"(%2, %3, %4) {coeff_merged = false, dilations = [1, 1], do_relu = false, do_winograd = false, dynweight_reorderd = false, group = 1 : i64, kernel_shape = [3, 3], kernel_zp = 0 : i64, multiplier = [1210087552, 1460211584, 1519423872, 1701917824, 1925493760, 1471771648, 1857225856, 1530589184, 1355583872, 1294185216, 1104819712, 1437758720, 1074902272, 1881570688, 1233632640, 1881122304, 1418638848, 1806401408, 1116437760, 1802742272, 1294328448, 1764426368, 1639488256, 1484759168, 1478662016, 1350295936, 1255048064, 1790350976, 1845641984, 2112380288, 1705584512, 1710843648], pads = [1, 1, 1, 1], quant_mode = #tpu<rq_mode QDM>, relu_limit = -1.000000e+00 : f64, round_mode = #tpu<round_mode HalfUp>, rshift = [7, 8, 8, 8, 7, 8, 7, 8, 7, 8, 8, 8, 7, 11, 10, 9, 8, 8, 6, 9, 7, 7, 9, 8, 8, 11, 8, 8, 7, 8, 9, 7], strides = [2, 2], support_compress = true, use_3ic_optimize = 0 : i64, weight_is_coeff = 1 : i64, with_bias = true} : (tensor<1x3x224x320x!quant.uniform<i8:f32, 0.0078740157480314959>>, tensor<32x3x3x3xsi8>, tensor<1x32x1x1xi32>) -> tensor<1x32x112x160x!quant.uniform<i8:f32, 0.49818741417322837>> loc(#loc5)
    %6 = "top.Weight"() : () -> tensor<1x1x1x256xsi8> loc(#loc6)
    %7 = "tpu.Lut"(%5, %6) : (tensor<1x32x112x160x!quant.uniform<i8:f32, 0.49818741417322837>>, tensor<1x1x1x256xsi8>) -> tensor<1x32x112x160x!quant.uniform<i8:f32, 0.46105073937007873>> loc(#loc7)
    %8 = "top.Weight"() : () -> tensor<64x32x3x3xsi8> loc(#loc8)
    %9 = "top.Weight"() : () -> tensor<1x64x1x1xi32> loc(#loc9)
    %10 = "tpu.Conv2D"(%7, %8, %9) {coeff_merged = false, dilations = [1, 1], do_relu = false, do_winograd = false, dynweight_reorderd = false, group = 1 : i64, kernel_shape = [3, 3], kernel_zp = 0 : i64, multiplier = [1243588480, 1512509568, 1560436480, 1349897216, 1815426816, 1719839616, 1539503360, 1126744064, 1418434432, 1943511168, 1412607872, 1439608448, 1577883904, 1384331008, 1217906560, 1828072192, 1595585024, 1885547520, 1662237824, 1139826816, 1162352128, 2097095040, 1145029760, 1535756032, 2001693184, 1122700416, 1343494144, 1565543680, 1465709440, 1711256192, 1434859904, 1104709504, 1308935552, 1778456320, 1605009280, 1349727744, 1946133376, 2087135232, 1399405440, 1756260736, 1749671680, 2006181632, 1666011264, 1940705152, 1089735680, 1700216960, 1596452992, 1569467392, 1820171136, 1311370240, 1979555840, 1171255168, 1143205888, 1494890496, 1392073088, 2136367104, 1663388928, 1347364480, 1162317824, 1104095744, 1631282560, 1977298304, 1824763008, 1584242688], pads = [1, 1, 1, 1], quant_mode = #tpu<rq_mode QDM>, relu_limit = -1.000000e+00 : f64, round_mode = #tpu<round_mode HalfUp>, rshift = [8, 9, 8, 9, 10, 8, 9, 8, 7, 8, 7, 8, 8, 8, 7, 9, 9, 8, 8, 7, 9, 9, 8, 8, 8, 8, 8, 8, 9, 8, 8, 7, 9, 7, 8, 8, 9, 8, 7, 9, 10, 8, 8, 8, 8, 7, 8, 8, 9, 8, 8, 8, 8, 8, 9, 9, 8, 8, 9, 7, 7, 8, 9, 9], strides = [2, 2], support_compress = true, use_3ic_optimize = 0 : i64, weight_is_coeff = 1 : i64, with_bias = true} : (tensor<1x32x112x160x!quant.uniform<i8:f32, 0.46105073937007873>>, tensor<64x32x3x3xsi8>, tensor<1x64x1x1xi32>) -> tensor<1x64x56x80x!quant.uniform<i8:f32, 0.6094166228346457>> loc(#loc10)
    %11 = "top.Weight"() : () -> tensor<1x1x1x256xsi8> loc(#loc11)
    %12 = "tpu.Lut"(%10, %11) : (tensor<1x64x56x80x!quant.uniform<i8:f32, 0.6094166228346457>>, tensor<1x1x1x256xsi8>) -> tensor<1x64x56x80x!quant.uniform<i8:f32, 0.47554662362204719>> loc(#loc12)
    %13 = "top.Weight"() : () -> tensor<64x64x1x1xsi8> loc(#loc13)
    %14 = "top.Weight"() : () -> tensor<1x64x1x1xi32> loc(#loc14)
    %15 = "tpu.Conv2D"(%12, %13, %14) {coeff_merged = false, dilations = [1, 1], do_relu = false, do_winograd = false, dynweight_reorderd = false, group = 1 : i64, kernel_shape = [1, 1], kernel_zp = 0 : i64, multiplier = [1674319872, 1115277568, 1797232000, 1748087936, 1623941504, 1713856768, 1774013440, 2129005824, 1147061376, 1637660672, 1445929216, 2056676096, 1490268288, 1481853952, 1528362752, 1154568320, 1159694592, 2132933504, 1910199424, 1412362496, 1474251136, 1394830080, 2145196288, 1454204928, 1853528832, 1480835200, 1663977600, 1904803456, 1355571072, 1500175616, 1557914752, 1348581504, 2006073728, 2135388800, 2097206912, 1282570240, 2030685056, 1907115520, 1438104192, 1105676672, 1661963136, 1821142528, 1196422144, 1847061248, 2000644608, 1538903936, 1188339584, 1387171968, 1543862528, 1494252672, 1848856320, 1330062080, 1474360960, 1150328960, 1109748224, 1079602304, 1273002240, 2075317888, 1368440064, 1230301568, 1469151616, 1650908800, 1376045440, 1292932736], pads = [0, 0, 0, 0], quant_mode = #tpu<rq_mode QDM>, relu_limit = -1.000000e+00 : f64, round_mode = #tpu<round_mode HalfUp>, rshift = [7, 7, 7, 8, 8, 7, 8, 8, 7, 8, 8, 7, 6, 7, 7, 8, 8, 7, 8, 7, 7, 7, 9, 7, 8, 7, 8, 7, 7, 9, 7, 7, 9, 8, 9, 9, 7, 8, 6, 8, 7, 7, 8, 6, 9, 8, 9, 6, 9, 6, 7, 6, 8, 9, 7, 5, 6, 7, 8, 6, 8, 6, 6, 8], strides = [1, 1], support_compress = true, use_3ic_optimize = 0 : i64, weight_is_coeff = 1 : i64, with_bias = true} : (tensor<1x64x56x80x!quant.uniform<i8:f32, 0.47554662362204719>>, tensor<64x64x1x1xsi8>, tensor<1x64x1x1xi32>) -> tensor<1x64x56x80x!quant.uniform<i8:f32, 0.2627664401574803>> loc(#loc15)
    %16 = "top.Weight"() : () -> tensor<1x1x1x256xsi8> loc(#loc16)
    %17 = "tpu.Lut"(%15, %16) : (tensor<1x64x56x80x!quant.uniform<i8:f32, 0.2627664401574803>>, tensor<1x1x1x256xsi8>) -> tensor<1x64x56x80x!quant.uniform<i8:f32, 0.14772613385826772>> loc(#loc17)
    %18 = "tpu.Slice"(%17, %0, %0, %0, %0) {axes = [], ends = [9223372036854775807, 32, 9223372036854775807, 9223372036854775807], hasparamConvert_axes = [1], offset = [0, 0, 0, 0], steps = [1, 1, 1, 1]} : (tensor<1x64x56x80x!quant.uniform<i8:f32, 0.14772613385826772>>, none, none, none, none) -> tensor<1x32x56x80x!quant.uniform<i8:f32, 0.14772613385826772>> loc(#loc18)
    %19 = "tpu.Slice"(%17, %0, %0, %0, %0) {axes = [], ends = [9223372036854775807, 64, 9223372036854775807, 9223372036854775807], hasparamConvert_axes = [1], offset = [0, 32, 0, 0], steps = [1, 1, 1, 1]} : (tensor<1x64x56x80x!quant.uniform<i8:f32, 0.14772613385826772>>, none, none, none, none) -> tensor<1x32x56x80x!quant.uniform<i8:f32, 0.14772613385826772>> loc(#loc19)
    %20 = "top.Weight"() : () -> tensor<16x32x3x3xsi8> loc(#loc20)
    %21 = "top.Weight"() : () -> tensor<1x16x1x1xi32> loc(#loc21)
    %22 = "tpu.Conv2D"(%19, %20, %21) {coeff_merged = false, dilations = [1, 1], do_relu = false, do_winograd = false, dynweight_reorderd = false, group = 1 : i64, kernel_shape = [3, 3], kernel_zp = 0 : i64, multiplier = [1824145408, 1251503488, 1682123648, 1451949824, 1916222208, 1113516544, 1628823168, 1872235136, 1830173568, 1947321344, 1337295360, 2005245568, 1967038848, 1486297216, 1787761280, 1507357312], pads = [1, 1, 1, 1], quant_mode = #tpu<rq_mode QDM>, relu_limit = -1.000000e+00 : f64, round_mode = #tpu<round_mode HalfUp>, rshift = [7, 6, 7, 7, 7, 7, 7, 7, 8, 6, 6, 6, 7, 6, 7, 6], strides = [1, 1], support_compress = true, use_3ic_optimize = 0 : i64, weight_is_coeff = 1 : i64, with_bias = true} : (tensor<1x32x56x80x!quant.uniform<i8:f32, 0.14772613385826772>>, tensor<16x32x3x3xsi8>, tensor<1x16x1x1xi32>) -> tensor<1x16x56x80x!quant.uniform<i8:f32, 0.074481342519685037>> loc(#loc22)
    %23 = "top.Weight"() : () -> tensor<1x1x1x256xsi8> loc(#loc23)
    %24 = "tpu.Lut"(%22, %23) : (tensor<1x16x56x80x!quant.uniform<i8:f32, 0.074481342519685037>>, tensor<1x1x1x256xsi8>) -> tensor<1x16x56x80x!quant.uniform<i8:f32, 0.069902049606299213>> loc(#loc24)
    %25 = "top.Weight"() : () -> tensor<32x16x3x3xsi8> loc(#loc25)
    %26 = "top.Weight"() : () -> tensor<1x32x1x1xi32> loc(#loc26)
    %27 = "tpu.Conv2D"(%24, %25, %26) {coeff_merged = false, dilations = [1, 1], do_relu = false, do_winograd = false, dynweight_reorderd = false, group = 1 : i64, kernel_shape = [3, 3], kernel_zp = 0 : i64, multiplier = [1442386816, 1493658880, 1525668352, 1488353792, 1738167552, 1490488192, 1292064896, 1979238016, 1364344320, 2059579392, 2051364480, 1957107840, 1344929920, 2093342848, 1542156416, 1694102272, 1453549568, 1546681600, 1757885312, 1155479296, 1656809728, 1852228352, 1126170496, 1296483328, 1870270208, 1844274048, 1493225344, 1297448832, 1695301632, 1434126976, 1520930176, 1472485248], pads = [1, 1, 1, 1], quant_mode = #tpu<rq_mode QDM>, relu_limit = -1.000000e+00 : f64, round_mode = #tpu<round_mode HalfUp>, rshift = [7, 8, 8, 8, 8, 7, 7, 8, 8, 8, 8, 8, 8, 8, 8, 8, 7, 8, 8, 7, 8, 8, 7, 7, 8, 8, 8, 7, 8, 8, 7, 7], strides = [1, 1], support_compress = true, use_3ic_optimize = 0 : i64, weight_is_coeff = 1 : i64, with_bias = true} : (tensor<1x16x56x80x!quant.uniform<i8:f32, 0.069902049606299213>>, tensor<32x16x3x3xsi8>, tensor<1x32x1x1xi32>) -> tensor<1x32x56x80x!quant.uniform<i8:f32, 0.11104472913385827>> loc(#loc27)
    %28 = "top.Weight"() : () -> tensor<1x1x1x256xsi8> loc(#loc28)
    %29 = "tpu.Lut"(%27, %28) : (tensor<1x32x56x80x!quant.uniform<i8:f32, 0.11104472913385827>>, tensor<1x1x1x256xsi8>) -> tensor<1x32x56x80x!quant.uniform<i8:f32, 0.097719342519685046>> loc(#loc29)
    %30 = "tpu.Add"(%19, %29) {do_relu = false, multipliers = [70, 46], relu_limit = -1.000000e+00 : f64, rshifts = [6]} : (tensor<1x32x56x80x!quant.uniform<i8:f32, 0.14772613385826772>>, tensor<1x32x56x80x!quant.uniform<i8:f32, 0.097719342519685046>>) -> tensor<1x32x56x80x!quant.uniform<i8:f32, 0.13364397952755905>> loc(#loc30)
    %31 = "tpu.Concat"(%18, %19, %30) {axis = 1 : si32, do_relu = false, multipliers = [1, 1, 115], only_merge = false, relu_limit = -1.000000e+00 : f64, rshifts = [0, 0, 7]} : (tensor<1x32x56x80x!quant.uniform<i8:f32, 0.14772613385826772>>, tensor<1x32x56x80x!quant.uniform<i8:f32, 0.14772613385826772>>, tensor<1x32x56x80x!quant.uniform<i8:f32, 0.13364397952755905>>) -> tensor<1x96x56x80x!quant.uniform<i8:f32, 0.14772613385826772>> loc(#loc31)
    %32 = "top.Weight"() : () -> tensor<128x96x1x1xsi8> loc(#loc32)
    %33 = "top.Weight"() : () -> tensor<1x128x1x1xi32> loc(#loc33)
    %34 = "tpu.Conv2D"(%31, %32, %33) {coeff_merged = false, dilations = [1, 1], do_relu = false, do_winograd = false, dynweight_reorderd = false, group = 1 : i64, kernel_shape = [1, 1], kernel_zp = 0 : i64, multiplier = [1289512448, 1909148800, 1971661952, 1624793984, 1678688256, 1240486784, 1897019392, 1551672320, 1182024064, 1323380992, 1215232256, 1184827520, 2113497472, 1658912384, 1084769920, 1779296384, 1786111360, 1384462336, 1989413760, 1259211904, 1111446528, 1952524672, 1875090944, 1502727168, 2048696704, 2117388032, 1642031232, 1429552128, 1415071616, 2012526080, 1512380800, 1080507264, 1422241792, 1238989184, 1286076160, 1764719744, 1812083200, 1952678784, 1983515520, 2114966784, 1660583808, 1968860544, 1583544832, 1196927104, 1959972096, 1481403520, 2053478656, 1133080704, 1535886464, 1087714176, 1604952960, 1892051584, 1635787136, 1749601280, 1405331840, 1704564224, 1562890752, 1374115712, 1821369984, 1136336768, 1590219392, 1911807616, 1921367552, 1154848512, 1970597504, 2022720384, 2145524224, 1624088576, 1325083008, 2001688192, 1960228224, 1165163776, 1349274368, 1438809856, 2126823808, 1839944576, 1308099072, 1650888064, 1474639488, 1700994432, 1805601152, 1928133376, 1813932160, 1415330304, 1625762432, 1677866240, 1859463808, 1168283008, 1619237120, 1972482304, 1520147072, 2097109760, 1959006336, 1520754688, 1615173632, 1393534208, 1231788032, 1173130752, 1355697152, 1204325504, 1944858624, 1213081344, 1626330240, 2027634944, 1826955264, 1238290304, 1204634368, 1514554752, 1891581056, 1589353984, 1842833024, 1543960576, 1573380224, 1355163264, 1832722688, 1444387200, 1078176384, 2083899392, 1612623232, 1598566400, 2091822976, 1236023680, 1303610368, 1267046016, 1747796736, 1988489472, 1260947328, 1190755840], pads = [0, 0, 0, 0], quant_mode = #tpu<rq_mode QDM>, relu_limit = -1.000000e+00 : f64, round_mode = #tpu<round_mode HalfUp>, rshift = [7, 8, 8, 8, 8, 7, 8, 7, 6, 7, 7, 7, 8, 8, 7, 8, 8, 7, 9, 8, 7, 8, 8, 7, 8, 7, 9, 7, 7, 8, 8, 7, 8, 7, 7, 8, 8, 8, 8, 8, 8, 8, 8, 8, 8, 8, 9, 7, 7, 7, 8, 8, 8, 8, 7, 8, 8, 7, 8, 7, 7, 8, 8, 7, 8, 8, 8, 8, 8, 8, 8, 7, 8, 8, 7, 8, 7, 8, 8, 8, 7, 8, 8, 8, 8, 8, 8, 7, 8, 8, 7, 8, 8, 8, 7, 8, 7, 7, 6, 7, 8, 7, 8, 8, 8, 7, 6, 8, 8, 8, 7, 8, 8, 8, 8, 7, 7, 8, 7, 7, 8, 8, 8, 7, 8, 8, 7, 7], strides = [1, 1], support_compress = true, use_3ic_optimize = 0 : i64, weight_is_coeff = 1 : i64, with_bias = true} : (tensor<1x96x56x80x!quant.uniform<i8:f32, 0.14772613385826772>>, tensor<128x96x1x1xsi8>, tensor<1x128x1x1xi32>) -> tensor<1x128x56x80x!quant.uniform<i8:f32, 0.13573605984251969>> loc(#loc34)
    %35 = "top.Weight"() : () -> tensor<1x1x1x256xsi8> loc(#loc35)
    %36 = "tpu.Lut"(%34, %35) : (tensor<1x128x56x80x!quant.uniform<i8:f32, 0.13573605984251969>>, tensor<1x1x1x256xsi8>) -> tensor<1x128x56x80x!quant.uniform<i8:f32, 0.090521100787401581>> loc(#loc36)
    %37 = "top.Weight"() : () -> tensor<128x128x3x3xsi8> loc(#loc37)
    %38 = "top.Weight"() : () -> tensor<1x128x1x1xi32> loc(#loc38)
    %39 = "tpu.Conv2D"(%36, %37, %38) {coeff_merged = false, dilations = [1, 1], do_relu = false, do_winograd = false, dynweight_reorderd = false, group = 1 : i64, kernel_shape = [3, 3], kernel_zp = 0 : i64, multiplier = [1745923456, 1963913984, 1317531520, 1146583936, 1883961600, 1156006272, 1209796352, 1384611712, 1673142400, 1924903552, 1395070080, 1392883456, 1986904704, 1942646656, 1252795264, 1308144640, 1754757760, 1194414080, 1217775360, 1257532544, 1575115776, 1763128832, 1874188160, 1457827712, 1529346304, 1220584704, 1401656704, 1735330304, 2074364160, 1232563584, 1854313088, 1306899712, 1428676352, 1931723904, 1511204736, 1082014464, 1160689024, 2006898688, 1727016832, 2090193792, 1790648576, 1503868160, 1359091456, 1336478720, 1155650304, 1427738880, 1976382976, 1989128448, 1673301504, 1524462336, 1492124928, 1836698368, 1200005888, 1383257856, 2112129152, 1836037888, 1448971392, 2018006656, 1139833856, 2105824256, 2041853824, 1175389440, 1130893184, 1990362624, 1944095744, 1404891264, 1201660416, 1656001792, 1627064832, 1323884032, 1217717248, 2017358592, 1517696256, 1172137216, 1097540352, 1170634752, 1417045248, 1771743616, 1185127424, 1366051840, 1829709056, 2005089408, 2117729536, 1140175232, 2020655104, 1904774656, 1212404480, 2121814272, 1522287488, 1837343872, 1879308928, 2017650176, 1652145792, 1643635584, 1584252160, 1250209536, 1134543104, 1586871936, 1920304640, 2021630848, 1672671232, 1694711168, 1919284480, 1671775744, 1543090816, 1889091968, 1487956480, 1541878528, 1785443968, 1588715776, 1470423808, 1290040320, 1408469376, 2142027008, 1288084352, 1854907904, 1081417088, 1385493504, 1358583168, 1403867136, 1457951744, 1832806144, 1723038848, 2093422976, 1127716096, 1578255744, 1710695680, 1240060544], pads = [1, 1, 1, 1], quant_mode = #tpu<rq_mode QDM>, relu_limit = -1.000000e+00 : f64, round_mode = #tpu<round_mode HalfUp>, rshift = [10, 10, 9, 8, 10, 9, 10, 10, 9, 9, 10, 9, 10, 10, 9, 9, 10, 9, 9, 9, 10, 10, 11, 9, 10, 10, 10, 10, 10, 9, 10, 10, 10, 11, 10, 8, 9, 10, 10, 10, 10, 9, 9, 9, 9, 9, 10, 10, 9, 11, 9, 9, 9, 10, 11, 11, 9, 11, 9, 10, 10, 9, 9, 10, 10, 9, 9, 10, 10, 9, 9, 10, 10, 9, 8, 9, 9, 10, 9, 10, 10, 10, 10, 10, 10, 10, 10, 10, 10, 10, 10, 11, 10, 9, 10, 9, 9, 10, 10, 10, 9, 10, 11, 10, 9, 9, 11, 9, 10, 11, 10, 10, 9, 10, 9, 10, 10, 10, 9, 10, 10, 10, 10, 11, 9, 10, 10, 9], strides = [2, 2], support_compress = true, use_3ic_optimize = 0 : i64, weight_is_coeff = 1 : i64, with_bias = true} : (tensor<1x128x56x80x!quant.uniform<i8:f32, 0.090521100787401581>>, tensor<128x128x3x3xsi8>, tensor<1x128x1x1xi32>) -> tensor<1x128x28x40x!quant.uniform<i8:f32, 0.062709842519685047>> loc(#loc39)
    %40 = "top.Weight"() : () -> tensor<1x1x1x256xsi8> loc(#loc40)
    %41 = "tpu.Lut"(%39, %40) : (tensor<1x128x28x40x!quant.uniform<i8:f32, 0.062709842519685047>>, tensor<1x1x1x256xsi8>) -> tensor<1x128x28x40x!quant.uniform<i8:f32, 0.054424705511811021>> loc(#loc41)
    %42 = "top.Weight"() : () -> tensor<128x128x1x1xsi8> loc(#loc42)
    %43 = "top.Weight"() : () -> tensor<1x128x1x1xi32> loc(#loc43)
    %44 = "tpu.Conv2D"(%41, %42, %43) {coeff_merged = false, dilations = [1, 1], do_relu = false, do_winograd = false, dynweight_reorderd = false, group = 1 : i64, kernel_shape = [1, 1], kernel_zp = 0 : i64, multiplier = [1154898688, 1393834624, 2075951104, 1809333376, 1272930688, 1394639360, 1481180800, 1284164864, 1123169280, 1310580352, 1286983808, 1400792064, 1906460544, 1707010944, 1819664384, 1890865536, 2067810432, 1707000320, 1560570752, 1507985408, 1878805504, 1763146752, 1223681920, 2048629504, 1989051008, 1271053568, 1341910528, 1534413824, 1673238656, 1364674944, 1589403136, 1300567808, 1802168320, 1835560960, 1228575872, 1348415616, 1559432448, 2108236800, 1921389568, 1447737344, 2037799680, 2131079168, 1686132864, 1790304512, 1814935296, 1980042240, 1782007296, 1303309952, 1382329856, 1855860608, 1762550528, 2007851648, 1743246592, 1546823040, 2003508480, 2059414400, 1793532032, 1874300928, 1485548928, 1697281408, 1289330304, 1478305536, 1374759552, 1817715072, 1190794112, 1224004608, 2106224512, 1632884480, 1205539072, 1158542336, 1588268928, 1635254656, 2009982592, 1381951488, 1372361984, 1230602240, 1919228544, 1992996480, 1266159232, 1353102080, 1715063424, 1924131072, 1544589440, 1190700416, 1109231104, 1249288960, 1810496384, 1613326208, 1706336768, 1316036480, 2126660864, 1143753856, 1283740288, 1672521984, 1863369216, 1222738048, 2049609856, 1723213824, 1458922240, 1233593984, 2146566784, 1614278656, 2015880192, 1344386688, 1974323584, 1827985536, 1082559872, 1931741952, 1946658176, 1633371008, 2120970752, 1719921408, 1430010624, 1792680448, 1131178496, 1907603072, 1306354688, 1118070912, 1391399424, 1557123968, 1394713088, 1193066496, 1728578048, 1199564288, 1798994176, 1412609536, 2141504384, 1185982848], pads = [0, 0, 0, 0], quant_mode = #tpu<rq_mode QDM>, relu_limit = -1.000000e+00 : f64, round_mode = #tpu<round_mode HalfUp>, rshift = [7, 9, 7, 8, 7, 7, 8, 7, 6, 7, 8, 8, 8, 7, 8, 8, 8, 8, 7, 8, 9, 8, 7, 7, 8, 7, 8, 7, 7, 8, 8, 8, 8, 7, 8, 8, 8, 8, 8, 8, 9, 8, 8, 9, 7, 8, 7, 8, 8, 8, 8, 9, 8, 8, 7, 8, 7, 8, 8, 9, 7, 7, 7, 7, 8, 8, 8, 8, 8, 8, 8, 8, 9, 7, 8, 8, 9, 9, 8, 8, 7, 8, 8, 8, 8, 8, 8, 9, 9, 9, 9, 8, 9, 9, 9, 8, 9, 9, 9, 8, 9, 9, 9, 8, 9, 9, 8, 8, 9, 8, 9, 9, 8, 9, 8, 9, 8, 8, 8, 9, 8, 8, 7, 8, 9, 8, 9, 7], strides = [1, 1], support_compress = true, use_3ic_optimize = 0 : i64, weight_is_coeff = 1 : i64, with_bias = true} : (tensor<1x128x28x40x!quant.uniform<i8:f32, 0.054424705511811021>>, tensor<128x128x1x1xsi8>, tensor<1x128x1x1xi32>) -> tensor<1x128x28x40x!quant.uniform<i8:f32, 0.062148030708661414>> loc(#loc44)
    %45 = "top.Weight"() : () -> tensor<1x1x1x256xsi8> loc(#loc45)
    %46 = "tpu.Lut"(%44, %45) : (tensor<1x128x28x40x!quant.uniform<i8:f32, 0.062148030708661414>>, tensor<1x1x1x256xsi8>) -> tensor<1x128x28x40x!quant.uniform<i8:f32, 0.054269591338582682>> loc(#loc46)
    %47 = "tpu.Slice"(%46, %0, %0, %0, %0) {axes = [], ends = [9223372036854775807, 64, 9223372036854775807, 9223372036854775807], hasparamConvert_axes = [1], offset = [0, 0, 0, 0], steps = [1, 1, 1, 1]} : (tensor<1x128x28x40x!quant.uniform<i8:f32, 0.054269591338582682>>, none, none, none, none) -> tensor<1x64x28x40x!quant.uniform<i8:f32, 0.054269591338582682>> loc(#loc47)
    %48 = "tpu.Slice"(%46, %0, %0, %0, %0) {axes = [], ends = [9223372036854775807, 128, 9223372036854775807, 9223372036854775807], hasparamConvert_axes = [1], offset = [0, 64, 0, 0], steps = [1, 1, 1, 1]} : (tensor<1x128x28x40x!quant.uniform<i8:f32, 0.054269591338582682>>, none, none, none, none) -> tensor<1x64x28x40x!quant.uniform<i8:f32, 0.054269591338582682>> loc(#loc48)
    %49 = "top.Weight"() : () -> tensor<32x64x3x3xsi8> loc(#loc49)
    %50 = "top.Weight"() : () -> tensor<1x32x1x1xi32> loc(#loc50)
    %51 = "tpu.Conv2D"(%48, %49, %50) {coeff_merged = false, dilations = [1, 1], do_relu = false, do_winograd = false, dynweight_reorderd = false, group = 1 : i64, kernel_shape = [3, 3], kernel_zp = 0 : i64, multiplier = [1324582272, 1712332288, 1092719488, 1537666048, 1547693696, 1103624960, 1938898816, 1533368192, 1648169344, 1683121280, 1960982912, 1099203456, 1138077696, 1541344384, 1841155712, 2114009344, 1132900992, 1783014144, 1981043072, 1758802944, 1958628352, 2049068032, 1396178048, 1259964032, 1354676096, 1125716864, 1110401024, 1900331776, 2026406528, 1127854848, 1255250432, 1130514176], pads = [1, 1, 1, 1], quant_mode = #tpu<rq_mode QDM>, relu_limit = -1.000000e+00 : f64, round_mode = #tpu<round_mode HalfUp>, rshift = [8, 9, 8, 8, 8, 8, 8, 9, 8, 9, 8, 7, 7, 8, 9, 8, 8, 9, 8, 9, 8, 9, 8, 9, 7, 8, 8, 9, 8, 7, 8, 7], strides = [1, 1], support_compress = true, use_3ic_optimize = 0 : i64, weight_is_coeff = 1 : i64, with_bias = true} : (tensor<1x64x28x40x!quant.uniform<i8:f32, 0.054269591338582682>>, tensor<32x64x3x3xsi8>, tensor<1x32x1x1xi32>) -> tensor<1x32x28x40x!quant.uniform<i8:f32, 0.043688266929133864>> loc(#loc51)
    %52 = "top.Weight"() : () -> tensor<1x1x1x256xsi8> loc(#loc52)
    %53 = "tpu.Lut"(%51, %52) : (tensor<1x32x28x40x!quant.uniform<i8:f32, 0.043688266929133864>>, tensor<1x1x1x256xsi8>) -> tensor<1x32x28x40x!quant.uniform<i8:f32, 0.038853287401574801>> loc(#loc53)
    %54 = "top.Weight"() : () -> tensor<64x32x3x3xsi8> loc(#loc54)
    %55 = "top.Weight"() : () -> tensor<1x64x1x1xi32> loc(#loc55)
    %56 = "tpu.Conv2D"(%53, %54, %55) {coeff_merged = false, dilations = [1, 1], do_relu = false, do_winograd = false, dynweight_reorderd = false, group = 1 : i64, kernel_shape = [3, 3], kernel_zp = 0 : i64, multiplier = [1587546368, 1175800960, 1896516608, 1291346560, 1866390784, 1900775168, 1502347264, 1681900416, 1406688256, 2083147520, 1831620224, 1730692992, 1088571648, 1083286272, 1076214272, 1209368576, 1508768256, 1171223552, 1219905920, 1661152768, 1929737600, 1769890816, 1846269440, 1489873024, 1730856704, 1283540480, 1860228608, 1179175168, 1662375552, 1554674048, 1116340864, 1202239616, 1606939648, 1766550784, 2020054400, 1837905024, 1294470656, 1405497984, 1625625088, 1614098816, 1488968064, 1157692160, 1220035968, 1466476928, 1200945408, 1106668928, 1981623552, 1080729344, 1718896384, 1277283072, 1632442368, 1381241728, 1625122944, 1106684416, 1443065728, 1692432640, 1752291840, 1083965440, 1595433088, 1978159104, 1120595968, 2053326848, 1197313024, 1288160384], pads = [1, 1, 1, 1], quant_mode = #tpu<rq_mode QDM>, relu_limit = -1.000000e+00 : f64, round_mode = #tpu<round_mode HalfUp>, rshift = [9, 8, 9, 8, 9, 9, 8, 9, 9, 9, 8, 9, 8, 8, 7, 8, 9, 8, 8, 8, 9, 9, 9, 9, 9, 7, 9, 8, 9, 9, 8, 8, 9, 9, 9, 9, 8, 8, 8, 8, 9, 9, 8, 9, 9, 8, 9, 8, 8, 8, 8, 9, 9, 8, 8, 9, 9, 8, 9, 9, 8, 9, 8, 8], strides = [1, 1], support_compress = true, use_3ic_optimize = 0 : i64, weight_is_coeff = 1 : i64, with_bias = true} : (tensor<1x32x28x40x!quant.uniform<i8:f32, 0.038853287401574801>>, tensor<64x32x3x3xsi8>, tensor<1x64x1x1xi32>) -> tensor<1x64x28x40x!quant.uniform<i8:f32, 0.065839774803149606>> loc(#loc56)
    %57 = "top.Weight"() : () -> tensor<1x1x1x256xsi8> loc(#loc57)
    %58 = "tpu.Lut"(%56, %57) : (tensor<1x64x28x40x!quant.uniform<i8:f32, 0.065839774803149606>>, tensor<1x1x1x256xsi8>) -> tensor<1x64x28x40x!quant.uniform<i8:f32, 0.054567293700787403>> loc(#loc58)
    %59 = "tpu.Add"(%48, %58) {do_relu = false, multipliers = [123, 123], relu_limit = -1.000000e+00 : f64, rshifts = [7]} : (tensor<1x64x28x40x!quant.uniform<i8:f32, 0.054269591338582682>>, tensor<1x64x28x40x!quant.uniform<i8:f32, 0.054567293700787403>>) -> tensor<1x64x28x40x!quant.uniform<i8:f32, 0.05634539527559055>> loc(#loc59)
    %60 = "tpu.Concat"(%47, %48, %59) {axis = 1 : si32, do_relu = false, multipliers = [126, 126, 65], only_merge = false, relu_limit = -1.000000e+00 : f64, rshifts = [7, 7, 6]} : (tensor<1x64x28x40x!quant.uniform<i8:f32, 0.054269591338582682>>, tensor<1x64x28x40x!quant.uniform<i8:f32, 0.054269591338582682>>, tensor<1x64x28x40x!quant.uniform<i8:f32, 0.05634539527559055>>) -> tensor<1x192x28x40x!quant.uniform<i8:f32, 0.055055193700787403>> loc(#loc60)
    %61 = "top.Weight"() : () -> tensor<256x192x1x1xsi8> loc(#loc61)
    %62 = "top.Weight"() : () -> tensor<1x256x1x1xi32> loc(#loc62)
    %63 = "tpu.Conv2D"(%60, %61, %62) {coeff_merged = false, dilations = [1, 1], do_relu = false, do_winograd = false, dynweight_reorderd = false, group = 1 : i64, kernel_shape = [1, 1], kernel_zp = 0 : i64, multiplier = [1932439168, 1128316032, 1426090752, 2027846016, 1279503360, 1365406208, 1113694720, 1129714432, 2136019200, 1596846848, 2143155584, 1758311936, 1651212672, 1960658048, 1378979840, 1197300736, 1922106496, 1333494144, 1267160960, 2023443584, 1170096640, 1673606528, 1403669760, 1759123072, 1322084096, 1802969344, 1662623232, 1270499200, 1680560000, 2136214144, 1556049792, 1172323072, 1715306880, 1104264448, 2082560640, 1245937920, 1568255360, 2107139712, 1741921408, 1759245696, 1965261824, 1221494400, 1251886720, 1500539392, 1610719360, 1734781056, 2090513024, 1247342336, 1282953600, 1275620352, 1469153536, 1492107008, 1546589184, 1098934912, 1086549632, 1861096192, 1140892032, 1181075584, 1377107968, 1142036352, 1212454528, 1174091776, 1349564032, 1322921472, 1813991424, 1431131904, 1489290752, 2085541504, 1262102656, 1403485568, 1242717824, 1282346880, 1516855168, 1177394432, 2108459904, 1204271616, 1326624128, 1960759680, 1120880000, 1408257152, 1180497408, 1445799424, 1710889472, 1139697536, 1221667072, 1675424896, 1295112960, 1198282368, 1680733952, 1995308672, 1399241600, 1777288960, 1642305792, 1702882432, 2123595008, 1384028032, 2142338048, 1986190848, 1454136576, 1140509696, 1489208832, 1311516544, 1355313152, 1094708352, 1944536704, 2034624128, 1298244096, 1091519232, 2020535552, 1254291712, 1338817280, 1146904704, 1214658688, 1972550016, 1550654592, 1256564224, 1836534656, 1677653760, 1950531456, 1110526336, 1305187328, 1870727168, 1175176704, 1148533760, 1357748480, 1260638848, 1110074496, 1262043136, 1597258240, 1977701888, 1138508032, 1114424832, 2043144576, 1867931392, 2056995200, 1593205760, 1277222912, 1714927744, 1994847232, 1964354048, 2022754944, 1994942336, 1245714688, 1981435136, 1734439680, 2048341248, 1202624896, 1671228416, 1472182144, 1360281856, 1630028160, 1548494848, 1883753984, 1249020672, 1161792768, 1320731904, 1454686976, 1722679552, 1143038464, 1183839744, 1536603136, 1506312704, 1949943680, 1383762816, 1202478592, 1479509376, 1075516032, 2051719296, 1655534080, 2098895872, 2131163392, 1158985344, 1947766784, 2049737856, 1470932096, 1904699904, 1175427712, 1744611456, 2083818496, 1713272960, 1437663360, 2072539008, 1360982656, 1378772480, 2115661696, 1449991552, 1094637056, 2016172672, 1123121920, 1930137216, 1347260288, 1910243968, 1184981120, 1597783424, 1866222208, 1940453632, 1144508544, 1474397184, 1256647296, 1648085632, 1171466112, 2075905792, 1842305536, 1509003520, 1684732672, 2097910912, 1866520576, 1651717120, 1358067328, 1909966208, 1279626624, 1560188416, 1272237056, 1481072384, 1148708480, 1499842304, 1139716608, 1856072448, 1216831360, 1367148288, 1108127488, 1092525696, 1164373888, 2034034176, 1198149248, 1162053504, 1224793472, 1384073728, 1701440640, 1285117952, 1319947776, 1795200512, 1514277632, 1762091264, 1840259840, 1783863168, 1314530560, 1788878720, 2037452544, 1420850304, 1516725376, 1647888640, 1447859584, 1251500288, 1293816320, 1269061888, 1177782272, 1493026688, 1451388544, 2025554944, 1869994496, 2145464960, 1713025152, 1903293056, 1563940736, 1416244608], pads = [0, 0, 0, 0], quant_mode = #tpu<rq_mode QDM>, relu_limit = -1.000000e+00 : f64, round_mode = #tpu<round_mode HalfUp>, rshift = [9, 8, 8, 9, 8, 8, 8, 8, 9, 9, 9, 9, 8, 9, 9, 8, 9, 9, 8, 9, 8, 9, 7, 9, 8, 9, 8, 8, 9, 9, 9, 8, 9, 8, 9, 8, 8, 9, 8, 8, 9, 8, 8, 8, 9, 9, 9, 8, 8, 8, 9, 8, 9, 8, 8, 9, 8, 8, 8, 8, 8, 8, 8, 8, 8, 8, 8, 9, 8, 8, 8, 8, 8, 8, 9, 8, 8, 9, 9, 8, 8, 8, 9, 8, 8, 9, 8, 8, 10, 8, 8, 8, 8, 9, 10, 9, 9, 9, 8, 7, 9, 8, 8, 8, 9, 9, 8, 8, 9, 8, 9, 8, 8, 9, 8, 8, 9, 8, 8, 8, 8, 8, 8, 8, 8, 9, 8, 8, 9, 8, 8, 7, 9, 8, 9, 8, 8, 8, 9, 9, 9, 8, 8, 9, 9, 9, 8, 9, 9, 8, 9, 8, 10, 8, 8, 8, 8, 9, 8, 7, 9, 8, 9, 8, 8, 9, 8, 8, 9, 9, 9, 7, 9, 9, 8, 9, 8, 8, 9, 9, 9, 9, 8, 9, 9, 9, 8, 9, 8, 8, 8, 8, 8, 8, 8, 8, 8, 9, 9, 9, 8, 9, 8, 8, 9, 9, 9, 9, 8, 9, 8, 9, 8, 8, 8, 8, 8, 9, 8, 9, 8, 8, 9, 9, 8, 8, 8, 8, 8, 8, 8, 9, 8, 8, 9, 9, 8, 9, 9, 8, 9, 9, 8, 7, 9, 8, 8, 8, 8, 8, 8, 9, 8, 9, 9, 9], strides = [1, 1], support_compress = true, use_3ic_optimize = 0 : i64, weight_is_coeff = 1 : i64, with_bias = true} : (tensor<1x192x28x40x!quant.uniform<i8:f32, 0.055055193700787403>>, tensor<256x192x1x1xsi8>, tensor<1x256x1x1xi32>) -> tensor<1x256x28x40x!quant.uniform<i8:f32, 0.066453821259842533>> loc(#loc63)
    %64 = "top.Weight"() : () -> tensor<1x1x1x256xsi8> loc(#loc64)
    %65 = "tpu.Lut"(%63, %64) : (tensor<1x256x28x40x!quant.uniform<i8:f32, 0.066453821259842533>>, tensor<1x1x1x256xsi8>) -> tensor<1x256x28x40x!quant.uniform<i8:f32, 0.045217366141732281>> loc(#loc65)
    %66 = "top.Weight"() : () -> tensor<256x256x3x3xsi8> loc(#loc66)
    %67 = "top.Weight"() : () -> tensor<1x256x1x1xi32> loc(#loc67)
    %68 = "tpu.Conv2D"(%65, %66, %67) {coeff_merged = false, dilations = [1, 1], do_relu = false, do_winograd = false, dynweight_reorderd = false, group = 1 : i64, kernel_shape = [3, 3], kernel_zp = 0 : i64, multiplier = [1406677888, 1277662592, 1395353984, 1906658048, 2006265856, 1547020160, 2063915392, 1988626688, 2071100416, 1886939136, 1705194112, 1585921152, 2061133568, 1347740288, 1829864192, 1679056896, 1219393024, 1892352640, 1389865088, 1814630144, 1157346048, 1073899008, 1224961280, 1573779328, 1783426816, 1425079552, 1147414272, 1301219456, 2103092352, 1284439680, 1393189632, 1273472384, 1633222016, 1696339712, 1260520320, 1760278912, 1179120256, 1109496448, 1402250112, 1501642368, 1636113280, 1481252992, 1296528256, 1784206208, 1294925568, 1262483328, 1902089600, 1125464192, 1577636992, 1322269056, 2143831552, 1391995392, 2092341120, 1105929856, 1413419520, 2102340992, 1197385600, 2095366272, 1746514304, 1875887488, 1686941184, 1171585536, 1251463936, 1634681600, 1598158592, 2011692288, 2067789952, 2125718656, 1580502656, 1123813120, 1271608960, 1778199936, 1535035520, 1980711936, 1457546368, 1971458048, 1690012032, 1149026176, 1981363456, 1098209024, 1477264384, 1214590336, 1743621888, 1334564224, 1664314624, 1486680320, 1989605376, 1624096384, 1373953536, 1953214848, 1900065024, 1211480960, 1413258624, 1267724032, 1530255616, 1441789312, 2054219392, 1732765696, 1926786688, 2085831808, 1152243712, 1849825664, 1658443776, 1440836992, 1165188992, 1768805888, 1728273024, 1338685184, 1509249920, 1409993984, 1304646400, 1105990016, 1920173824, 1994147456, 1075714432, 1919290880, 1183228032, 1770155648, 1162584448, 1220597504, 1459959680, 1894097280, 2080535296, 1953334144, 1448376064, 2020617472, 1333470208, 2012587648, 1996669824, 1212706048, 1268196480, 1911059456, 1445308416, 1406014592, 1542516096, 1162368640, 1336407168, 1666467456, 1576551424, 1745601152, 1984724864, 1950320640, 1633787520, 2105147776, 1133421568, 1086588032, 1703495936, 1660800640, 1350462464, 2076286592, 1454687872, 1368785920, 1649652096, 2034866560, 1984150272, 1132950400, 2053823616, 1274009600, 1615122944, 1267653632, 1509885824, 1896375040, 1519831296, 1711122176, 1523096064, 1129042176, 1698532480, 1152241152, 1548893312, 1470829952, 1379292160, 1492638848, 1189586560, 1768192000, 1876007808, 1185590272, 1316706560, 1196574080, 1458993664, 1810262912, 1468795264, 1803536768, 1250332800, 1130462976, 1860332544, 1633042048, 1786128384, 1752804224, 1771027584, 1179693056, 1390145920, 1595396736, 1134006912, 1623854976, 1251040640, 1448357376, 1485623680, 2018653824, 1120734976, 1093116800, 1224060544, 1990046464, 1537602048, 1348450176, 1080727296, 1451883776, 1853013376, 1857325696, 1773116416, 1335330816, 1628019328, 1804617856, 1179548928, 1352032896, 1901217536, 1148677120, 1828850688, 1781596416, 1213956480, 1198127872, 1881573376, 1512797696, 1975638272, 1416009344, 1928757120, 1810145792, 1253687936, 1403873792, 1929250432, 1399414784, 1170368256, 1830256384, 2097244672, 1846223616, 1831536384, 1337354112, 2065543552, 1111070336, 1205872512, 1317894528, 1465297152, 1317202560, 1969442816, 1186305280, 1093413248, 1911291392, 1277105152, 1667396352, 1185056384, 1517839488, 1258876672, 1227808896, 1958422400, 1151266432, 1347856512, 1510351232], pads = [1, 1, 1, 1], quant_mode = #tpu<rq_mode QDM>, relu_limit = -1.000000e+00 : f64, round_mode = #tpu<round_mode HalfUp>, rshift = [10, 11, 11, 12, 11, 10, 11, 11, 11, 11, 11, 11, 11, 10, 11, 11, 10, 10, 10, 10, 10, 10, 10, 11, 11, 10, 10, 10, 11, 10, 10, 10, 11, 11, 10, 11, 10, 10, 10, 11, 11, 11, 10, 10, 10, 10, 11, 10, 10, 11, 11, 10, 11, 10, 11, 11, 9, 11, 11, 11, 10, 11, 10, 11, 11, 11, 10, 10, 11, 9, 10, 11, 10, 11, 10, 11, 9, 10, 11, 10, 10, 10, 10, 10, 11, 10, 11, 10, 10, 11, 11, 10, 10, 10, 11, 10, 10, 11, 11, 11, 10, 12, 11, 10, 10, 11, 10, 11, 11, 11, 10, 10, 10, 12, 10, 11, 10, 11, 10, 10, 10, 11, 11, 11, 10, 11, 10, 12, 11, 10, 10, 11, 10, 10, 10, 10, 10, 11, 11, 10, 11, 11, 11, 10, 10, 9, 10, 10, 11, 11, 10, 11, 11, 11, 11, 10, 11, 10, 11, 10, 11, 12, 11, 10, 10, 10, 11, 10, 11, 10, 11, 11, 10, 11, 10, 10, 10, 10, 10, 11, 11, 11, 10, 10, 11, 10, 11, 11, 11, 10, 11, 11, 10, 11, 11, 10, 10, 11, 10, 10, 10, 11, 10, 10, 10, 10, 11, 11, 11, 10, 10, 11, 9, 10, 11, 9, 10, 11, 10, 11, 11, 10, 11, 10, 11, 11, 9, 10, 11, 11, 9, 11, 11, 10, 11, 11, 11, 10, 10, 11, 10, 10, 10, 10, 9, 11, 10, 11, 10, 11, 10, 9, 10, 10, 10, 10], strides = [2, 2], support_compress = true, use_3ic_optimize = 0 : i64, weight_is_coeff = 1 : i64, with_bias = true} : (tensor<1x256x28x40x!quant.uniform<i8:f32, 0.045217366141732281>>, tensor<256x256x3x3xsi8>, tensor<1x256x1x1xi32>) -> tensor<1x256x14x20x!quant.uniform<i8:f32, 0.08080925511811024>> loc(#loc68)
    %69 = "top.Weight"() : () -> tensor<1x1x1x256xsi8> loc(#loc69)
    %70 = "tpu.Lut"(%68, %69) : (tensor<1x256x14x20x!quant.uniform<i8:f32, 0.08080925511811024>>, tensor<1x1x1x256xsi8>) -> tensor<1x256x14x20x!quant.uniform<i8:f32, 0.054117548818897639>> loc(#loc70)
    %71 = "top.Weight"() : () -> tensor<256x256x1x1xsi8> loc(#loc71)
    %72 = "top.Weight"() : () -> tensor<1x256x1x1xi32> loc(#loc72)
    %73 = "tpu.Conv2D"(%70, %71, %72) {coeff_merged = false, dilations = [1, 1], do_relu = false, do_winograd = false, dynweight_reorderd = false, group = 1 : i64, kernel_shape = [1, 1], kernel_zp = 0 : i64, multiplier = [1465491072, 1130114560, 1135192320, 1911944064, 1994834304, 1564880000, 1921245184, 1977483136, 2129441280, 1323834624, 1788467072, 1074653568, 1219472128, 1457138560, 2135435392, 1509450624, 2049149184, 1732811904, 1727157504, 1692746624, 1858968320, 1783705344, 1759512704, 1408007680, 1272918144, 1545982976, 1994396928, 1173322752, 1459740288, 1091794688, 1584215808, 1693593728, 1621852160, 1894890624, 1839558144, 1327756288, 1655955328, 1460614144, 1301499008, 2035288320, 1414823552, 1456622080, 1098062336, 2010062720, 1684521984, 1968888704, 1385872896, 1446436992, 1580882176, 2053678336, 2022670848, 1731610624, 1998263808, 1194840064, 1379100800, 1422927360, 1080076416, 1326806016, 1269275008, 1903034240, 1878882176, 1738580224, 1544008704, 1497571840, 1298468096, 1935810560, 1375966208, 1674951680, 1326448000, 1086197760, 2036619008, 1692208000, 2013003904, 1497905920, 1138193536, 1256809088, 1466675968, 1100598272, 1413305216, 1883104384, 1095560448, 1134582656, 2107271552, 1611790592, 1368838912, 1090347136, 1736266880, 1508961280, 1580845312, 1341804288, 1901266816, 1169457536, 1967867648, 1221633280, 1737214336, 2046590080, 1486400640, 1257689728, 2103212288, 2122045824, 1931180288, 1610867328, 1424073856, 1362467584, 1333569408, 1535864832, 1106993024, 1400229888, 1102813440, 1440091520, 1486692224, 2090306816, 1250867968, 1860248320, 1768530688, 1878675328, 1090234880, 1100840960, 1429949952, 1182101120, 1884863744, 1286737152, 1762649344, 1391436032, 1843300864, 1757860480, 1371247232, 1397042560, 1170635904, 1582700544, 1571820288, 1184161792, 1512840192, 2127229056, 1124933632, 1305343232, 1114682752, 1379316992, 1278595456, 1258454016, 1288943104, 1623838464, 1460251648, 1589154432, 1391952384, 1324350336, 1140243712, 1613038208, 1778023168, 1106940288, 1164558848, 1153497984, 1669428096, 1083358848, 1744716032, 1590056192, 2092927616, 2040337792, 1523031424, 1447349888, 1668638848, 1580021888, 2140724736, 1695173632, 1957939968, 1814562432, 1213806976, 1104428800, 1333245056, 1987529088, 1916931968, 1957280640, 1542160768, 1449319424, 1123723136, 1211826048, 2048265856, 1348683520, 1648459136, 1860840576, 1256593408, 1363996160, 1858690688, 1479057664, 1415456256, 1086131840, 1761647488, 2135694080, 1457808384, 1388708224, 1358663936, 2061971968, 1230531072, 1860448896, 2045531776, 1125279744, 1823073024, 1123335936, 1451174656, 1280969344, 1333704320, 1290635264, 1456371200, 1655114368, 1519959168, 1920426624, 1180309376, 1498988800, 1708972032, 1189277312, 1781042304, 1224115328, 1161079552, 1356825088, 1419304576, 1244645504, 1498915584, 1377097344, 1278025472, 2117832448, 1119917696, 1377296512, 1279214976, 2119256576, 1916931584, 1661963264, 1139316608, 1968152832, 2036532864, 1474690944, 1863115648, 2038884608, 1588095616, 1618950912, 1178031232, 2002818944, 1485164544, 1189642880, 2042309120, 1936651392, 1724296320, 1450815872, 1089681024, 1100799744, 1113863808, 1411520384, 1303646720, 1119488768, 1128735232, 1970038272, 1136927104, 1976956928, 1982911488, 1642360832, 2060712320, 1082013184], pads = [0, 0, 0, 0], quant_mode = #tpu<rq_mode QDM>, relu_limit = -1.000000e+00 : f64, round_mode = #tpu<round_mode HalfUp>, rshift = [8, 8, 8, 9, 9, 9, 9, 9, 9, 8, 9, 8, 8, 9, 9, 9, 9, 9, 9, 9, 9, 9, 8, 8, 8, 8, 8, 9, 8, 8, 9, 9, 9, 9, 9, 9, 9, 9, 8, 9, 9, 8, 8, 9, 9, 9, 8, 8, 8, 9, 9, 9, 9, 8, 8, 9, 8, 7, 8, 9, 9, 9, 7, 9, 9, 9, 8, 9, 8, 9, 9, 9, 9, 8, 8, 8, 7, 8, 8, 9, 8, 9, 9, 9, 8, 8, 9, 9, 9, 9, 9, 8, 9, 8, 9, 9, 9, 8, 9, 9, 9, 9, 9, 8, 8, 9, 8, 9, 8, 8, 8, 9, 8, 9, 8, 9, 8, 8, 8, 8, 9, 9, 8, 8, 9, 9, 9, 9, 8, 8, 9, 8, 9, 9, 8, 8, 8, 9, 9, 9, 9, 9, 9, 9, 9, 9, 8, 9, 9, 8, 8, 8, 9, 8, 8, 9, 9, 8, 9, 8, 9, 9, 9, 9, 9, 9, 9, 8, 9, 9, 9, 8, 8, 8, 9, 8, 9, 8, 9, 9, 9, 9, 9, 8, 8, 8, 9, 9, 9, 9, 8, 9, 8, 9, 9, 8, 9, 8, 9, 9, 9, 9, 9, 9, 9, 10, 8, 9, 9, 9, 9, 8, 9, 9, 8, 8, 9, 9, 9, 10, 8, 9, 9, 10, 9, 9, 9, 9, 9, 9, 9, 9, 9, 8, 9, 9, 9, 7, 9, 9, 9, 9, 8, 8, 9, 8, 8, 8, 8, 9, 6, 8, 9, 9, 9, 8], strides = [1, 1], support_compress = true, use_3ic_optimize = 0 : i64, weight_is_coeff = 1 : i64, with_bias = true} : (tensor<1x256x14x20x!quant.uniform<i8:f32, 0.054117548818897639>>, tensor<256x256x1x1xsi8>, tensor<1x256x1x1xi32>) -> tensor<1x256x14x20x!quant.uniform<i8:f32, 0.093799103149606308>> loc(#loc73)
    %74 = "top.Weight"() : () -> tensor<1x1x1x256xsi8> loc(#loc74)
    %75 = "tpu.Lut"(%73, %74) : (tensor<1x256x14x20x!quant.uniform<i8:f32, 0.093799103149606308>>, tensor<1x1x1x256xsi8>) -> tensor<1x256x14x20x!quant.uniform<i8:f32, 0.088632026771653549>> loc(#loc75)
    %76 = "tpu.Slice"(%75, %0, %0, %0, %0) {axes = [], ends = [9223372036854775807, 128, 9223372036854775807, 9223372036854775807], hasparamConvert_axes = [1], offset = [0, 0, 0, 0], steps = [1, 1, 1, 1]} : (tensor<1x256x14x20x!quant.uniform<i8:f32, 0.088632026771653549>>, none, none, none, none) -> tensor<1x128x14x20x!quant.uniform<i8:f32, 0.088632026771653549>> loc(#loc76)
    %77 = "tpu.Slice"(%75, %0, %0, %0, %0) {axes = [], ends = [9223372036854775807, 256, 9223372036854775807, 9223372036854775807], hasparamConvert_axes = [1], offset = [0, 128, 0, 0], steps = [1, 1, 1, 1]} : (tensor<1x256x14x20x!quant.uniform<i8:f32, 0.088632026771653549>>, none, none, none, none) -> tensor<1x128x14x20x!quant.uniform<i8:f32, 0.088632026771653549>> loc(#loc77)
    %78 = "top.Weight"() : () -> tensor<64x128x1x1xsi8> loc(#loc78)
    %79 = "top.Weight"() : () -> tensor<1x64x1x1xi32> loc(#loc79)
    %80 = "tpu.Conv2D"(%77, %78, %79) {coeff_merged = false, dilations = [1, 1], do_relu = false, do_winograd = false, dynweight_reorderd = false, group = 1 : i64, kernel_shape = [1, 1], kernel_zp = 0 : i64, multiplier = [1459434112, 1807101696, 1596255104, 1289938432, 1298320384, 1137325696, 1219592448, 1598117760, 1431058176, 1320755456, 1376271872, 1820793472, 1301995520, 1252686080, 1864412288, 1204702848, 1759977088, 1640333184, 1649598208, 2098362112, 1321053696, 1533270400, 1238816128, 1102366592, 1828148352, 1142329856, 1955828480, 1875145856, 1350071680, 1612291584, 1369232512, 1254002944, 1564789760, 1884302208, 1321088384, 1268191744, 2131074176, 1883107840, 1458278528, 1698615552, 1227660928, 1732262016, 2020079488, 1468762624, 1347581952, 1862125952, 1983969280, 1815177472, 1931091840, 2119576832, 1972579968, 2047746432, 1665085440, 2043080704, 1298258048, 2128374400, 1521037568, 2010465792, 1358556032, 1578576384, 1104449408, 1412335104, 1431582592, 1994429824], pads = [0, 0, 0, 0], quant_mode = #tpu<rq_mode QDM>, relu_limit = -1.000000e+00 : f64, round_mode = #tpu<round_mode HalfUp>, rshift = [8, 8, 8, 8, 8, 8, 7, 8, 7, 8, 8, 8, 8, 8, 8, 7, 8, 9, 9, 8, 8, 8, 8, 6, 8, 7, 8, 8, 6, 8, 8, 7, 8, 8, 8, 8, 8, 8, 8, 8, 8, 8, 8, 8, 7, 8, 9, 8, 8, 8, 8, 8, 8, 8, 8, 9, 8, 8, 8, 8, 7, 8, 8, 9], strides = [1, 1], support_compress = true, use_3ic_optimize = 0 : i64, weight_is_coeff = 1 : i64, with_bias = true} : (tensor<1x128x14x20x!quant.uniform<i8:f32, 0.088632026771653549>>, tensor<64x128x1x1xsi8>, tensor<1x64x1x1xi32>) -> tensor<1x64x14x20x!quant.uniform<i8:f32, 0.054024407086614171>> loc(#loc80)
    %81 = "top.Weight"() : () -> tensor<64x128x1x1xsi8> loc(#loc81)
    %82 = "top.Weight"() : () -> tensor<1x64x1x1xi32> loc(#loc82)
    %83 = "tpu.Conv2D"(%77, %81, %82) {coeff_merged = false, dilations = [1, 1], do_relu = false, do_winograd = false, dynweight_reorderd = false, group = 1 : i64, kernel_shape = [1, 1], kernel_zp = 0 : i64, multiplier = [1772140416, 2094690432, 1725369984, 1193811456, 1333629056, 1458611712, 1092708608, 1257541120, 1716910208, 1932891136, 1356369920, 1932993152, 1193694080, 1248738816, 1161729536, 1243357952, 1924008960, 1164760192, 1983827712, 1885557504, 1330209024, 1446149632, 1954010624, 2121230848, 1233119360, 1488796544, 1103245824, 1077813376, 1372251136, 1620424192, 1956444800, 1871623296, 1195806720, 2012204544, 1635399168, 2024737792, 1332088704, 1551083392, 2099473280, 1484230400, 1267510912, 1270174464, 1340936576, 1278129024, 1449179520, 1479647872, 1186307712, 1356727936, 1669850240, 1836047616, 1675723008, 1449883008, 1826196608, 1611811456, 1193887616, 1107629568, 1261782656, 1644310912, 1565086336, 2115503232, 1754434432, 1103025280, 1949476224, 1233878144], pads = [0, 0, 0, 0], quant_mode = #tpu<rq_mode QDM>, relu_limit = -1.000000e+00 : f64, round_mode = #tpu<round_mode HalfUp>, rshift = [8, 8, 8, 8, 7, 8, 8, 8, 8, 8, 8, 9, 8, 8, 8, 8, 8, 8, 8, 8, 8, 8, 8, 9, 8, 8, 8, 7, 8, 8, 8, 8, 8, 8, 8, 8, 8, 8, 9, 8, 8, 8, 8, 8, 8, 8, 8, 8, 8, 8, 8, 8, 9, 8, 8, 7, 8, 8, 8, 8, 8, 7, 8, 8], strides = [1, 1], support_compress = true, use_3ic_optimize = 0 : i64, weight_is_coeff = 1 : i64, with_bias = true} : (tensor<1x128x14x20x!quant.uniform<i8:f32, 0.088632026771653549>>, tensor<64x128x1x1xsi8>, tensor<1x64x1x1xi32>) -> tensor<1x64x14x20x!quant.uniform<i8:f32, 0.11307370157480315>> loc(#loc83)
    %84 = "top.Weight"() : () -> tensor<1x1x1x256xsi8> loc(#loc84)
    %85 = "tpu.Lut"(%80, %84) : (tensor<1x64x14x20x!quant.uniform<i8:f32, 0.054024407086614171>>, tensor<1x1x1x256xsi8>) -> tensor<1x64x14x20x!quant.uniform<i8:f32, 0.045667181102362203>> loc(#loc85)
    %86 = "top.Weight"() : () -> tensor<1x1x1x256xsi8> loc(#loc86)
    %87 = "tpu.Lut"(%83, %86) : (tensor<1x64x14x20x!quant.uniform<i8:f32, 0.11307370157480315>>, tensor<1x1x1x256xsi8>) -> tensor<1x64x14x20x!quant.uniform<i8:f32, 0.10927710787401575>> loc(#loc87)
    %88 = "top.Weight"() : () -> tensor<64x64x3x3xsi8> loc(#loc88)
    %89 = "top.Weight"() : () -> tensor<1x64x1x1xi32> loc(#loc89)
    %90 = "tpu.Conv2D"(%85, %88, %89) {coeff_merged = false, dilations = [1, 1], do_relu = false, do_winograd = false, dynweight_reorderd = false, group = 1 : i64, kernel_shape = [3, 3], kernel_zp = 0 : i64, multiplier = [1744264448, 1270278144, 1257335680, 1461555200, 1247452672, 1169419136, 1126859264, 1785146368, 1124736512, 1204158848, 1112266496, 1818732288, 1391009536, 1716280960, 1503759616, 1638732160, 1480832384, 1740206464, 1085039104, 1131355136, 1810332416, 1095633280, 1107626240, 1396319488, 1577520640, 1520354816, 1487502720, 1956408576, 1894234112, 1111595520, 1404531968, 1492254592, 1170329856, 2113982592, 1755108608, 1462328064, 1410561152, 1294800256, 1133750144, 2093404032, 1666183424, 1184771712, 1335330944, 1710361600, 1186339840, 1167145728, 2032035584, 1714179712, 1973241472, 1363435520, 1114859136, 1110624896, 1511358464, 1358899968, 2062050304, 1674358784, 1336242944, 1114908160, 1553479808, 1185696000, 1306018432, 1423205632, 1419102080, 1649687552], pads = [1, 1, 1, 1], quant_mode = #tpu<rq_mode QDM>, relu_limit = -1.000000e+00 : f64, round_mode = #tpu<round_mode HalfUp>, rshift = [10, 9, 9, 10, 10, 9, 9, 10, 9, 10, 10, 10, 10, 10, 10, 10, 9, 9, 9, 9, 10, 9, 9, 11, 10, 10, 9, 10, 10, 9, 10, 9, 9, 11, 10, 9, 9, 10, 10, 11, 10, 9, 10, 10, 9, 9, 10, 9, 10, 9, 9, 9, 9, 9, 10, 9, 10, 8, 9, 10, 9, 9, 9, 10], strides = [1, 1], support_compress = true, use_3ic_optimize = 0 : i64, weight_is_coeff = 1 : i64, with_bias = true} : (tensor<1x64x14x20x!quant.uniform<i8:f32, 0.045667181102362203>>, tensor<64x64x3x3xsi8>, tensor<1x64x1x1xi32>) -> tensor<1x64x14x20x!quant.uniform<i8:f32, 0.087325163779527551>> loc(#loc90)
    %91 = "top.Weight"() : () -> tensor<1x1x1x256xsi8> loc(#loc91)
    %92 = "tpu.Lut"(%90, %91) : (tensor<1x64x14x20x!quant.uniform<i8:f32, 0.087325163779527551>>, tensor<1x1x1x256xsi8>) -> tensor<1x64x14x20x!quant.uniform<i8:f32, 0.053206806299212601>> loc(#loc92)
    %93 = "top.Weight"() : () -> tensor<64x64x3x3xsi8> loc(#loc93)
    %94 = "top.Weight"() : () -> tensor<1x64x1x1xi32> loc(#loc94)
    %95 = "tpu.Conv2D"(%92, %93, %94) {coeff_merged = false, dilations = [1, 1], do_relu = false, do_winograd = false, dynweight_reorderd = false, group = 1 : i64, kernel_shape = [3, 3], kernel_zp = 0 : i64, multiplier = [1785133568, 1949205248, 1946028800, 1743018752, 1856551168, 1588716672, 1735436800, 1587900032, 1625485440, 1465594240, 1686235008, 1809559680, 1384060416, 1947387776, 1562559360, 1246581504, 1510581248, 1307098368, 1306279680, 1595155072, 1090860672, 1476942080, 2107032320, 1631377152, 1686076160, 1878451200, 2090674688, 1731822336, 1103881216, 1219740928, 1414624256, 1235139456, 1673960704, 1227092096, 1252570624, 2089497344, 1971645696, 1299728128, 2001211264, 1362284928, 1744532096, 1365897856, 2050153216, 1107102592, 1131947264, 1697412736, 1266696704, 1432817536, 1975622912, 2031074432, 1102498944, 1260755840, 2137745664, 1970022400, 1335411840, 1446102784, 1975792768, 1090475648, 1665614848, 1266646144, 1346804608, 2014725504, 1257817856, 1873986688], pads = [1, 1, 1, 1], quant_mode = #tpu<rq_mode QDM>, relu_limit = -1.000000e+00 : f64, round_mode = #tpu<round_mode HalfUp>, rshift = [10, 10, 11, 10, 10, 10, 10, 9, 10, 10, 10, 10, 9, 10, 9, 9, 10, 10, 9, 9, 9, 9, 10, 10, 9, 10, 10, 10, 9, 9, 9, 9, 10, 9, 10, 10, 10, 9, 9, 9, 10, 9, 10, 9, 9, 9, 10, 10, 10, 9, 9, 9, 10, 10, 10, 9, 10, 9, 10, 9, 10, 10, 9, 10], strides = [1, 1], support_compress = true, use_3ic_optimize = 0 : i64, weight_is_coeff = 1 : i64, with_bias = true} : (tensor<1x64x14x20x!quant.uniform<i8:f32, 0.053206806299212601>>, tensor<64x64x3x3xsi8>, tensor<1x64x1x1xi32>) -> tensor<1x64x14x20x!quant.uniform<i8:f32, 0.079110603937007862>> loc(#loc95)
    %96 = "top.Weight"() : () -> tensor<1x1x1x256xsi8> loc(#loc96)
    %97 = "tpu.Lut"(%95, %96) : (tensor<1x64x14x20x!quant.uniform<i8:f32, 0.079110603937007862>>, tensor<1x1x1x256xsi8>) -> tensor<1x64x14x20x!quant.uniform<i8:f32, 0.054553804724409447>> loc(#loc97)
    %98 = "tpu.Add"(%85, %97) {do_relu = false, multipliers = [66, 79], relu_limit = -1.000000e+00 : f64, rshifts = [7]} : (tensor<1x64x14x20x!quant.uniform<i8:f32, 0.045667181102362203>>, tensor<1x64x14x20x!quant.uniform<i8:f32, 0.054553804724409447>>) -> tensor<1x64x14x20x!quant.uniform<i8:f32, 0.087464529921259845>> loc(#loc98)
    %99 = "top.Weight"() : () -> tensor<64x64x3x3xsi8> loc(#loc99)
    %100 = "top.Weight"() : () -> tensor<1x64x1x1xi32> loc(#loc100)
    %101 = "tpu.Conv2D"(%98, %99, %100) {coeff_merged = false, dilations = [1, 1], do_relu = false, do_winograd = false, dynweight_reorderd = false, group = 1 : i64, kernel_shape = [3, 3], kernel_zp = 0 : i64, multiplier = [1574617856, 1554347520, 1507513984, 1175500160, 1524404352, 1100893568, 1461339008, 1389782272, 1368956800, 1689979136, 1142044032, 1905835776, 2145449728, 1191288832, 1524648576, 1984585856, 1763302272, 1649469696, 1324744192, 1330098432, 2009556864, 1995543936, 1302235904, 1577988224, 1820747136, 1132502144, 1569703808, 2126558336, 1928645504, 2012232576, 1926065152, 1628486784, 1252829056, 1860862464, 1671555200, 1534565248, 1510001152, 1923879552, 1171898368, 1918907776, 1252113024, 1142704768, 1929948416, 1250547456, 1098758272, 1845951872, 1781562624, 1247208704, 1325757824, 1802059904, 1223678464, 1522638976, 2082187264, 1573782528, 1756143616, 1633585152, 1908705664, 1326052736, 1463763072, 1183096448, 1130609792, 1420532992, 1149812992, 1583648640], pads = [1, 1, 1, 1], quant_mode = #tpu<rq_mode QDM>, relu_limit = -1.000000e+00 : f64, round_mode = #tpu<round_mode HalfUp>, rshift = [9, 10, 9, 8, 9, 9, 8, 9, 9, 10, 10, 10, 10, 9, 9, 10, 10, 9, 10, 9, 11, 10, 9, 10, 9, 9, 9, 9, 9, 9, 10, 9, 9, 10, 9, 9, 9, 10, 9, 10, 9, 9, 10, 9, 9, 10, 9, 9, 9, 10, 8, 9, 10, 9, 10, 10, 9, 9, 9, 9, 9, 9, 9, 10], strides = [1, 1], support_compress = true, use_3ic_optimize = 0 : i64, weight_is_coeff = 1 : i64, with_bias = true} : (tensor<1x64x14x20x!quant.uniform<i8:f32, 0.087464529921259845>>, tensor<64x64x3x3xsi8>, tensor<1x64x1x1xi32>) -> tensor<1x64x14x20x!quant.uniform<i8:f32, 0.07786492440944881>> loc(#loc101)
    %102 = "top.Weight"() : () -> tensor<1x1x1x256xsi8> loc(#loc102)
    %103 = "tpu.Lut"(%101, %102) : (tensor<1x64x14x20x!quant.uniform<i8:f32, 0.07786492440944881>>, tensor<1x1x1x256xsi8>) -> tensor<1x64x14x20x!quant.uniform<i8:f32, 0.066325911811023625>> loc(#loc103)
    %104 = "top.Weight"() : () -> tensor<64x64x3x3xsi8> loc(#loc104)
    %105 = "top.Weight"() : () -> tensor<1x64x1x1xi32> loc(#loc105)
    %106 = "tpu.Conv2D"(%103, %104, %105) {coeff_merged = false, dilations = [1, 1], do_relu = false, do_winograd = false, dynweight_reorderd = false, group = 1 : i64, kernel_shape = [3, 3], kernel_zp = 0 : i64, multiplier = [1533233280, 1232414336, 1311621248, 1354016640, 1343328128, 1417166976, 1583461504, 1206580352, 1106654848, 1488855552, 1855666176, 1742073856, 1131730304, 1529561856, 1526314496, 1093154688, 1588574592, 1838692224, 1747812096, 1402739456, 1433853568, 1328817408, 1113076864, 1576883072, 1293558144, 1664125568, 2040549248, 1390735744, 1395948672, 1275216128, 1617931648, 1448865152, 1701881216, 1677285248, 1731722624, 1458710144, 1725218688, 1617402240, 1629164288, 1112116736, 1411555456, 1190768640, 1658137600, 1285964288, 1108708608, 1814842880, 1473139968, 1358853248, 2085644800, 2057633920, 1570429312, 1463604992, 2089238016, 1824559872, 1143302016, 1404339072, 1128843392, 1436042112, 1298857472, 1854259584, 1316906752, 2002351232, 1280494208, 1820654848], pads = [1, 1, 1, 1], quant_mode = #tpu<rq_mode QDM>, relu_limit = -1.000000e+00 : f64, round_mode = #tpu<round_mode HalfUp>, rshift = [9, 9, 9, 9, 9, 9, 9, 9, 9, 9, 9, 9, 8, 9, 9, 9, 9, 9, 9, 9, 9, 9, 9, 9, 9, 9, 9, 9, 8, 8, 9, 9, 10, 9, 9, 9, 9, 9, 9, 9, 9, 9, 9, 9, 8, 9, 9, 9, 10, 10, 9, 9, 10, 9, 8, 9, 9, 9, 9, 9, 9, 9, 9, 9], strides = [1, 1], support_compress = true, use_3ic_optimize = 0 : i64, weight_is_coeff = 1 : i64, with_bias = true} : (tensor<1x64x14x20x!quant.uniform<i8:f32, 0.066325911811023625>>, tensor<64x64x3x3xsi8>, tensor<1x64x1x1xi32>) -> tensor<1x64x14x20x!quant.uniform<i8:f32, 0.11823927480314961>> loc(#loc106)
    %107 = "top.Weight"() : () -> tensor<1x1x1x256xsi8> loc(#loc107)
    %108 = "tpu.Lut"(%106, %107) : (tensor<1x64x14x20x!quant.uniform<i8:f32, 0.11823927480314961>>, tensor<1x1x1x256xsi8>) -> tensor<1x64x14x20x!quant.uniform<i8:f32, 0.14313128582677165>> loc(#loc108)
    %109 = "tpu.Add"(%98, %108) {do_relu = false, multipliers = [51, 83], relu_limit = -1.000000e+00 : f64, rshifts = [6]} : (tensor<1x64x14x20x!quant.uniform<i8:f32, 0.087464529921259845>>, tensor<1x64x14x20x!quant.uniform<i8:f32, 0.14313128582677165>>) -> tensor<1x64x14x20x!quant.uniform<i8:f32, 0.10927710787401575>> loc(#loc109)
    %110 = "tpu.Concat"(%109, %87) {axis = 1 : si32, do_relu = false, multipliers = [1, 1], only_merge = true, relu_limit = -1.000000e+00 : f64, rshifts = [0, 0]} : (tensor<1x64x14x20x!quant.uniform<i8:f32, 0.10927710787401575>>, tensor<1x64x14x20x!quant.uniform<i8:f32, 0.10927710787401575>>) -> tensor<1x128x14x20x!quant.uniform<i8:f32, 0.10927710787401575>> loc(#loc110)
    %111 = "top.Weight"() : () -> tensor<128x128x1x1xsi8> loc(#loc111)
    %112 = "top.Weight"() : () -> tensor<1x128x1x1xi32> loc(#loc112)
    %113 = "tpu.Conv2D"(%110, %111, %112) {coeff_merged = false, dilations = [1, 1], do_relu = false, do_winograd = false, dynweight_reorderd = false, group = 1 : i64, kernel_shape = [1, 1], kernel_zp = 0 : i64, multiplier = [1178210688, 1093669248, 2135140608, 1099665152, 1203525888, 1157225600, 1436653824, 1379331072, 1276093056, 1446680192, 1703220992, 1620894848, 1873995648, 1363773696, 1106188160, 1619038080, 1859261952, 1360874880, 1264332288, 1427756160, 1904114944, 1551726464, 1526714496, 1878963712, 1894271232, 2052192256, 1370264064, 1119861248, 1404319488, 1278601600, 1332686848, 1955670656, 2081128832, 1132596992, 1094979712, 1872094080, 1988904448, 1104526464, 1783842688, 2030282496, 1978324992, 1583052544, 1762848000, 1108116224, 1465459712, 1705628800, 1150717056, 1105830400, 1267427328, 1075540864, 1576455552, 2130548992, 1392564224, 1995128960, 1608905728, 2083598464, 1397425152, 1818917632, 1993229696, 1579455488, 2110659456, 1726207872, 1126099328, 2061691392, 1874053760, 2003614976, 1098214400, 1432567808, 1329897472, 1961218560, 1227801344, 1462812800, 1770226560, 2017440000, 1430883456, 1282189184, 1538972416, 1611893760, 1985484160, 1982655616, 1403970688, 1315709952, 1984968320, 2147282560, 1330230272, 1271070080, 1212779392, 2043201024, 1906593280, 1706376192, 1100526720, 1516752000, 1391721728, 1140349184, 1977161728, 1318577664, 1139750912, 1656644736, 1400827776, 1410923136, 1123507072, 1277480064, 1724471424, 1849826176, 1719998208, 1243762432, 1513287552, 1221937920, 2026760960, 1128624640, 1703726720, 2024825728, 1720331008, 1082618880, 1630824960, 1444330880, 1706398720, 1316457216, 1724190336, 1187778688, 1292341760, 1569794176, 1768125056, 1172775936, 1191149440, 1489375360, 2082237312, 1126080896], pads = [0, 0, 0, 0], quant_mode = #tpu<rq_mode QDM>, relu_limit = -1.000000e+00 : f64, round_mode = #tpu<round_mode HalfUp>, rshift = [8, 8, 9, 9, 9, 8, 8, 8, 8, 9, 9, 9, 9, 8, 8, 9, 9, 9, 8, 9, 9, 8, 8, 9, 9, 9, 8, 8, 8, 8, 9, 9, 9, 8, 8, 9, 9, 8, 9, 9, 9, 9, 9, 8, 9, 9, 8, 8, 8, 8, 9, 9, 8, 9, 8, 9, 8, 9, 9, 8, 9, 9, 7, 9, 9, 9, 7, 8, 8, 9, 8, 8, 9, 9, 8, 8, 8, 8, 9, 9, 8, 8, 9, 9, 8, 8, 8, 9, 9, 9, 8, 8, 9, 8, 9, 8, 9, 9, 8, 9, 8, 8, 9, 9, 9, 8, 8, 9, 9, 8, 8, 9, 9, 8, 9, 9, 9, 9, 9, 9, 8, 8, 9, 8, 8, 9, 9, 8], strides = [1, 1], support_compress = true, use_3ic_optimize = 0 : i64, weight_is_coeff = 1 : i64, with_bias = true} : (tensor<1x128x14x20x!quant.uniform<i8:f32, 0.10927710787401575>>, tensor<128x128x1x1xsi8>, tensor<1x128x1x1xi32>) -> tensor<1x128x14x20x!quant.uniform<i8:f32, 0.11413456299212599>> loc(#loc113)
    %114 = "top.Weight"() : () -> tensor<1x1x1x256xsi8> loc(#loc114)
    %115 = "tpu.Lut"(%113, %114) : (tensor<1x128x14x20x!quant.uniform<i8:f32, 0.11413456299212599>>, tensor<1x1x1x256xsi8>) -> tensor<1x128x14x20x!quant.uniform<i8:f32, 0.069217777165354336>> loc(#loc115)
    %116 = "tpu.Concat"(%76, %77, %115) {axis = 1 : si32, do_relu = false, multipliers = [1, 1, 99], only_merge = false, relu_limit = -1.000000e+00 : f64, rshifts = [0, 0, 7]} : (tensor<1x128x14x20x!quant.uniform<i8:f32, 0.088632026771653549>>, tensor<1x128x14x20x!quant.uniform<i8:f32, 0.088632026771653549>>, tensor<1x128x14x20x!quant.uniform<i8:f32, 0.069217777165354336>>) -> tensor<1x384x14x20x!quant.uniform<i8:f32, 0.088632026771653549>> loc(#loc116)
    %117 = "top.Weight"() : () -> tensor<256x384x1x1xsi8> loc(#loc117)
    %118 = "top.Weight"() : () -> tensor<1x256x1x1xi32> loc(#loc118)
    %119 = "tpu.Conv2D"(%116, %117, %118) {coeff_merged = false, dilations = [1, 1], do_relu = false, do_winograd = false, dynweight_reorderd = false, group = 1 : i64, kernel_shape = [1, 1], kernel_zp = 0 : i64, multiplier = [1823441408, 2023205888, 1939531136, 2097956992, 1390744960, 1417973248, 1116795904, 1149747584, 1941195776, 1640084992, 1441503488, 1444822912, 1397789440, 1786723072, 1350159360, 1475970560, 1177841920, 1424737536, 1743341184, 1870752640, 1888242816, 1264644480, 1675292416, 1207654528, 1442454528, 1757270784, 1266837632, 1747339520, 2058753280, 1482120064, 1224260608, 2108823808, 1174861568, 1171850752, 1453373440, 1798258176, 1239679872, 1180272512, 1755347072, 1248140032, 1935830528, 1692421120, 1630481408, 1551293184, 1214917120, 1227915520, 1247529344, 1257454720, 1144963712, 1440604800, 1205300736, 1904771072, 1168157056, 1779017984, 2142251136, 1075391488, 1698657920, 1796301952, 1315624448, 1153074560, 1809209216, 1387428864, 1935759488, 1167992576, 1433940992, 1779145344, 1328686208, 2087476480, 1717896576, 1750291456, 1277918976, 1896680448, 1737880832, 1129848576, 1118118912, 1362069376, 1786839040, 1384166016, 1504005376, 1964587136, 1229847936, 1464892800, 1238880128, 1194645376, 1282039424, 1396249344, 1500791040, 1080620800, 1132211840, 1075996928, 1122616064, 1146944256, 1866052352, 1267188096, 1204199424, 1218390528, 1488317824, 1650124288, 1076361216, 1507577088, 1557011328, 1183539840, 1163762560, 1689412224, 1702430336, 1480063488, 1167181184, 1130524032, 1437088640, 1652491776, 1770346368, 1185549056, 1655874432, 1217169792, 2095473024, 1187207680, 1944944128, 1150852736, 1915824640, 1970500992, 1125076352, 1594445056, 1099037952, 1197393280, 1361950464, 1104797824, 1828716416, 1689946496, 1386807040, 1198305152, 1939088896, 1213826688, 1084076800, 1087278592, 2033603072, 1984817920, 1784805760, 1937220352, 1098248064, 1302915328, 1766566272, 1173523840, 1110504448, 1264022656, 1780171392, 1196488448, 1294824320, 1806459136, 1186084096, 1543437440, 1745585920, 2103490560, 1291220736, 1582981888, 1772941696, 1408751488, 1177262336, 1227849984, 1111413376, 1137966976, 1843407616, 1392294656, 1902873472, 1422851584, 1860363392, 1507411200, 1186704768, 1282610560, 1092733952, 1233746560, 1149582976, 1805379712, 1304940544, 1226791936, 1224261888, 1496450688, 1330239872, 1193427840, 1961119104, 2037502336, 1287567872, 1499339904, 1141041536, 1470746240, 1364058112, 1864518016, 1130728704, 1872636544, 1907305344, 1133620736, 1614544256, 1086070400, 1894542720, 1585670400, 1702480256, 1860472320, 1351858304, 1459293952, 2135851776, 1407442304, 1399804672, 2071752064, 1395877120, 2126333952, 1516981888, 1429839872, 1341641600, 1812823296, 1085280128, 1544795520, 1578378240, 1502387072, 2099428864, 1511563008, 1410245888, 1593428736, 1129655552, 1093636608, 1225124736, 1199437056, 1212614912, 1140001792, 1387592704, 1671733632, 1817308032, 1713683712, 2141868928, 1163165056, 1606836224, 1493087872, 1914395776, 1850703360, 1238337024, 1138057728, 1086378624, 1222449664, 1737637120, 1092974336, 1097129856, 1254092416, 1199947648, 1382235264, 1401725696, 1314334848, 1197452800, 1144270592, 1197901056, 2122544512, 1367864576, 1376977664, 1593812864, 1315678720, 1201520896, 1231022208, 1325388928, 1784758144], pads = [0, 0, 0, 0], quant_mode = #tpu<rq_mode QDM>, relu_limit = -1.000000e+00 : f64, round_mode = #tpu<round_mode HalfUp>, rshift = [9, 9, 9, 10, 9, 9, 8, 8, 9, 9, 9, 9, 9, 9, 8, 10, 9, 9, 9, 9, 8, 9, 9, 9, 9, 9, 9, 9, 9, 9, 9, 10, 8, 8, 10, 9, 9, 9, 9, 9, 9, 9, 9, 10, 9, 9, 9, 8, 9, 9, 9, 9, 8, 9, 9, 9, 9, 9, 9, 8, 9, 9, 9, 9, 9, 10, 9, 9, 9, 9, 9, 10, 9, 9, 9, 9, 8, 9, 9, 9, 9, 9, 8, 8, 9, 7, 8, 9, 9, 9, 9, 8, 9, 9, 9, 8, 9, 10, 9, 9, 9, 9, 9, 9, 9, 9, 9, 10, 9, 9, 9, 8, 9, 9, 9, 10, 9, 8, 10, 10, 9, 9, 9, 9, 9, 9, 9, 9, 9, 9, 9, 8, 9, 8, 9, 9, 9, 9, 9, 9, 9, 9, 9, 9, 9, 8, 9, 9, 9, 9, 10, 10, 9, 10, 10, 9, 9, 9, 8, 9, 9, 9, 10, 9, 9, 9, 9, 9, 8, 8, 9, 10, 9, 9, 8, 9, 9, 9, 10, 10, 9, 9, 7, 9, 9, 8, 8, 9, 9, 9, 9, 9, 9, 10, 9, 9, 9, 9, 10, 9, 9, 10, 9, 10, 9, 9, 9, 9, 8, 9, 9, 9, 10, 9, 9, 9, 9, 9, 9, 9, 8, 8, 9, 9, 9, 9, 10, 9, 9, 9, 9, 9, 10, 9, 9, 9, 9, 9, 9, 9, 9, 9, 9, 9, 9, 9, 9, 10, 9, 9, 9, 9, 8, 9, 9, 9], strides = [1, 1], support_compress = true, use_3ic_optimize = 0 : i64, weight_is_coeff = 1 : i64, with_bias = true} : (tensor<1x384x14x20x!quant.uniform<i8:f32, 0.088632026771653549>>, tensor<256x384x1x1xsi8>, tensor<1x256x1x1xi32>) -> tensor<1x256x14x20x!quant.uniform<i8:f32, 0.11384002047244095>> loc(#loc119)
    %120 = "top.Weight"() : () -> tensor<1x1x1x256xsi8> loc(#loc120)
    %121 = "tpu.Lut"(%119, %120) : (tensor<1x256x14x20x!quant.uniform<i8:f32, 0.11384002047244095>>, tensor<1x1x1x256xsi8>) -> tensor<1x256x14x20x!quant.uniform<i8:f32, 0.089566330708661421>> loc(#loc121)
    %122 = "top.Weight"() : () -> tensor<512x256x3x3xsi8> loc(#loc122)
    %123 = "top.Weight"() : () -> tensor<1x512x1x1xi32> loc(#loc123)
    %124 = "tpu.Conv2D"(%121, %122, %123) {coeff_merged = false, dilations = [1, 1], do_relu = false, do_winograd = false, dynweight_reorderd = false, group = 1 : i64, kernel_shape = [3, 3], kernel_zp = 0 : i64, multiplier = [1710980864, 1663827584, 1413166080, 1421048064, 1148429440, 1519080960, 1137021696, 1410375296, 1721887872, 2003066496, 1212003968, 1233236608, 1239518720, 1705357696, 1713721088, 1938658304, 1182071680, 1828032000, 1315281536, 1943221760, 1587947008, 1831886720, 2071723776, 1186049536, 1475062144, 1474166016, 1891884032, 1452047616, 1436701696, 1356891392, 1314933504, 1110315008, 2007714944, 2053696512, 1966303360, 1646565888, 1516209664, 1089660544, 1288164224, 2063801216, 1519075968, 1086415872, 1927760384, 2115398912, 1176269056, 1256724352, 1873563264, 1194680448, 1969983872, 1306542080, 1205008256, 2048627840, 1647687296, 1567795712, 2024055040, 1102216192, 1342981248, 1826288640, 1766241024, 1179447808, 1354010112, 1221949184, 2129361792, 1090026624, 1517082624, 1248771456, 1233937280, 2092589696, 1721292672, 1104416768, 1420408192, 1462218624, 1531871616, 1905128448, 1244846464, 1810820480, 1722076800, 1194782080, 1558329984, 2116520704, 1318318848, 2082326400, 1999131520, 2145058944, 1849320320, 2116365184, 1174974720, 1528214144, 1478757376, 1666162688, 1597358464, 1121131392, 1087463424, 1295101696, 1184639744, 1521050624, 2032401536, 1213342464, 1495373568, 1085027456, 2044351616, 1426512000, 2107511936, 1882251648, 2146011264, 1250456448, 1439617920, 1409498112, 1181165952, 1582261760, 2122948608, 2021998720, 1096348544, 2039335168, 1496360832, 1283247616, 1153971328, 1077489408, 1170052352, 1097686144, 1223508736, 1681628672, 2135977728, 1438230656, 2121046144, 1687510912, 2038245504, 1439642368, 1386168448, 1423633280, 1607917824, 1101585920, 1144350336, 1210679552, 1140345216, 2086089984, 2063844608, 1773135616, 1111581056, 1205119232, 1760531584, 1936968960, 1524201216, 1512059648, 1119856128, 1119899904, 1958480896, 1092572672, 1155761152, 1208398080, 1097491456, 1211114240, 1902236672, 1262566912, 1678199552, 1253316352, 1973806848, 2141607552, 1918850304, 1634016256, 1237956736, 1280738816, 1434317056, 1853975680, 1664548608, 1780073984, 1501771264, 1442330368, 1725441920, 1354776064, 1386623488, 1213849472, 2137428224, 1178707456, 1184559744, 1146904704, 1767435392, 1162233216, 1255845760, 1096581888, 1208556416, 1672077184, 1181909888, 1905221504, 1126633728, 2039696384, 1630662400, 1420520320, 1097804032, 2053443712, 1299476096, 1260358912, 1262907392, 1957424256, 2107962880, 1837745792, 1153005056, 1108685440, 1522664448, 1323920256, 1789881728, 1990116864, 1507227136, 1563430272, 1439087616, 1939031680, 1353171584, 1676610816, 1213027200, 1772588800, 1225194368, 1780542592, 2117367296, 1255813120, 1111601792, 1736378112, 2010512384, 1165324160, 1357586304, 1561207296, 1902902144, 1327900416, 1568732288, 1178393984, 1198806784, 1571802880, 1510084352, 1778086144, 1434244864, 1713975168, 1216788864, 1761918208, 1481817472, 1514630784, 1294537088, 1551861888, 1701887232, 1453877376, 1267964416, 2053783808, 1781772672, 1224731264, 1391000960, 1304692864, 1748248576, 2089270144, 1310691072, 1411596544, 1506116480, 1260182272, 1458810624, 1163459712, 1248863360, 2069683840, 1733557504, 1310564480, 2136251392, 2117133696, 2096892032, 1791446144, 1628012288, 1166799744, 1607008640, 1786724864, 1372358272, 1193979008, 1811975552, 1937994880, 1202731264, 1407152256, 1807021312, 1923504896, 1327270656, 1385229696, 1596669056, 1477552256, 1254504960, 1763313664, 1139212416, 2091089280, 1297966720, 1241190784, 1462892928, 1997269888, 1519543936, 1098740992, 1878568064, 1804738816, 1601686656, 1908994176, 1104295680, 1144641536, 1134699520, 1225115776, 1602846848, 1262470784, 1426283264, 1268678528, 1152215168, 1278244224, 1204065152, 1301752576, 2029865984, 1950793344, 1083132416, 1978035456, 1625039488, 1842699392, 1497706368, 1652519296, 1451156992, 1588668928, 1983593216, 1573768192, 1260046976, 1318165504, 1255577088, 1732782464, 1333382912, 1746307968, 1215377024, 1421617536, 1178990720, 1983752960, 1080376832, 2033839488, 1294284544, 1758631680, 1286771072, 1612238080, 1279232640, 1167797504, 2059159936, 1093159040, 1501615616, 2059120512, 1746679296, 1252849280, 1439298304, 1344954112, 1295870336, 1309181952, 1207483776, 1181797504, 1209581056, 1690310016, 2104724480, 1281736192, 1137761024, 1154395904, 1115107072, 1346860928, 1414162432, 1793428480, 1830684416, 1179001600, 1584035968, 1091657344, 1140808960, 1365784832, 1387869184, 1084650240, 1356806912, 1388164992, 1531389056, 1117251328, 1198604928, 1359150208, 1386184064, 1198479232, 1110699008, 1247369472, 1253783296, 1893513984, 1351417472, 1153827072, 1711873280, 1644077440, 1634740224, 1599476608, 1076740736, 1321750272, 1344347392, 1534426368, 1921691776, 1475081856, 1244494080, 1299421440, 1792719488, 1892856960, 1297841792, 1425179520, 1234130688, 1185556736, 1785819392, 1566318592, 1258644352, 1986801152, 1504202368, 1146178432, 2070037760, 1232572672, 1584750720, 1618445056, 1592221440, 2085280000, 1347812608, 1421474816, 1763875072, 2127318400, 1137681920, 1672115328, 1297066880, 2051509632, 1214436224, 1231669504, 1201831680, 1155847936, 1279865984, 1342520320, 1360428544, 1329680640, 1240726912, 2016635648, 1776745216, 1839796992, 1101030016, 1092531968, 1895843328, 2093154688, 1906227584, 1173948800, 1333939584, 1156609536, 1859258240, 1862349440, 1756577792, 1145323264, 1398121600, 1287223808, 1617400192, 1296996608, 1332463872, 1228409344, 1249188224, 1261045888, 1216209920, 2036887040, 1308382080, 1493524352, 1730918400, 1791178880, 1411920768, 1194566144, 1552681728, 1725005312, 1839395584, 1141831424, 1117385216, 2014419456, 1787865856, 2037505920, 1680743040, 1127635200, 2120619520, 1183036160, 1711341824, 2037895808, 2083600896, 1928185984, 1106386944, 1379418880, 1187435648, 1510553472, 1913905920, 1439971072, 2006789504, 1365308160, 1181649536, 1106957056, 1342050688, 1371705600, 1586771712, 1662848896, 1648641408, 1833291776, 1140986752, 1173632000, 1193207808, 1210663424, 1219257216, 1230806784, 1611050624, 1615779712, 1236324352, 1897044096, 1191244416, 1680358784, 1531867136, 1359732608, 1898486272, 1458210688, 1193287040, 2098470400, 1298023808, 1287268224, 1219383552, 1096519680, 1685953152, 1901063424, 1122554240, 1692729472], pads = [1, 1, 1, 1], quant_mode = #tpu<rq_mode QDM>, relu_limit = -1.000000e+00 : f64, round_mode = #tpu<round_mode HalfUp>, rshift = [11, 10, 10, 10, 10, 10, 10, 10, 10, 11, 10, 10, 10, 11, 10, 11, 10, 10, 10, 11, 10, 10, 11, 10, 10, 10, 10, 10, 10, 10, 9, 10, 11, 11, 11, 11, 10, 9, 10, 11, 10, 10, 11, 11, 10, 10, 10, 10, 11, 10, 10, 10, 10, 11, 10, 10, 10, 10, 10, 10, 10, 10, 11, 10, 10, 10, 10, 11, 10, 10, 10, 10, 10, 11, 9, 11, 11, 10, 10, 11, 10, 10, 11, 11, 10, 11, 9, 10, 10, 10, 10, 10, 10, 10, 10, 10, 11, 10, 10, 9, 11, 10, 11, 11, 11, 10, 11, 10, 10, 10, 11, 11, 10, 11, 10, 10, 10, 10, 10, 10, 10, 10, 11, 10, 11, 10, 11, 10, 10, 10, 10, 10, 10, 10, 10, 11, 11, 11, 10, 10, 11, 11, 10, 10, 9, 10, 11, 10, 10, 10, 10, 10, 11, 10, 10, 10, 10, 10, 11, 11, 10, 10, 10, 11, 10, 10, 10, 10, 10, 10, 10, 10, 11, 10, 10, 10, 11, 10, 10, 10, 10, 10, 10, 10, 10, 10, 11, 10, 10, 11, 10, 10, 10, 11, 11, 10, 10, 10, 10, 10, 11, 11, 10, 10, 10, 11, 10, 10, 10, 10, 10, 10, 11, 10, 10, 11, 10, 10, 10, 10, 10, 10, 10, 10, 10, 10, 10, 10, 10, 10, 10, 10, 10, 10, 10, 10, 10, 10, 10, 11, 10, 10, 9, 10, 10, 11, 10, 10, 10, 10, 10, 10, 10, 11, 10, 10, 11, 11, 11, 10, 11, 10, 11, 11, 10, 10, 10, 11, 10, 10, 10, 11, 10, 10, 10, 10, 10, 11, 10, 11, 10, 10, 10, 10, 10, 10, 10, 11, 10, 11, 10, 10, 10, 10, 10, 10, 9, 10, 9, 10, 10, 10, 11, 10, 10, 10, 10, 11, 10, 10, 10, 11, 11, 10, 10, 10, 10, 11, 10, 11, 10, 10, 10, 11, 10, 11, 10, 10, 10, 11, 10, 10, 10, 10, 10, 11, 10, 10, 10, 10, 10, 10, 10, 10, 10, 11, 11, 10, 10, 10, 10, 10, 10, 11, 11, 10, 10, 10, 10, 9, 10, 9, 10, 9, 11, 10, 10, 10, 10, 10, 10, 10, 9, 10, 10, 10, 10, 10, 11, 10, 10, 9, 10, 10, 11, 10, 10, 10, 11, 10, 10, 10, 10, 9, 11, 10, 10, 11, 10, 10, 11, 10, 10, 11, 10, 11, 10, 10, 10, 11, 10, 10, 10, 10, 10, 10, 10, 10, 10, 10, 10, 10, 10, 11, 10, 11, 10, 10, 11, 11, 10, 10, 10, 10, 11, 10, 10, 10, 10, 10, 9, 10, 10, 10, 10, 10, 10, 10, 10, 10, 11, 11, 10, 10, 10, 9, 11, 10, 10, 10, 10, 10, 10, 10, 10, 10, 11, 11, 11, 10, 10, 10, 10, 10, 11, 10, 10, 10, 10, 10, 10, 10, 10, 10, 10, 10, 10, 10, 10, 10, 10, 10, 11, 10, 10, 11, 10, 10, 10, 10, 10, 10, 10, 11, 10, 10, 10, 10, 10, 10, 10, 10], strides = [2, 2], support_compress = true, use_3ic_optimize = 0 : i64, weight_is_coeff = 1 : i64, with_bias = true} : (tensor<1x256x14x20x!quant.uniform<i8:f32, 0.089566330708661421>>, tensor<512x256x3x3xsi8>, tensor<1x512x1x1xi32>) -> tensor<1x512x7x10x!quant.uniform<i8:f32, 0.087329143307086604>> loc(#loc124)
    %125 = "top.Weight"() : () -> tensor<1x1x1x256xsi8> loc(#loc125)
    %126 = "tpu.Lut"(%124, %125) : (tensor<1x512x7x10x!quant.uniform<i8:f32, 0.087329143307086604>>, tensor<1x1x1x256xsi8>) -> tensor<1x512x7x10x!quant.uniform<i8:f32, 0.067260511811023618>> loc(#loc126)
    %127 = "top.Weight"() : () -> tensor<512x512x1x1xsi8> loc(#loc127)
    %128 = "top.Weight"() : () -> tensor<1x512x1x1xi32> loc(#loc128)
    %129 = "tpu.Conv2D"(%126, %127, %128) {coeff_merged = false, dilations = [1, 1], do_relu = false, do_winograd = false, dynweight_reorderd = false, group = 1 : i64, kernel_shape = [1, 1], kernel_zp = 0 : i64, multiplier = [1635119104, 2131718272, 1534207360, 2081496576, 1403458688, 1603583616, 1237972864, 1591805696, 1650556928, 1463232896, 1241501952, 1462328192, 1640312960, 1649125888, 1369559296, 1328156800, 1516073472, 1312985856, 2131366016, 2077668608, 1624059520, 1848987136, 1483894784, 1281360640, 2069422720, 1810406272, 1198021248, 1209609216, 1398382464, 1305861376, 1439096448, 1540995968, 1750038784, 1658908288, 1089876992, 1163433856, 1424504832, 1689340032, 1147941888, 1103503104, 1363207424, 1431630464, 1137910912, 1118599040, 1935271296, 1101703936, 1680610560, 1208286208, 2016322048, 1588872320, 1683177344, 1254409984, 1214325120, 1386041984, 1273792000, 1196127104, 1428534912, 1563595904, 1515866624, 1267167616, 1154279680, 1082759168, 1661898240, 1755786240, 1481660032, 1630221184, 1916606848, 1613246720, 1705821184, 1723755136, 1950672384, 1793202304, 1513348224, 1702251776, 1510176896, 2095771136, 1702051200, 1504435840, 1843248512, 1313167488, 2095447040, 1167869056, 2140522752, 1274452224, 1689513600, 1387267584, 1159684736, 1646397312, 1348545664, 1331316224, 2108981376, 1465829888, 2053793280, 1249061120, 1725392128, 1183207680, 1503424512, 1097056896, 1893748864, 1374261632, 1423445504, 1418417024, 1504609280, 1682986880, 1283038336, 1919604992, 1666175360, 2085593344, 1764732032, 2125716352, 1535800960, 1186627200, 1838613376, 1228749184, 1251802240, 1686385920, 1334191872, 1287677824, 1203705600, 2127808384, 1282860544, 1981454592, 1356653440, 1316264448, 1154206976, 1649912704, 1863127936, 1731446400, 1714534016, 1187277056, 1469484928, 1075919232, 1694980608, 2038245504, 1273198080, 1475742464, 1470192384, 1905810176, 1077431296, 1251622016, 1423248384, 1397812736, 1578123648, 1582883968, 1441081216, 1294101376, 1259740800, 2080661888, 1355218176, 2052555008, 1137792640, 1203335552, 1238358528, 1275102592, 1980801152, 1510516224, 1840792960, 1424738432, 1179333632, 1407044992, 1388599808, 1862114560, 1912485888, 2086406272, 1444134912, 2073712384, 1748083456, 1583390720, 2105641344, 1978444032, 1423468160, 1253555968, 2068989184, 1502719488, 1611140736, 1850632960, 1455905152, 1658781184, 1094037632, 1335329536, 1872728320, 1574689792, 1308621696, 1373864832, 1195841024, 1246193024, 1751823744, 1235195008, 1498483968, 1358416384, 1195134848, 1889947136, 1221354880, 1940068224, 1245680768, 1735021312, 1917283712, 1545590272, 2044860160, 1347674112, 1103307776, 2028879232, 1262682368, 1659914112, 1687535104, 1242523520, 2114368512, 1684351104, 1126682112, 1477100160, 1095659008, 1596100480, 1865548928, 1506545408, 2044608384, 1912889856, 2032880640, 1317760128, 1521503872, 2026900608, 1670398336, 1628716800, 1270995968, 1852774912, 1924862592, 2072955776, 1450980992, 1258946176, 2006037120, 1076339328, 1221185280, 2126150144, 1389562368, 1887799168, 1750117248, 1216461824, 1666164096, 1283917440, 1587231616, 1239544704, 1480470144, 1566846720, 1356189696, 1621163136, 1464091776, 1171918336, 1337489536, 1627739008, 1669979136, 1399708928, 2125685248, 1180567680, 1815591936, 1240536960, 1596967040, 2146041984, 1203065600, 2106047104, 1803775744, 1154318720, 1105890176, 1733375872, 1871756032, 1125610880, 1800103168, 2040800896, 1280294528, 1574461696, 1171701120, 1791855872, 2066287360, 1508500352, 1751107328, 1401655680, 1156665344, 1756949248, 1925752832, 1211063936, 1211403264, 1343749376, 1149227008, 2000617216, 1384355072, 1084064256, 1760929408, 2096474752, 1074550784, 1535301760, 1204823680, 1418204672, 2026717056, 1381064064, 1075714048, 1467939840, 1855089408, 1457802112, 1817526656, 1579213696, 1172519680, 2069428992, 1395965824, 1386585600, 1771587584, 1114026368, 1571736448, 1497271296, 1095489664, 1119450496, 1081108096, 1783322368, 1364935808, 1334348672, 1731843328, 1142851968, 1158677760, 1192134784, 1861254656, 1222147584, 1206153984, 1543651968, 1221015552, 1121704320, 1131785088, 1603828736, 1492875648, 1407041280, 2112850560, 1168451200, 1119338624, 2059788928, 1781061888, 1612100224, 1356989056, 1133937920, 1953815552, 1609238400, 1181565056, 1314263808, 1157391744, 1678150784, 1893387264, 1893188224, 1349093888, 1530313856, 1268980608, 1122092160, 1321530752, 1847089664, 1420843648, 1700372736, 1191424896, 1117096192, 1554192128, 1428270080, 1453098496, 1356937856, 1244466816, 1984073728, 1164530816, 1367236736, 2026558336, 1252548608, 1352281216, 1378623104, 1611251328, 1446551424, 1143222528, 1205229696, 1129327744, 1681610752, 1201024896, 1261798528, 1985093760, 1295668224, 1544792832, 1305518080, 1845399296, 1549633152, 1513067136, 1310803456, 1787776384, 1106754944, 1122799488, 2124713728, 1364110976, 1564838784, 1539750400, 1287537152, 1403029376, 1695773184, 1092146048, 1294162816, 1536032384, 1537315456, 2018551808, 2094411392, 1557512448, 1719571200, 1918333440, 1782250368, 1331107968, 1406224384, 1594512384, 1831438336, 1368574976, 2061454976, 1691135872, 1363159168, 1933068800, 1734985984, 2127339136, 1236252672, 1411580800, 1147746688, 1119779968, 1337574656, 1310397824, 1576130432, 1282797824, 2126124928, 1689641600, 1166698880, 1638655232, 1214397696, 1363886208, 1285423488, 1580967168, 1446710144, 1898184704, 1840737280, 1257380480, 2045442432, 1586128640, 1330197376, 1158985984, 1415195904, 1439982848, 1209604864, 1967449728, 1336433792, 1296521472, 1406273920, 1226500352, 1440952576, 1919996544, 1671742720, 1526702720, 1321161472, 1148515328, 1084456960, 1884381824, 1499815680, 1207413760, 1780190336, 1720791424, 1816896128, 1151521792, 1731120768, 1806420096, 1522236672, 1940435328, 1727833216, 1422644224, 1771127040, 1394996096, 1139250048, 1570137984, 1121792128, 1695764224, 1831755008, 1951954048, 2144399616, 1232823552, 1581939200, 1568885120, 1299633024, 2133641984, 1671551360, 1444545920, 1448849536, 1728277248, 1159300224, 1860881792, 1374292992, 1228200704, 2105651456, 1354265856, 1359687680, 2082984064, 1398606848, 1796899840, 2044268544, 1900018688, 1283346432, 1322704384, 1913583360, 1148267648, 1276891904, 1820232320, 1907142272, 1164549760, 1188616064, 1981253760, 1111320704, 1175375360, 1969127680, 1260696064, 1982864256, 1603619072, 1073834624, 2002707584, 1462095616], pads = [0, 0, 0, 0], quant_mode = #tpu<rq_mode QDM>, relu_limit = -1.000000e+00 : f64, round_mode = #tpu<round_mode HalfUp>, rshift = [10, 11, 10, 11, 10, 10, 10, 10, 9, 10, 10, 10, 10, 11, 10, 10, 10, 10, 11, 10, 10, 10, 10, 10, 10, 10, 9, 10, 10, 10, 9, 10, 10, 10, 10, 10, 10, 11, 10, 10, 10, 11, 9, 10, 10, 10, 9, 10, 11, 11, 10, 10, 10, 9, 10, 10, 10, 10, 10, 10, 10, 10, 10, 9, 10, 10, 10, 10, 10, 10, 10, 10, 10, 10, 10, 11, 10, 10, 10, 9, 11, 10, 10, 10, 10, 10, 10, 10, 10, 10, 11, 10, 10, 10, 10, 9, 10, 9, 10, 10, 10, 10, 11, 10, 10, 10, 10, 10, 10, 11, 10, 10, 10, 8, 10, 10, 10, 10, 10, 11, 10, 10, 10, 9, 9, 10, 10, 10, 10, 10, 10, 10, 10, 10, 9, 10, 10, 10, 10, 10, 10, 10, 10, 10, 10, 10, 10, 11, 10, 10, 10, 9, 10, 10, 11, 10, 9, 10, 10, 10, 10, 10, 11, 11, 10, 11, 10, 10, 10, 11, 10, 10, 11, 10, 10, 10, 10, 10, 10, 9, 11, 10, 10, 10, 10, 10, 10, 10, 10, 10, 10, 10, 10, 10, 10, 10, 11, 10, 10, 10, 10, 10, 10, 10, 10, 10, 11, 10, 10, 10, 10, 10, 11, 10, 11, 11, 10, 10, 10, 11, 10, 10, 10, 10, 10, 11, 10, 10, 10, 9, 10, 10, 10, 11, 10, 10, 10, 10, 10, 10, 10, 10, 10, 10, 10, 10, 10, 10, 10, 10, 10, 10, 10, 10, 10, 11, 10, 10, 10, 10, 9, 10, 10, 10, 11, 10, 10, 10, 10, 10, 10, 10, 10, 10, 10, 10, 9, 10, 10, 10, 10, 11, 9, 9, 10, 10, 10, 10, 10, 10, 10, 10, 9, 10, 9, 9, 10, 10, 10, 11, 10, 10, 10, 9, 10, 10, 10, 9, 10, 10, 10, 10, 10, 9, 10, 10, 10, 9, 10, 10, 10, 10, 9, 10, 10, 10, 11, 10, 10, 11, 10, 10, 10, 10, 10, 10, 10, 10, 10, 10, 10, 9, 10, 10, 10, 9, 9, 10, 10, 10, 9, 10, 10, 10, 10, 10, 10, 10, 9, 10, 11, 10, 10, 10, 9, 10, 10, 9, 10, 10, 10, 10, 11, 10, 10, 10, 11, 10, 10, 9, 10, 10, 10, 10, 10, 10, 10, 10, 9, 10, 9, 10, 10, 10, 10, 11, 10, 10, 11, 10, 9, 10, 10, 10, 10, 10, 10, 9, 10, 10, 11, 10, 9, 9, 9, 9, 10, 10, 10, 11, 10, 9, 10, 10, 10, 10, 10, 10, 10, 10, 9, 11, 10, 10, 9, 10, 9, 10, 9, 10, 9, 9, 10, 10, 10, 10, 10, 8, 10, 9, 10, 10, 10, 10, 10, 11, 9, 10, 10, 10, 10, 9, 9, 10, 10, 10, 10, 10, 9, 11, 10, 10, 10, 9, 10, 10, 10, 10, 10, 10, 10, 10, 10, 10, 10, 11, 10, 10, 10, 10, 10, 10, 11, 10, 9, 10, 10, 9, 11, 10, 10, 10, 10, 10, 9, 11, 10, 11, 10, 10, 10, 9], strides = [1, 1], support_compress = true, use_3ic_optimize = 0 : i64, weight_is_coeff = 1 : i64, with_bias = true} : (tensor<1x512x7x10x!quant.uniform<i8:f32, 0.067260511811023618>>, tensor<512x512x1x1xsi8>, tensor<1x512x1x1xi32>) -> tensor<1x512x7x10x!quant.uniform<i8:f32, 0.14502109291338583>> loc(#loc129)
    %130 = "top.Weight"() : () -> tensor<1x1x1x256xsi8> loc(#loc130)
    %131 = "tpu.Lut"(%129, %130) : (tensor<1x512x7x10x!quant.uniform<i8:f32, 0.14502109291338583>>, tensor<1x1x1x256xsi8>) -> tensor<1x512x7x10x!quant.uniform<i8:f32, 0.12726251023622048>> loc(#loc131)
    %132 = "tpu.Slice"(%131, %0, %0, %0, %0) {axes = [], ends = [9223372036854775807, 256, 9223372036854775807, 9223372036854775807], hasparamConvert_axes = [1], offset = [0, 0, 0, 0], steps = [1, 1, 1, 1]} : (tensor<1x512x7x10x!quant.uniform<i8:f32, 0.12726251023622048>>, none, none, none, none) -> tensor<1x256x7x10x!quant.uniform<i8:f32, 0.12726251023622048>> loc(#loc132)
    %133 = "tpu.Slice"(%131, %0, %0, %0, %0) {axes = [], ends = [9223372036854775807, 512, 9223372036854775807, 9223372036854775807], hasparamConvert_axes = [1], offset = [0, 256, 0, 0], steps = [1, 1, 1, 1]} : (tensor<1x512x7x10x!quant.uniform<i8:f32, 0.12726251023622048>>, none, none, none, none) -> tensor<1x256x7x10x!quant.uniform<i8:f32, 0.12726251023622048>> loc(#loc133)
    %134 = "top.Weight"() : () -> tensor<128x256x1x1xsi8> loc(#loc134)
    %135 = "top.Weight"() : () -> tensor<1x128x1x1xi32> loc(#loc135)
    %136 = "tpu.Conv2D"(%133, %134, %135) {coeff_merged = false, dilations = [1, 1], do_relu = false, do_winograd = false, dynweight_reorderd = false, group = 1 : i64, kernel_shape = [1, 1], kernel_zp = 0 : i64, multiplier = [1487980160, 1283531520, 2010127616, 1510043008, 1356023936, 1787842048, 1102352896, 1806638336, 1701214720, 1418309760, 1553278464, 1783684224, 1956915328, 1451824512, 1768134656, 1813922304, 1944903936, 1523839360, 1505512832, 1814880384, 1357746432, 1524637696, 1953435776, 1153495040, 1892120704, 1437623552, 1878335872, 1155020032, 1740807808, 1440123264, 1858053888, 1414588288, 1256621696, 1455464832, 1738757120, 1170205696, 1210920448, 1095840768, 1861871744, 1202440320, 1857786496, 1751791360, 1381358208, 1387853184, 1807177344, 1885927296, 1508314240, 1860096128, 1138846848, 1418246784, 1476912512, 1729369984, 1280323200, 1169848832, 1549859584, 1403479168, 1353900160, 1873131136, 1337917184, 1360180096, 1499998208, 1889195648, 1979516800, 1174229120, 1397634688, 1651366784, 1163670784, 1169446144, 1694067456, 1967622784, 1084409472, 1831813888, 1527240192, 1099451648, 1376117120, 1621737088, 1102751616, 2113551744, 2070422016, 1902063744, 1283236480, 1884173696, 2138680704, 1264711424, 1727863296, 1535793024, 1768915584, 1791736448, 1803943040, 1250242048, 1551534080, 1961128064, 1148981376, 1268345472, 1804028928, 2054028032, 1400326912, 1229984768, 1975566080, 1401381888, 1537272576, 1618009472, 1504432512, 1090942208, 1826311936, 1128045696, 1420205056, 1614644224, 1572288768, 1482081536, 1578515072, 1442244864, 1073967360, 1250924288, 1753656704, 1460325632, 1928125824, 1704134656, 1884768896, 1626709888, 1954420608, 1267156736, 1873858560, 1081328768, 1963247232, 1982484224, 1685292032, 2146772224], pads = [0, 0, 0, 0], quant_mode = #tpu<rq_mode QDM>, relu_limit = -1.000000e+00 : f64, round_mode = #tpu<round_mode HalfUp>, rshift = [9, 8, 8, 9, 9, 9, 8, 9, 9, 9, 9, 9, 9, 7, 9, 9, 8, 9, 9, 9, 9, 9, 9, 8, 9, 9, 9, 8, 8, 7, 9, 8, 8, 8, 9, 8, 8, 8, 9, 8, 8, 8, 8, 9, 8, 9, 9, 9, 8, 8, 9, 9, 8, 7, 9, 9, 7, 11, 8, 8, 8, 8, 9, 9, 10, 9, 9, 9, 7, 9, 8, 9, 8, 8, 8, 9, 8, 9, 9, 9, 7, 7, 9, 7, 9, 9, 9, 8, 9, 8, 9, 9, 7, 8, 9, 8, 9, 8, 9, 8, 9, 9, 8, 7, 9, 8, 9, 8, 9, 9, 9, 9, 7, 8, 9, 9, 8, 9, 9, 9, 9, 8, 9, 8, 10, 9, 9, 9], strides = [1, 1], support_compress = true, use_3ic_optimize = 0 : i64, weight_is_coeff = 1 : i64, with_bias = true} : (tensor<1x256x7x10x!quant.uniform<i8:f32, 0.12726251023622048>>, tensor<128x256x1x1xsi8>, tensor<1x128x1x1xi32>) -> tensor<1x128x7x10x!quant.uniform<i8:f32, 0.11348717637795276>> loc(#loc136)
    %137 = "top.Weight"() : () -> tensor<128x256x1x1xsi8> loc(#loc137)
    %138 = "top.Weight"() : () -> tensor<1x128x1x1xi32> loc(#loc138)
    %139 = "tpu.Conv2D"(%133, %137, %138) {coeff_merged = false, dilations = [1, 1], do_relu = false, do_winograd = false, dynweight_reorderd = false, group = 1 : i64, kernel_shape = [1, 1], kernel_zp = 0 : i64, multiplier = [1226220544, 1438918784, 1465683712, 1719518080, 1218678400, 1189248000, 1859938688, 1564404736, 1343786880, 1354132608, 1552275712, 1677604736, 1095259008, 1489944832, 1393175680, 1620469248, 1536941696, 1120551040, 1767664768, 1671043072, 1439556864, 1666653312, 1611234176, 1221222144, 1985916672, 1245112960, 1472590080, 1212066816, 1279225216, 1187449344, 1636997504, 1568092672, 1513784704, 1600876416, 1447653632, 1355616896, 2109659392, 1186316032, 1530390784, 1199496320, 1697174016, 1609236480, 1555363200, 1907625472, 1694784000, 1331596288, 1575162496, 1162209152, 1104172416, 2074277120, 1432914432, 1413139968, 1754589952, 1390573440, 1221911808, 1187289344, 1100521856, 1385552256, 1395810432, 1815817472, 1354800512, 1429897856, 1639844864, 1689287424, 1124118016, 1257392256, 1675395456, 1494678912, 1319702016, 1365590784, 1512901248, 1837647488, 1399379328, 1883192064, 1625095168, 1503534592, 1707862272, 1596270976, 1240269440, 1143916800, 1657716736, 1437712768, 1723424512, 1544852992, 1874786048, 1690632064, 1426975232, 1907168896, 1287181824, 1678613376, 1229089280, 1386271232, 1430212224, 1644652800, 1184178304, 1428802816, 1211285760, 1137815296, 1373884672, 1579325184, 1884717056, 1353748992, 1297569024, 1372067200, 2126535296, 1616772480, 1546341504, 1462474112, 1568295680, 1383509248, 1839038336, 1159255936, 1539150336, 1258590720, 1580302464, 1767687808, 1253233408, 1900977280, 1976485504, 2140578176, 1140773632, 1387690752, 2023871488, 1839720832, 1592138752, 1383567232, 1217516928, 1111926784], pads = [0, 0, 0, 0], quant_mode = #tpu<rq_mode QDM>, relu_limit = -1.000000e+00 : f64, round_mode = #tpu<round_mode HalfUp>, rshift = [9, 9, 9, 9, 9, 8, 9, 9, 9, 8, 9, 9, 9, 9, 9, 9, 9, 9, 9, 9, 9, 9, 9, 8, 9, 9, 9, 8, 9, 8, 9, 9, 9, 9, 9, 9, 9, 8, 9, 9, 9, 9, 9, 9, 9, 9, 9, 8, 8, 9, 9, 9, 9, 9, 8, 9, 8, 9, 9, 9, 9, 9, 9, 9, 8, 9, 9, 9, 9, 9, 9, 9, 9, 9, 9, 9, 9, 9, 9, 9, 9, 9, 9, 9, 9, 9, 9, 9, 9, 9, 9, 9, 9, 9, 8, 9, 9, 9, 9, 9, 9, 9, 9, 9, 9, 9, 9, 9, 9, 9, 9, 8, 9, 8, 9, 9, 9, 9, 9, 10, 9, 9, 9, 9, 9, 9, 9, 9], strides = [1, 1], support_compress = true, use_3ic_optimize = 0 : i64, weight_is_coeff = 1 : i64, with_bias = true} : (tensor<1x256x7x10x!quant.uniform<i8:f32, 0.12726251023622048>>, tensor<128x256x1x1xsi8>, tensor<1x128x1x1xi32>) -> tensor<1x128x7x10x!quant.uniform<i8:f32, 0.14065365354330708>> loc(#loc139)
    %140 = "top.Weight"() : () -> tensor<1x1x1x256xsi8> loc(#loc140)
    %141 = "tpu.Lut"(%136, %140) : (tensor<1x128x7x10x!quant.uniform<i8:f32, 0.11348717637795276>>, tensor<1x1x1x256xsi8>) -> tensor<1x128x7x10x!quant.uniform<i8:f32, 0.071737927559055129>> loc(#loc141)
    %142 = "top.Weight"() : () -> tensor<1x1x1x256xsi8> loc(#loc142)
    %143 = "tpu.Lut"(%139, %142) : (tensor<1x128x7x10x!quant.uniform<i8:f32, 0.14065365354330708>>, tensor<1x1x1x256xsi8>) -> tensor<1x128x7x10x!quant.uniform<i8:f32, 0.12381014488188977>> loc(#loc143)
    %144 = "top.Weight"() : () -> tensor<128x128x3x3xsi8> loc(#loc144)
    %145 = "top.Weight"() : () -> tensor<1x128x1x1xi32> loc(#loc145)
    %146 = "tpu.Conv2D"(%141, %144, %145) {coeff_merged = false, dilations = [1, 1], do_relu = false, do_winograd = false, dynweight_reorderd = false, group = 1 : i64, kernel_shape = [3, 3], kernel_zp = 0 : i64, multiplier = [1148392064, 1430754432, 1410859264, 1505340672, 1325728128, 1783366016, 1472458368, 1285829376, 1719369344, 1355286272, 1120623616, 2065354368, 1175290752, 1952301440, 1586869632, 1512864768, 1176522880, 1549548800, 1350402816, 1751066368, 1781040640, 1285667968, 1873329920, 1111339008, 1191883520, 1769735168, 1482048896, 2076967296, 1554231552, 1597812224, 1366598656, 1860969856, 1144135040, 1439961088, 1124732544, 1293740416, 1907054976, 1077983360, 1524537088, 1864440832, 1525441024, 1841738624, 1257735424, 1490304384, 1974517504, 1177048448, 2090766464, 1963421824, 1538659712, 1707238016, 1125058176, 1940018304, 1696292736, 1985182976, 1440169216, 1098574336, 1551536768, 2027665664, 1630625664, 1508800384, 1668466432, 1320013056, 1517371264, 2082607232, 1627814400, 1221707264, 2107210496, 1624927872, 1752689536, 2104299904, 1636093440, 1859667584, 2140479616, 1374272000, 1263502592, 1152389760, 1606500224, 1862829696, 1604318976, 1708516736, 1885029376, 1953678720, 1229523584, 1389870080, 1200244352, 1859489536, 2075038208, 1228881280, 1951158400, 1099924608, 2100632576, 1877136768, 1313243520, 1372171008, 1169935488, 1878448640, 1668826368, 2121607808, 1456126592, 1419311360, 1587739648, 1390277760, 1432146432, 2073426176, 1156262016, 1225622912, 2147156864, 1638262656, 1219002240, 2112533760, 1523252480, 1085678976, 1146986880, 1716706560, 1713761280, 1147630848, 1570262400, 1611899136, 1289964800, 1281061504, 2083438080, 1270002304, 1143090816, 1115831296, 2126760704, 1223482880, 1198069504, 1312812160], pads = [1, 1, 1, 1], quant_mode = #tpu<rq_mode QDM>, relu_limit = -1.000000e+00 : f64, round_mode = #tpu<round_mode HalfUp>, rshift = [10, 10, 9, 10, 9, 10, 10, 9, 10, 10, 10, 11, 9, 10, 10, 10, 10, 10, 10, 11, 10, 10, 9, 9, 10, 11, 10, 10, 11, 10, 9, 10, 10, 10, 9, 10, 10, 8, 10, 9, 10, 10, 10, 9, 10, 10, 10, 11, 11, 10, 9, 11, 11, 11, 10, 10, 10, 10, 10, 10, 10, 9, 10, 11, 8, 10, 11, 10, 10, 11, 10, 10, 11, 9, 10, 10, 10, 10, 9, 11, 11, 10, 10, 8, 10, 11, 11, 9, 11, 10, 10, 11, 10, 10, 9, 11, 11, 10, 10, 9, 11, 10, 10, 11, 9, 11, 10, 10, 10, 10, 10, 10, 10, 10, 10, 10, 11, 11, 10, 9, 11, 10, 10, 9, 10, 10, 10, 10], strides = [1, 1], support_compress = true, use_3ic_optimize = 0 : i64, weight_is_coeff = 1 : i64, with_bias = true} : (tensor<1x128x7x10x!quant.uniform<i8:f32, 0.071737927559055129>>, tensor<128x128x3x3xsi8>, tensor<1x128x1x1xi32>) -> tensor<1x128x7x10x!quant.uniform<i8:f32, 0.11165575354330709>> loc(#loc146)
    %147 = "top.Weight"() : () -> tensor<1x1x1x256xsi8> loc(#loc147)
    %148 = "tpu.Lut"(%146, %147) : (tensor<1x128x7x10x!quant.uniform<i8:f32, 0.11165575354330709>>, tensor<1x1x1x256xsi8>) -> tensor<1x128x7x10x!quant.uniform<i8:f32, 0.066970493700787406>> loc(#loc148)
    %149 = "top.Weight"() : () -> tensor<128x128x3x3xsi8> loc(#loc149)
    %150 = "top.Weight"() : () -> tensor<1x128x1x1xi32> loc(#loc150)
    %151 = "tpu.Conv2D"(%148, %149, %150) {coeff_merged = false, dilations = [1, 1], do_relu = false, do_winograd = false, dynweight_reorderd = false, group = 1 : i64, kernel_shape = [3, 3], kernel_zp = 0 : i64, multiplier = [1241150208, 1535788928, 1215102848, 1680148096, 1382792960, 1178501888, 1848878080, 1345425792, 1867419904, 1242137472, 1190982144, 1411188992, 2145384960, 1661809152, 1638375040, 1447054976, 1727749632, 1455740800, 1795287552, 1322206336, 1290694784, 1582715008, 1509239936, 2125460736, 1382488448, 1206191488, 1321130624, 1175698816, 1305713152, 1208808832, 1116652032, 1649965824, 2002748416, 1708374016, 2044290688, 1088718464, 1723073152, 1342067456, 1095772288, 1847521024, 1124396416, 1912098688, 1816358144, 2107153664, 1184128384, 1906578560, 2032737280, 1823531008, 1206066304, 1378956800, 1927526272, 1247456768, 1694310400, 1233681664, 1263880832, 1590200448, 1969296384, 2068352128, 1215318400, 1706966144, 1263986688, 1230483200, 2101530112, 1606610816, 1416922880, 1662033408, 2020359936, 1230670208, 1583573376, 1568296064, 1494731520, 1479572480, 1404045312, 1813038208, 1804512512, 1731898752, 1078409216, 1083542784, 1164318592, 1216335744, 1559306880, 1437578752, 1314722048, 1127709696, 1164659072, 1125335296, 1318193536, 1188188544, 1995183616, 1371117824, 2081719936, 1125529216, 1078087296, 2137802240, 1123509760, 1627229568, 1710385536, 1607044864, 1200886912, 1695774720, 1321609344, 1076063232, 1095431168, 1187540864, 1491286400, 1482524288, 1316363648, 1095716480, 1422065792, 1605572480, 1117741824, 1327587584, 1402710016, 1278693760, 1612263936, 1294651008, 1103920384, 2006361984, 1124076288, 1540085888, 1467665664, 1081442944, 1228451712, 1636806656, 1590423040, 1270459392, 1300357888, 1155810176], pads = [1, 1, 1, 1], quant_mode = #tpu<rq_mode QDM>, relu_limit = -1.000000e+00 : f64, round_mode = #tpu<round_mode HalfUp>, rshift = [10, 10, 10, 11, 8, 9, 10, 10, 10, 10, 9, 10, 10, 9, 11, 9, 10, 9, 10, 9, 10, 10, 10, 10, 10, 10, 9, 10, 11, 8, 10, 9, 11, 10, 10, 9, 10, 9, 10, 10, 9, 10, 11, 9, 10, 11, 10, 10, 9, 11, 10, 11, 10, 10, 11, 10, 10, 9, 10, 10, 9, 10, 11, 10, 10, 10, 10, 9, 9, 10, 10, 10, 10, 11, 10, 10, 10, 10, 10, 9, 10, 11, 9, 9, 10, 9, 9, 10, 10, 10, 11, 9, 10, 9, 9, 10, 10, 10, 10, 10, 9, 10, 10, 10, 9, 10, 10, 8, 10, 10, 10, 9, 10, 10, 10, 10, 10, 10, 10, 11, 10, 10, 9, 10, 10, 10, 9, 10], strides = [1, 1], support_compress = true, use_3ic_optimize = 0 : i64, weight_is_coeff = 1 : i64, with_bias = true} : (tensor<1x128x7x10x!quant.uniform<i8:f32, 0.066970493700787406>>, tensor<128x128x3x3xsi8>, tensor<1x128x1x1xi32>) -> tensor<1x128x7x10x!quant.uniform<i8:f32, 0.074385530708661426>> loc(#loc151)
    %152 = "top.Weight"() : () -> tensor<1x1x1x256xsi8> loc(#loc152)
    %153 = "tpu.Lut"(%151, %152) : (tensor<1x128x7x10x!quant.uniform<i8:f32, 0.074385530708661426>>, tensor<1x1x1x256xsi8>) -> tensor<1x128x7x10x!quant.uniform<i8:f32, 0.065322955905511806>> loc(#loc153)
    %154 = "tpu.Add"(%141, %153) {do_relu = false, multipliers = [64, 59], relu_limit = -1.000000e+00 : f64, rshifts = [7]} : (tensor<1x128x7x10x!quant.uniform<i8:f32, 0.071737927559055129>>, tensor<1x128x7x10x!quant.uniform<i8:f32, 0.065322955905511806>>) -> tensor<1x128x7x10x!quant.uniform<i8:f32, 0.14145400551181103>> loc(#loc154)
    %155 = "top.Weight"() : () -> tensor<128x128x3x3xsi8> loc(#loc155)
    %156 = "top.Weight"() : () -> tensor<1x128x1x1xi32> loc(#loc156)
    %157 = "tpu.Conv2D"(%154, %155, %156) {coeff_merged = false, dilations = [1, 1], do_relu = false, do_winograd = false, dynweight_reorderd = false, group = 1 : i64, kernel_shape = [3, 3], kernel_zp = 0 : i64, multiplier = [1504035072, 2010994944, 1821949952, 1138374016, 1546652800, 1715606144, 1169391360, 1409929856, 1600389504, 1082413696, 1291554944, 1177841408, 1250135936, 1835209344, 1806683520, 2029658240, 1217511936, 1205555328, 1113057536, 1950472576, 1383931776, 1175408000, 2143901824, 1183909888, 1665690496, 1660827776, 1103685120, 1337177344, 1818059392, 1864907648, 1772182912, 1568817536, 1479930112, 1436958720, 1986824064, 1275962496, 1176143872, 1695230464, 2016564608, 1497217920, 1101916032, 1287410048, 1430298624, 1892061440, 2130310784, 1131795584, 1075779328, 1440498304, 1188642816, 1649903744, 1944766336, 1166141312, 2084759040, 1889278208, 1812083328, 1092782848, 1784877440, 1241238144, 1310428672, 1906802304, 1143741568, 1449002112, 1561866112, 2102815104, 1393572608, 1864634880, 1916447488, 1600067584, 1345817216, 1343906176, 1373321216, 1283901184, 1792274816, 1779321472, 1677475072, 2079853824, 1785065728, 1326916480, 1594195200, 2087761792, 1357222528, 1285911936, 1240320256, 1102450688, 1591796224, 1975707392, 1131001088, 1534726400, 1794318720, 1466919296, 1593029888, 1762563584, 1652241664, 1521785600, 1414238720, 1255276672, 1674965504, 1528994816, 1185396736, 1163055872, 1224890240, 1215600896, 1143327232, 1229643392, 1274797056, 1177153408, 1261281408, 1263005952, 2094726528, 1075501056, 1758652032, 1493918208, 1206191232, 1663470080, 1230577664, 1183076096, 1523229696, 1511289600, 1895371520, 1813711232, 1595525120, 1215313152, 1498001536, 1627956096, 1536624128, 1470581376, 1701859840, 1780365312], pads = [1, 1, 1, 1], quant_mode = #tpu<rq_mode QDM>, relu_limit = -1.000000e+00 : f64, round_mode = #tpu<round_mode HalfUp>, rshift = [10, 10, 10, 9, 10, 9, 8, 9, 9, 10, 9, 10, 10, 10, 10, 10, 10, 10, 9, 10, 9, 10, 11, 10, 10, 10, 8, 9, 11, 10, 10, 10, 10, 10, 11, 10, 10, 11, 10, 10, 10, 10, 10, 11, 10, 10, 9, 10, 10, 10, 11, 10, 11, 11, 10, 10, 10, 10, 10, 10, 9, 10, 11, 10, 9, 11, 10, 10, 10, 10, 9, 10, 8, 10, 10, 11, 10, 10, 9, 11, 9, 9, 10, 9, 10, 10, 10, 9, 10, 9, 9, 10, 10, 10, 9, 10, 11, 10, 9, 10, 9, 9, 10, 9, 10, 9, 9, 10, 11, 10, 10, 10, 10, 10, 10, 10, 10, 10, 10, 9, 9, 9, 9, 11, 10, 10, 10, 11], strides = [1, 1], support_compress = true, use_3ic_optimize = 0 : i64, weight_is_coeff = 1 : i64, with_bias = true} : (tensor<1x128x7x10x!quant.uniform<i8:f32, 0.14145400551181103>>, tensor<128x128x3x3xsi8>, tensor<1x128x1x1xi32>) -> tensor<1x128x7x10x!quant.uniform<i8:f32, 0.10832528976377953>> loc(#loc157)
    %158 = "top.Weight"() : () -> tensor<1x1x1x256xsi8> loc(#loc158)
    %159 = "tpu.Lut"(%157, %158) : (tensor<1x128x7x10x!quant.uniform<i8:f32, 0.10832528976377953>>, tensor<1x1x1x256xsi8>) -> tensor<1x128x7x10x!quant.uniform<i8:f32, 0.038552814173228346>> loc(#loc159)
    %160 = "top.Weight"() : () -> tensor<128x128x3x3xsi8> loc(#loc160)
    %161 = "top.Weight"() : () -> tensor<1x128x1x1xi32> loc(#loc161)
    %162 = "tpu.Conv2D"(%159, %160, %161) {coeff_merged = false, dilations = [1, 1], do_relu = false, do_winograd = false, dynweight_reorderd = false, group = 1 : i64, kernel_shape = [3, 3], kernel_zp = 0 : i64, multiplier = [1085857664, 1447305856, 1543829760, 1202935680, 1519185536, 1457102592, 1294250880, 1254659200, 1227790208, 1263077504, 1371412608, 1702378112, 1107934592, 1857225088, 2105362944, 1929021824, 1442838144, 1310605184, 2075279488, 1271436544, 1345920640, 1236627968, 1605745024, 1364980608, 2105153024, 1705280640, 1182152064, 1486283392, 1749570432, 1152360960, 1667398912, 1965923584, 1096471808, 1850269440, 1345508480, 1306684928, 1875047808, 1911536128, 1944285568, 1271136512, 1243281024, 1665987072, 1563425536, 1635968768, 1220181504, 1423446400, 1930239616, 1167447680, 1520103168, 1742701056, 1784702208, 1112836736, 2097891328, 1276858624, 1202839808, 1569689472, 1388607104, 1755453312, 1404186240, 1127423360, 1626754304, 1676240256, 1427115904, 1481037952, 1391962240, 2110338688, 1497650048, 2123489536, 1832840448, 1928462336, 1446246272, 1103019008, 1157604608, 1496234880, 1271505536, 1209095680, 1889445376, 2147454592, 2142927872, 2044509056, 1221654912, 1429050496, 1256872832, 1140307328, 1657771520, 1559504128, 1580970240, 1314642944, 1397692160, 1093084928, 1268418304, 1100135680, 1685535488, 1222693888, 1176228608, 1078875264, 2054310656, 1193454336, 1755421440, 1350565888, 1084528384, 1907172608, 1578602368, 1354175360, 1244160384, 1110505344, 2065555840, 1899921024, 1261682048, 1254811648, 2145609088, 1518726784, 1854589184, 1405037696, 1521853184, 2120859648, 1519998720, 1370960896, 1272709248, 1979040768, 1416975744, 1515804160, 2126191872, 1083494144, 1171616384, 1403810048, 1295108352, 1314145536], pads = [1, 1, 1, 1], quant_mode = #tpu<rq_mode QDM>, relu_limit = -1.000000e+00 : f64, round_mode = #tpu<round_mode HalfUp>, rshift = [10, 10, 11, 10, 11, 10, 10, 10, 10, 11, 10, 11, 10, 10, 10, 11, 10, 10, 11, 10, 10, 10, 10, 10, 10, 10, 9, 11, 11, 8, 11, 10, 10, 9, 10, 10, 10, 11, 11, 10, 9, 10, 11, 10, 10, 11, 11, 9, 10, 9, 10, 9, 11, 10, 10, 10, 10, 9, 10, 10, 9, 11, 10, 9, 10, 10, 10, 11, 10, 11, 10, 10, 10, 11, 10, 10, 11, 11, 10, 11, 10, 11, 10, 10, 11, 11, 10, 10, 10, 10, 10, 10, 9, 10, 10, 9, 10, 10, 11, 10, 10, 11, 10, 10, 9, 10, 11, 9, 10, 10, 11, 10, 11, 10, 11, 10, 10, 11, 10, 9, 10, 10, 11, 10, 10, 10, 10, 10], strides = [1, 1], support_compress = true, use_3ic_optimize = 0 : i64, weight_is_coeff = 1 : i64, with_bias = true} : (tensor<1x128x7x10x!quant.uniform<i8:f32, 0.038552814173228346>>, tensor<128x128x3x3xsi8>, tensor<1x128x1x1xi32>) -> tensor<1x128x7x10x!quant.uniform<i8:f32, 0.071548071653543308>> loc(#loc162)
    %163 = "top.Weight"() : () -> tensor<1x1x1x256xsi8> loc(#loc163)
    %164 = "tpu.Lut"(%162, %163) : (tensor<1x128x7x10x!quant.uniform<i8:f32, 0.071548071653543308>>, tensor<1x1x1x256xsi8>) -> tensor<1x128x7x10x!quant.uniform<i8:f32, 0.067866428346456703>> loc(#loc164)
    %165 = "tpu.Add"(%154, %164) {do_relu = false, multipliers = [73, 35], relu_limit = -1.000000e+00 : f64, rshifts = [6]} : (tensor<1x128x7x10x!quant.uniform<i8:f32, 0.14145400551181103>>, tensor<1x128x7x10x!quant.uniform<i8:f32, 0.067866428346456703>>) -> tensor<1x128x7x10x!quant.uniform<i8:f32, 0.12381014488188977>> loc(#loc165)
    %166 = "tpu.Concat"(%165, %143) {axis = 1 : si32, do_relu = false, multipliers = [1, 1], only_merge = true, relu_limit = -1.000000e+00 : f64, rshifts = [0, 0]} : (tensor<1x128x7x10x!quant.uniform<i8:f32, 0.12381014488188977>>, tensor<1x128x7x10x!quant.uniform<i8:f32, 0.12381014488188977>>) -> tensor<1x256x7x10x!quant.uniform<i8:f32, 0.12381014488188977>> loc(#loc166)
    %167 = "top.Weight"() : () -> tensor<256x256x1x1xsi8> loc(#loc167)
    %168 = "top.Weight"() : () -> tensor<1x256x1x1xi32> loc(#loc168)
    %169 = "tpu.Conv2D"(%166, %167, %168) {coeff_merged = false, dilations = [1, 1], do_relu = false, do_winograd = false, dynweight_reorderd = false, group = 1 : i64, kernel_shape = [1, 1], kernel_zp = 0 : i64, multiplier = [1185145728, 1509922944, 1550050816, 1413977472, 1226330368, 1188124928, 1254694016, 1857549824, 1421158400, 1307680640, 1372480640, 1245574144, 2131639168, 1450870400, 1284645632, 1986098432, 1206260224, 1214027392, 2140196864, 2078489856, 1778115840, 1923444352, 1527749504, 2088004864, 1273221376, 2126631296, 2129502848, 1274559744, 1180132608, 1153574400, 1553444736, 2085774208, 2106498432, 1133909376, 1988879744, 1721296512, 2047271552, 2145922304, 1968786048, 1409642880, 1179177088, 1738887552, 1583200512, 1526233600, 1257341184, 1869444608, 2033324544, 2139351296, 1945723648, 1454281472, 1964574976, 1176158720, 1596925952, 1217257088, 2051614080, 1832342784, 1186625408, 1077728512, 1248795520, 1121652352, 1365048064, 1881127424, 1500232448, 1316249728, 1494594048, 1294057088, 1343119744, 1997720960, 1428444160, 1293782656, 1281188096, 1829723392, 2060047360, 1987706368, 1430429696, 1764912640, 1776162816, 1958310784, 1605058432, 1401847552, 1149005056, 1272527104, 1111727744, 1229597824, 1414199808, 1431680512, 1230729856, 1431404416, 1438809216, 1364964736, 1190943872, 2102698496, 1171955456, 1077072000, 1238982784, 1499451008, 1658976896, 1955580032, 2099889536, 1142835072, 1204203904, 2141092096, 1608412160, 1097579904, 1653846656, 1910220416, 1211571712, 1184058368, 1123620224, 1263698688, 1659480064, 1558503680, 1606540416, 1252439680, 1334777216, 1257826816, 1882507264, 1076076160, 2117177600, 2143183616, 1531034112, 1250749056, 1675728384, 1335898880, 2086206592, 1201172736, 1247829248, 1465520256, 1564282752, 1740729472, 1277305600, 1596905600, 1143189888, 1129165696, 2060971648, 2071487872, 1301594240, 1992051968, 2031568384, 1126434688, 1207645184, 1289973632, 1223566464, 1277409792, 1084184704, 1610825984, 2083497856, 1713738112, 1166912640, 1676117504, 1470928256, 1496162560, 1990377728, 1161911424, 2023723904, 1169004544, 2020317824, 1503456128, 1896635776, 1623719552, 1484579840, 1479238016, 1280950656, 1349518336, 1130129920, 1378533888, 1111412864, 1357894400, 2129146496, 1492457728, 1295191168, 1538594176, 1388324480, 1097057664, 1158033920, 1388714368, 1985020288, 1607416064, 1285319936, 1530918400, 1263086720, 1387400448, 1288230272, 2069396992, 1291395328, 2055998976, 1624827776, 2012178688, 1816578944, 1884059648, 1546290304, 1902698240, 1202668544, 2071253120, 1112783232, 2045591808, 1119319680, 1645621376, 1931455232, 1395718016, 1098050304, 1625101440, 2132710144, 2098793088, 1874145792, 1155333376, 1278581504, 1176006528, 1626616192, 2106790144, 1132069760, 2108860928, 1209191168, 1126866944, 1213406848, 1457504640, 1249840768, 1941120256, 1129460352, 1226519424, 1075303168, 1795072768, 1416987904, 1880078464, 1866096640, 1731835136, 1256078848, 1736155520, 1157085440, 1276349056, 1915527296, 1110665984, 2122361216, 2014665088, 2067728128, 1358758528, 1300821888, 1136130432, 1612729984, 1469431936, 1773070720, 1490197888, 1107130496, 1150639744, 1096882688, 1840615424, 2083021312, 1258343936, 1190104192, 1437355392, 1254201216, 1821467008, 1211291776, 1771328512, 1914527104, 2054175104], pads = [0, 0, 0, 0], quant_mode = #tpu<rq_mode QDM>, relu_limit = -1.000000e+00 : f64, round_mode = #tpu<round_mode HalfUp>, rshift = [9, 9, 9, 9, 9, 9, 9, 10, 9, 9, 9, 9, 10, 9, 9, 10, 9, 9, 9, 10, 9, 10, 9, 9, 9, 10, 10, 9, 9, 8, 9, 10, 10, 9, 10, 9, 10, 9, 10, 9, 8, 10, 9, 9, 9, 9, 10, 10, 9, 9, 9, 9, 9, 9, 9, 10, 9, 8, 9, 9, 9, 10, 9, 8, 9, 9, 9, 10, 9, 8, 9, 9, 9, 8, 9, 9, 10, 10, 9, 9, 9, 9, 9, 9, 9, 8, 9, 9, 9, 9, 8, 10, 9, 9, 9, 9, 10, 9, 10, 8, 9, 9, 9, 9, 10, 10, 9, 9, 8, 9, 9, 9, 10, 9, 9, 9, 10, 9, 10, 9, 9, 9, 9, 9, 10, 9, 9, 9, 9, 9, 9, 9, 9, 9, 10, 9, 9, 10, 9, 9, 9, 8, 7, 9, 9, 9, 10, 10, 9, 9, 9, 9, 10, 9, 9, 9, 9, 9, 10, 9, 9, 9, 9, 9, 9, 9, 9, 9, 10, 9, 9, 10, 9, 9, 9, 9, 10, 9, 9, 9, 9, 9, 9, 10, 9, 10, 9, 10, 10, 9, 9, 10, 9, 10, 8, 9, 9, 9, 10, 9, 9, 9, 10, 10, 9, 9, 8, 9, 9, 10, 9, 10, 8, 8, 9, 9, 9, 9, 9, 9, 9, 9, 10, 9, 10, 9, 9, 10, 9, 8, 8, 9, 10, 10, 10, 9, 9, 9, 9, 9, 9, 9, 8, 9, 9, 10, 10, 8, 9, 9, 9, 9, 9, 9, 9, 9], strides = [1, 1], support_compress = true, use_3ic_optimize = 0 : i64, weight_is_coeff = 1 : i64, with_bias = true} : (tensor<1x256x7x10x!quant.uniform<i8:f32, 0.12381014488188977>>, tensor<256x256x1x1xsi8>, tensor<1x256x1x1xi32>) -> tensor<1x256x7x10x!quant.uniform<i8:f32, 0.097484318110236223>> loc(#loc169)
    %170 = "top.Weight"() : () -> tensor<1x1x1x256xsi8> loc(#loc170)
    %171 = "tpu.Lut"(%169, %170) : (tensor<1x256x7x10x!quant.uniform<i8:f32, 0.097484318110236223>>, tensor<1x1x1x256xsi8>) -> tensor<1x256x7x10x!quant.uniform<i8:f32, 0.11229675748031497>> loc(#loc171)
    %172 = "tpu.Concat"(%132, %133, %171) {axis = 1 : si32, do_relu = false, multipliers = [1, 1, 112], only_merge = false, relu_limit = -1.000000e+00 : f64, rshifts = [0, 0, 7]} : (tensor<1x256x7x10x!quant.uniform<i8:f32, 0.12726251023622048>>, tensor<1x256x7x10x!quant.uniform<i8:f32, 0.12726251023622048>>, tensor<1x256x7x10x!quant.uniform<i8:f32, 0.11229675748031497>>) -> tensor<1x768x7x10x!quant.uniform<i8:f32, 0.12726251023622048>> loc(#loc172)
    %173 = "top.Weight"() : () -> tensor<512x768x1x1xsi8> loc(#loc173)
    %174 = "top.Weight"() : () -> tensor<1x512x1x1xi32> loc(#loc174)
    %175 = "tpu.Conv2D"(%172, %173, %174) {coeff_merged = false, dilations = [1, 1], do_relu = false, do_winograd = false, dynweight_reorderd = false, group = 1 : i64, kernel_shape = [1, 1], kernel_zp = 0 : i64, multiplier = [1961085568, 1788857728, 1243329664, 1984154752, 1447953408, 1822158336, 1253715328, 1230482816, 2110707712, 1726045056, 1903264768, 1839798912, 2128843520, 1199514624, 1541931648, 1103768832, 1737042816, 1922632960, 1381781376, 1105653248, 1271615232, 1597981696, 1151719552, 1326931840, 1667731968, 1717096704, 1837629056, 1554456576, 1305985792, 1812600832, 1282875392, 1292850304, 1375039104, 1162764928, 1157124096, 2003864320, 1287772672, 1142155648, 2073976960, 1275252736, 1707021056, 1350995712, 1708099584, 1527287680, 1800687872, 1138376320, 1475621888, 1379733376, 2047205376, 1524233728, 1341130112, 1714364928, 1673923968, 1313687680, 1609295616, 1928703488, 1130846336, 2135166976, 1845619968, 1505074688, 1952006400, 1298402176, 1619394432, 1122197632, 1315186304, 1319806848, 1791832192, 1509958016, 1391499648, 1323380992, 1781975552, 1815645184, 1945264512, 1870353024, 1358592256, 2121396224, 1275075072, 1384090624, 1962335488, 1190957952, 1536017664, 1496719872, 1383966464, 1315235328, 1443060608, 1676093440, 1399642752, 1289302656, 1133369088, 1557913216, 1167355008, 1261895680, 1205440896, 1752624384, 1989028224, 1244651264, 2011332608, 1225096960, 1527259136, 1942442496, 1643458688, 2022997504, 1897044864, 1840998784, 1574952832, 1303908480, 1640554496, 1892524032, 1594606208, 1175389568, 1947594496, 1168871552, 1093160832, 1525188992, 1310537344, 1156102400, 1636326016, 1716594176, 1729862144, 1956798848, 2078047104, 1650546560, 1615279232, 1310144896, 1344951936, 1394347264, 1316417536, 1596841984, 2086026880, 1852877952, 1351954560, 1241466368, 1122791680, 1083821440, 2070721152, 1075199360, 1406813184, 1720708352, 1512854272, 1099645696, 1666683264, 1252939136, 2135030912, 1844406144, 2039097984, 1850271616, 1473455488, 1495285888, 1622183680, 1920462208, 1504910080, 1451099392, 1358011136, 1670096000, 1904195456, 1527729152, 1124143232, 1826550272, 1202153216, 1385517824, 1717936128, 2084417920, 1628749696, 1300317568, 1398983680, 1911632128, 1136278144, 1607240704, 1120771456, 1733130240, 1932728960, 1547495936, 1905646464, 1881693056, 2106085120, 1427920128, 1095789568, 1271924864, 1210891520, 2122603392, 2114375296, 1394280576, 1113037696, 1200535552, 1115655296, 1365271296, 1633517312, 1442677248, 1111893888, 1296561664, 1167528704, 1525787648, 1169315328, 1995841280, 1949783168, 1159224832, 1862076928, 1094575872, 1914674304, 2089654016, 1364767104, 1110339840, 1117937536, 1264986880, 1154983680, 1632709248, 1155608960, 1865337088, 1339314304, 1438748800, 1241968384, 1971129600, 1685556224, 1828359680, 1209760768, 1965084160, 2110505216, 1200401280, 1312322304, 1108129536, 2009021312, 1383314304, 1253052416, 1571147520, 1420596864, 1454217472, 1139968896, 1956787840, 1437997952, 2088082944, 1659975040, 1490237952, 1521827968, 1320697088, 1162787200, 2105680640, 1584529152, 1248090880, 1213986944, 1579035008, 1147494144, 1816681472, 1498656000, 1175770496, 2077858816, 1801101568, 1256565248, 2093460352, 1325397760, 1750500736, 1088487552, 1804106496, 1328358400, 1322080256, 1510440704, 1098119040, 1900831104, 1280464512, 1135180160, 1757914880, 1668086400, 1097580416, 1298029696, 1097323392, 1783501696, 1077202048, 2078526336, 1347615360, 1401924736, 1395309952, 1516731776, 1139448576, 1788057088, 1260345856, 1891187328, 1964837376, 1919890176, 1266440448, 1296382464, 2072980480, 2138232320, 1567534080, 2137798784, 1988513152, 2089463424, 1465777792, 2116751616, 1143258880, 1704938880, 1289709440, 1367159168, 1252647936, 1897900032, 1814812928, 1141666816, 1691858944, 1465482240, 1105833600, 1806775808, 1466619520, 1978954880, 1424596736, 1553627392, 1594803072, 1369690752, 1749761024, 1407664768, 1254168576, 1725619328, 1497910912, 1866280832, 1694162432, 1859926528, 1630823168, 1317200256, 1305118976, 1310217472, 1326060160, 1228261888, 1200458368, 1257114880, 1433712640, 1838658176, 1399186176, 1452083840, 2020318720, 1246312576, 2050370304, 1081057536, 1343707392, 1442784896, 1396903552, 1554283264, 1477890688, 1549919744, 1363348608, 1771066368, 1420812800, 1838908160, 1934834432, 1703565440, 1731269632, 1982391424, 1127971200, 1417674880, 1810498816, 1281463424, 1533321984, 1339131264, 1883780096, 1112493312, 1975808512, 1546308992, 1594024960, 1735581696, 1161636608, 1380473216, 1734627584, 2024188416, 1457934976, 1134100736, 1166140672, 1607539584, 1345315584, 1327686912, 2136571136, 1587588352, 2082908288, 1970053376, 2135025408, 1919884160, 1251267968, 1240159104, 1519021952, 1648479872, 1226620928, 1854022528, 1108152192, 1233569664, 1628693248, 1697506816, 1539481472, 2044275840, 1677059328, 1102456320, 1412529280, 1438665216, 1380169344, 1654218880, 1271384192, 1888258304, 1754616192, 1862108928, 1586859904, 1134634496, 1359490432, 2011664256, 1437729536, 1324238592, 1733581184, 1108810368, 1415920384, 1129211392, 1470312704, 1631135616, 2027927040, 2134016640, 1431700864, 2045298688, 1185706624, 1902295168, 1761013760, 1709733376, 1315629568, 1188845184, 2037014528, 1236348032, 1220797056, 1165989248, 1429103744, 1251647104, 1836068736, 1868949504, 1193393792, 1406995200, 1661133696, 1870438656, 1081245184, 1374854400, 1489706368, 1081613952, 1301526912, 1427373568, 1182874240, 1075001344, 1181891584, 2042609792, 1461964672, 1117959552, 1249499136, 1185193344, 1400048768, 1564098816, 2051057664, 1101628416, 1444886656, 2067592832, 1334882816, 1399584000, 1586469120, 1886197888, 1583103360, 1871976832, 1654953088, 1996303360, 1664645376, 1683171456, 2099511040, 1128104192, 1420352000, 1495559040, 1749500672, 1148099072, 1339055232, 2013256960, 1430634624, 2119838080, 1448190464, 1618877952, 1231275520, 1343438080, 1294035712, 1441581952, 1217729152, 1254273024, 1248390912, 1422172928, 1434015488, 2140004480, 1113136896, 1754037248, 1612242944, 2099341056, 1694484480, 1356967040, 1176835456, 1285245824, 1118091136, 1790272128, 1339768192, 2085544192, 2080860288, 1320044288, 2139985536, 1592902528, 1133961984, 1091230848, 1239776768, 1115494272, 1601497856, 1271277440, 1491298816, 1736014080, 2051919616, 1097919872, 1201587840, 1902434048, 1386911232, 1757508608, 1435002368, 1880896128, 1559706880], pads = [0, 0, 0, 0], quant_mode = #tpu<rq_mode QDM>, relu_limit = -1.000000e+00 : f64, round_mode = #tpu<round_mode HalfUp>, rshift = [10, 10, 10, 10, 10, 10, 10, 9, 11, 11, 10, 10, 11, 10, 10, 9, 10, 10, 10, 10, 10, 10, 10, 10, 10, 10, 11, 10, 10, 10, 10, 10, 10, 9, 10, 11, 10, 10, 11, 10, 10, 10, 10, 10, 11, 10, 10, 10, 10, 10, 10, 11, 10, 10, 10, 11, 10, 11, 10, 10, 11, 10, 10, 10, 10, 10, 10, 10, 10, 10, 10, 10, 10, 10, 10, 11, 11, 10, 11, 10, 9, 10, 10, 10, 10, 10, 10, 10, 10, 10, 10, 10, 10, 10, 11, 10, 11, 10, 10, 10, 10, 11, 11, 11, 10, 10, 10, 11, 10, 10, 11, 10, 10, 10, 10, 9, 10, 11, 10, 11, 11, 10, 10, 10, 8, 10, 10, 10, 11, 10, 10, 10, 10, 9, 10, 10, 10, 11, 10, 10, 10, 10, 11, 10, 11, 10, 10, 10, 10, 10, 10, 10, 10, 10, 11, 10, 10, 10, 10, 10, 10, 10, 10, 10, 10, 11, 10, 11, 10, 11, 11, 10, 10, 11, 11, 10, 10, 10, 10, 11, 11, 9, 10, 9, 10, 10, 11, 10, 10, 10, 10, 10, 10, 11, 10, 10, 11, 10, 10, 10, 10, 10, 9, 10, 10, 10, 10, 11, 10, 10, 10, 11, 11, 10, 10, 11, 11, 10, 10, 7, 11, 10, 10, 10, 10, 10, 10, 10, 9, 11, 10, 10, 10, 10, 10, 11, 10, 10, 9, 10, 10, 11, 10, 10, 11, 10, 10, 11, 10, 10, 10, 10, 10, 10, 10, 10, 11, 10, 10, 10, 10, 10, 10, 10, 10, 10, 10, 9, 10, 10, 9, 10, 10, 10, 10, 11, 11, 10, 10, 10, 11, 10, 10, 11, 11, 9, 11, 10, 10, 10, 10, 10, 11, 8, 10, 10, 10, 10, 11, 10, 11, 10, 10, 10, 10, 10, 10, 10, 10, 10, 11, 10, 11, 10, 10, 10, 10, 10, 10, 10, 10, 9, 10, 10, 10, 11, 10, 10, 10, 10, 10, 10, 10, 10, 10, 10, 10, 10, 10, 11, 10, 10, 11, 10, 10, 10, 10, 8, 10, 11, 9, 11, 10, 11, 10, 10, 10, 10, 9, 10, 10, 10, 10, 9, 10, 10, 10, 10, 11, 11, 10, 10, 10, 10, 10, 10, 11, 10, 10, 10, 9, 10, 11, 10, 10, 10, 10, 10, 10, 9, 10, 10, 11, 10, 9, 10, 10, 10, 10, 10, 9, 10, 10, 10, 10, 11, 11, 10, 11, 10, 11, 10, 11, 9, 10, 11, 10, 10, 10, 9, 10, 10, 10, 10, 10, 10, 10, 10, 10, 10, 10, 10, 10, 10, 9, 10, 11, 11, 10, 9, 9, 10, 10, 11, 10, 10, 11, 10, 10, 10, 11, 10, 11, 10, 10, 10, 10, 11, 10, 10, 10, 10, 9, 10, 11, 10, 11, 10, 10, 10, 10, 10, 9, 10, 10, 10, 10, 10, 11, 8, 10, 10, 11, 10, 10, 10, 10, 10, 11, 10, 11, 11, 10, 10, 10, 10, 10, 10, 10, 10, 10, 10, 10, 11, 10, 10, 10, 10, 11, 10, 11, 10], strides = [1, 1], support_compress = true, use_3ic_optimize = 0 : i64, weight_is_coeff = 1 : i64, with_bias = true} : (tensor<1x768x7x10x!quant.uniform<i8:f32, 0.12726251023622048>>, tensor<512x768x1x1xsi8>, tensor<1x512x1x1xi32>) -> tensor<1x512x7x10x!quant.uniform<i8:f32, 0.17194342440944882>> loc(#loc175)
    %176 = "top.Weight"() : () -> tensor<1x1x1x256xsi8> loc(#loc176)
    %177 = "tpu.Lut"(%175, %176) : (tensor<1x512x7x10x!quant.uniform<i8:f32, 0.17194342440944882>>, tensor<1x1x1x256xsi8>) -> tensor<1x512x7x10x!quant.uniform<i8:f32, 0.1377606960629921>> loc(#loc177)
    %178 = "top.Weight"() : () -> tensor<256x512x1x1xsi8> loc(#loc178)
    %179 = "top.Weight"() : () -> tensor<1x256x1x1xi32> loc(#loc179)
    %180 = "tpu.Conv2D"(%177, %178, %179) {coeff_merged = false, dilations = [1, 1], do_relu = false, do_winograd = false, dynweight_reorderd = false, group = 1 : i64, kernel_shape = [1, 1], kernel_zp = 0 : i64, multiplier = [1377274496, 1384521472, 1630143488, 2014749824, 1194959616, 1789290880, 1280362496, 1202842880, 1303563648, 1299628544, 1321796608, 1488688000, 1304140288, 1822954624, 1666473856, 1567516928, 1417650944, 1116175488, 1294725248, 1485313408, 1555260160, 1385143296, 1086495232, 1254144384, 1430063104, 1695858432, 2082806656, 1443746816, 1827339904, 1904511744, 1101566848, 1154062336, 1894398720, 1205422976, 1169973888, 1364491136, 1478247168, 1365610496, 1489379328, 1468441728, 1273236608, 1500945408, 1685677824, 1180054528, 2058660480, 1261952896, 1294557696, 1273181312, 1729013760, 1853237760, 1417816832, 1389709184, 1844926080, 2089929600, 1085860864, 1199400064, 1814578048, 1386875904, 1320270720, 1751765888, 1911459840, 1378776064, 1748312576, 1304515072, 1830978816, 1376481408, 1445617152, 1214678016, 1560672896, 1983308416, 1338650368, 1416677760, 1086641536, 1075678336, 1465053952, 2124181120, 1129553152, 1452851584, 1892830976, 1654127104, 1874186880, 1414505216, 1457948416, 1169372544, 1374049792, 1284625408, 1194467456, 1665588224, 1458212480, 1397715328, 1626489472, 1712438912, 1639702912, 1343868928, 1611406592, 1716108416, 2062639744, 1225749760, 1552889984, 1315458432, 1843163520, 2067258368, 1210619520, 1088743808, 1610035840, 1439643136, 1434704640, 1225285632, 1097735552, 1990258816, 1097166464, 1431358336, 1478372864, 1578853888, 1701070720, 2005623680, 1408995712, 1956116224, 1611915776, 1834439040, 1077764224, 1502108672, 1444824576, 2000441472, 1951508608, 1894628992, 1348763392, 1362698240, 1275377792, 1342675968, 1315933440, 1526650240, 1649876096, 1940353664, 2109232128, 1507910400, 1189613056, 1279833600, 2031191552, 1726683520, 1365385216, 1977141760, 1742585728, 1333540480, 1395704064, 1222338688, 1898158336, 1413637376, 1458801664, 1975493888, 1323941120, 1095338368, 1388914816, 1539603072, 1087209728, 1198210816, 1433153408, 1939851392, 1387664128, 1080919424, 1342353792, 2021860992, 2002789376, 1123841152, 1431439232, 1559403904, 1984072064, 1557191936, 1195786240, 1326788992, 1112488832, 1240165504, 1252433920, 1526476032, 1519222528, 1619603584, 1709884288, 1341686656, 1605186304, 1135118080, 1930288256, 1197750912, 1401945984, 1285127680, 1578557952, 1592663296, 1457643136, 1267571456, 1681297024, 1246506368, 1088983936, 1298724352, 1099330688, 1284664704, 1692191232, 1629315072, 1151626240, 1301079936, 1243895296, 1569902464, 1463961856, 1587702016, 1347081344, 1779758976, 1298461312, 1288583808, 1447856128, 1204976896, 1110717440, 1429453056, 2140808448, 2019610496, 1599079552, 1207709952, 1318083712, 1346119168, 1999697664, 1511873280, 1480985472, 1970568064, 1727411968, 1720545792, 1494376832, 1281244160, 1602240000, 1822016128, 1390040192, 1573022592, 1308232448, 1678775424, 1239456000, 1268831616, 1659863552, 1340579968, 1118505728, 1809837440, 1224405504, 2056345344, 1509083392, 1645075456, 1440588416, 1783118592, 1633614336, 1726045056, 1929478912, 1916757760, 1573432704, 1618282880, 2097389184, 2076364032, 1510709376, 1856613376, 1261917312, 1221784064, 1181696512, 1753718528], pads = [0, 0, 0, 0], quant_mode = #tpu<rq_mode QDM>, relu_limit = -1.000000e+00 : f64, round_mode = #tpu<round_mode HalfUp>, rshift = [10, 10, 10, 11, 10, 10, 10, 10, 10, 10, 10, 10, 10, 10, 10, 10, 10, 7, 10, 9, 10, 10, 9, 10, 10, 10, 8, 10, 11, 11, 10, 10, 10, 10, 10, 10, 10, 10, 8, 10, 10, 10, 10, 10, 10, 10, 10, 10, 10, 9, 10, 10, 10, 11, 10, 9, 10, 10, 10, 10, 11, 10, 10, 9, 11, 10, 10, 10, 10, 11, 10, 10, 8, 9, 8, 11, 8, 10, 11, 10, 10, 10, 10, 10, 10, 10, 10, 10, 10, 10, 10, 10, 10, 10, 10, 10, 9, 10, 10, 10, 11, 11, 10, 9, 10, 10, 10, 9, 10, 11, 10, 10, 10, 9, 10, 11, 10, 10, 10, 10, 10, 10, 10, 11, 11, 11, 10, 10, 9, 10, 10, 10, 10, 9, 11, 10, 10, 10, 10, 10, 10, 10, 10, 10, 10, 10, 10, 10, 10, 11, 10, 9, 10, 9, 10, 10, 10, 11, 10, 10, 9, 11, 11, 10, 10, 9, 11, 10, 10, 10, 9, 10, 10, 10, 10, 10, 10, 10, 8, 10, 10, 10, 10, 9, 10, 10, 10, 10, 10, 8, 10, 10, 10, 10, 10, 10, 10, 10, 10, 10, 10, 9, 10, 10, 9, 10, 10, 10, 9, 10, 10, 10, 10, 10, 10, 10, 11, 10, 10, 11, 10, 10, 10, 10, 10, 10, 10, 10, 10, 10, 10, 10, 10, 10, 10, 10, 9, 10, 10, 10, 10, 10, 11, 10, 11, 10, 10, 10, 11, 10, 10, 10, 10, 9, 10, 9], strides = [1, 1], support_compress = true, use_3ic_optimize = 0 : i64, weight_is_coeff = 1 : i64, with_bias = true} : (tensor<1x512x7x10x!quant.uniform<i8:f32, 0.1377606960629921>>, tensor<256x512x1x1xsi8>, tensor<1x256x1x1xi32>) -> tensor<1x256x7x10x!quant.uniform<i8:f32, 0.13783644645669291>> loc(#loc180)
    %181 = "top.Weight"() : () -> tensor<1x1x1x256xsi8> loc(#loc181)
    %182 = "tpu.Lut"(%180, %181) : (tensor<1x256x7x10x!quant.uniform<i8:f32, 0.13783644645669291>>, tensor<1x1x1x256xsi8>) -> tensor<1x256x7x10x!quant.uniform<i8:f32, 0.18272077007874016>> loc(#loc182)
    %183 = "tpu.Pool2D"(%182) {count_include_pad = false, do_relu = false, first_round_mode = #tpu<round_mode HalfAwayFromZero>, is_adaptive = false, keepdims = true, kernel_shape = [5, 5], pad_value = 0 : i64, pads = [2, 2, 2, 2], pool_mode = #tpu<pool_mode Max>, relu_limit = -1.000000e+00 : f64, round_mode = #tpu<round_mode HalfAwayFromZero>, strides = [1, 1]} : (tensor<1x256x7x10x!quant.uniform<i8:f32, 0.18272077007874016>>) -> tensor<1x256x7x10x!quant.uniform<i8:f32, 0.18272077007874016>> loc(#loc183)
    %184 = "tpu.Pool2D"(%183) {count_include_pad = false, do_relu = false, first_round_mode = #tpu<round_mode HalfAwayFromZero>, is_adaptive = false, keepdims = true, kernel_shape = [5, 5], pad_value = 0 : i64, pads = [2, 2, 2, 2], pool_mode = #tpu<pool_mode Max>, relu_limit = -1.000000e+00 : f64, round_mode = #tpu<round_mode HalfAwayFromZero>, strides = [1, 1]} : (tensor<1x256x7x10x!quant.uniform<i8:f32, 0.18272077007874016>>) -> tensor<1x256x7x10x!quant.uniform<i8:f32, 0.18272077007874016>> loc(#loc184)
    %185 = "tpu.Pool2D"(%184) {count_include_pad = false, do_relu = false, first_round_mode = #tpu<round_mode HalfAwayFromZero>, is_adaptive = false, keepdims = true, kernel_shape = [5, 5], pad_value = 0 : i64, pads = [2, 2, 2, 2], pool_mode = #tpu<pool_mode Max>, relu_limit = -1.000000e+00 : f64, round_mode = #tpu<round_mode HalfAwayFromZero>, strides = [1, 1]} : (tensor<1x256x7x10x!quant.uniform<i8:f32, 0.18272077007874016>>) -> tensor<1x256x7x10x!quant.uniform<i8:f32, 0.18272077007874016>> loc(#loc185)
    %186 = "tpu.Concat"(%182, %183, %184, %185) {axis = 1 : si32, do_relu = false, multipliers = [1, 1, 1, 1], only_merge = true, relu_limit = -1.000000e+00 : f64, rshifts = [0, 0, 0, 0]} : (tensor<1x256x7x10x!quant.uniform<i8:f32, 0.18272077007874016>>, tensor<1x256x7x10x!quant.uniform<i8:f32, 0.18272077007874016>>, tensor<1x256x7x10x!quant.uniform<i8:f32, 0.18272077007874016>>, tensor<1x256x7x10x!quant.uniform<i8:f32, 0.18272077007874016>>) -> tensor<1x1024x7x10x!quant.uniform<i8:f32, 0.18272077007874016>> loc(#loc186)
    %187 = "top.Weight"() : () -> tensor<512x1024x1x1xsi8> loc(#loc187)
    %188 = "top.Weight"() : () -> tensor<1x512x1x1xi32> loc(#loc188)
    %189 = "tpu.Conv2D"(%186, %187, %188) {coeff_merged = false, dilations = [1, 1], do_relu = false, do_winograd = false, dynweight_reorderd = false, group = 1 : i64, kernel_shape = [1, 1], kernel_zp = 0 : i64, multiplier = [1885688960, 1086307840, 1111245440, 1622445824, 1343739520, 1350516096, 1449085440, 1634293760, 1181595520, 2066407552, 1199486720, 1976951040, 1074775296, 1426492544, 1825572736, 1155010176, 1721741184, 1676428288, 1747473664, 1096220800, 1385571712, 1548221184, 1497988608, 1530398080, 1477344896, 1981348480, 1984936320, 1456382592, 1724554240, 2103567616, 1372200448, 1188188544, 1748926720, 1319969664, 1347651840, 1889477504, 1116599424, 2079291904, 1580537216, 1116577280, 1230589312, 1601474816, 1725150848, 1244668544, 1187129344, 1093355392, 1392065792, 1766404864, 1427801088, 1246101376, 1550683392, 2118336640, 1493133696, 1223589504, 1315782144, 1713826304, 1416833792, 1197463936, 1538773248, 1219495936, 1926478208, 1484304256, 2028752512, 1279742208, 1399404672, 1118807680, 1546207104, 2035155072, 1478054400, 1090299520, 1876996992, 1932124032, 1930370816, 1180368768, 1315376896, 1375048320, 1083585792, 1101360000, 1927475456, 2005664384, 1214714368, 2096527360, 1181877504, 1811153408, 1131520512, 1370538112, 2097505664, 1974519168, 1631005440, 1822450176, 1154878464, 1602937600, 1852763904, 1699730304, 1134966912, 1893197824, 1624251264, 1135858944, 1581120896, 1707182976, 1098675968, 1814024960, 1130634624, 1511615232, 1437469440, 1609161216, 1974925184, 1580005888, 2012809728, 1277756032, 1903076864, 1457633408, 1483631232, 1741744128, 1501084160, 1421360640, 1285599744, 1822686848, 1447804544, 1487647488, 1746708864, 1698719488, 1527755904, 1349301376, 1327565952, 1101974912, 1475207296, 1938633088, 1337820544, 1735994112, 1542406016, 1096413184, 1452338176, 2022812160, 1704503424, 1757900672, 1109623168, 1616911232, 1804279296, 1344093696, 1787557888, 1253004672, 1537470592, 1230617728, 1364618368, 2006259968, 1198272640, 1808341376, 1255888128, 1280631936, 1359852032, 1100922752, 1402650624, 1384742912, 1195777792, 1888897536, 1984721024, 1092523520, 1096209920, 1131688576, 1740809600, 1350653312, 1294499584, 1559652736, 1512384000, 1699613056, 1794424192, 1438041984, 1491924480, 1845691008, 1412507648, 1350356992, 1853003520, 1591019008, 1586640512, 1448411008, 1216044032, 1726163968, 1794659968, 2090719616, 1334721920, 1966370048, 1909838208, 1676238464, 1699334784, 1634220544, 1745572992, 1452688896, 1309891328, 1510515200, 1507252608, 1297707008, 1320676096, 1226895872, 1288195200, 1548789632, 1178341248, 1193142784, 1859292928, 1484302592, 1581569536, 1472966528, 1964089984, 1500191232, 1990974592, 1637397760, 1386281984, 2087229952, 1847097216, 1576554112, 1363577728, 1148089088, 1098052992, 1745095552, 1517470848, 1978702720, 1252056448, 2018553984, 1797251072, 1299202048, 1408425216, 1912431616, 1159239424, 1089933184, 1727870848, 1748867712, 1931869824, 1722294400, 1519777152, 1894528768, 1440595712, 1196411264, 1107151744, 1696790144, 1429607296, 1180111872, 2094871936, 1686981376, 1368961792, 1270647424, 1913811712, 1189797760, 1228096128, 2069712128, 1403578240, 1823036800, 1218040832, 2123348224, 1337791616, 1186693248, 1997881088, 1150711680, 1726756992, 1214274560, 1109684992, 1282320000, 2011781376, 1184356096, 1741655936, 1124310656, 1558497792, 1264539648, 1390404480, 1379889024, 1500564096, 1553397504, 1446800128, 1417425792, 1963977088, 1156357632, 1223112448, 1250443904, 1588818688, 2136974208, 1854260736, 1624500864, 1606343552, 1919136512, 1211362560, 1306892800, 1543688320, 1566943744, 1362241536, 1817383808, 1295076352, 1994245760, 1314645760, 1795928704, 2092651136, 1915929728, 1315748480, 1752499584, 1990537600, 1462128768, 1561484416, 1218786944, 1403990144, 1800184448, 1156721536, 1506784640, 2006023040, 1238626304, 1154849024, 1480860928, 1840803968, 1869513600, 1953376896, 1088896896, 1658520704, 1998731136, 1227007872, 1516870016, 1804716032, 1929151872, 1541276288, 1300521984, 1189271936, 1851285760, 1726646656, 1189994112, 1960111104, 1160743296, 1501097984, 1656800256, 1513675648, 1287815808, 1204999552, 1730739328, 1498449280, 1411823488, 1156367744, 1520218880, 1361683584, 1814542336, 1138410112, 1263274752, 1825800704, 1079906688, 1892369152, 1108556928, 1548413568, 1488135680, 1658634240, 1609373184, 1776146176, 1204920192, 1211629696, 1819001344, 1589817088, 2046659456, 1536033408, 1099321728, 1881757696, 1668505088, 1297497856, 1598765696, 1188203008, 1859916544, 1365220096, 1225915392, 1224939520, 1503833088, 1535587328, 1717877376, 1426900352, 1983335680, 1786168704, 1079036544, 1826499584, 1408888064, 1295111296, 1894316288, 1645589760, 1692589568, 1743375104, 1434842752, 1367674368, 1253216128, 1077891712, 2111930624, 2054079488, 1951664256, 1296518784, 1840686080, 1893767552, 1621120384, 1514797824, 2050019584, 1768272512, 1368331008, 1312287616, 2082131200, 1991619328, 1262092928, 1843807360, 1253407872, 1111138944, 1842195072, 1906197376, 1479863296, 1705759488, 2011994368, 1207971200, 1992993920, 1189138176, 1128642048, 1876300544, 1572093440, 1653174016, 1460309632, 1182506496, 1622938752, 1128867328, 1338500992, 1680257664, 1651305216, 2106481408, 1162235648, 1175604224, 1800076160, 1817836032, 1683186432, 1655183872, 1481091072, 1323523072, 1670797056, 1464825472, 1559470208, 1270907392, 1536030592, 1242872832, 1265146880, 1407708416, 1646155520, 2027304832, 1768605440, 1135260288, 1593895168, 1573779712, 1086141952, 1644626048, 1467081344, 1891381248, 1279166848, 1511326720, 1114228224, 1375626880, 1526635264, 1594038784, 1367675776, 1174841216, 1440548096, 2016057344, 1487574272, 2082136576, 1824827648, 1260013568, 2063264256, 1886951680, 1226856192, 1241909632, 2124697472, 1318226944, 2048788096, 1291204864, 1233432576, 1626683392, 1916280832, 1426261888, 1993273856, 2042225280, 1517855744, 1758886784, 1217771264, 1788289408, 1824690048, 1102705920, 2093272448, 1151182080, 1587032960, 1330430848, 1656904448, 1292684928, 1845406336, 1570213760, 1746506240, 1121595264, 1517965568, 1409388160, 1740399488, 1480553600, 1479968000, 1733154816, 1192790016, 1884965888, 1413455744, 1314489728, 1654730624, 1477381888, 1509570944, 1234957184, 1305483008, 1883815296, 2007506432, 1237702272, 1488442624, 1754308480, 2018845184, 1274577408, 1735058944, 1334407168, 1616296704], pads = [0, 0, 0, 0], quant_mode = #tpu<rq_mode QDM>, relu_limit = -1.000000e+00 : f64, round_mode = #tpu<round_mode HalfUp>, rshift = [11, 11, 10, 11, 10, 11, 10, 11, 10, 11, 11, 11, 10, 11, 11, 10, 11, 11, 11, 11, 11, 11, 11, 11, 11, 10, 11, 11, 11, 11, 11, 10, 11, 11, 10, 11, 10, 10, 11, 9, 9, 10, 11, 11, 10, 10, 11, 11, 10, 11, 11, 11, 9, 11, 11, 12, 11, 10, 11, 10, 11, 10, 11, 11, 11, 11, 10, 11, 11, 9, 10, 11, 10, 11, 11, 10, 11, 10, 11, 10, 11, 12, 11, 11, 10, 11, 11, 11, 11, 11, 11, 11, 11, 11, 10, 11, 11, 10, 11, 11, 10, 11, 11, 10, 11, 11, 11, 10, 11, 10, 11, 11, 11, 11, 11, 11, 10, 12, 10, 11, 11, 10, 11, 11, 10, 11, 11, 10, 11, 10, 11, 10, 11, 11, 10, 11, 10, 10, 11, 11, 12, 11, 11, 11, 10, 11, 10, 11, 10, 11, 11, 10, 11, 10, 11, 11, 10, 10, 10, 11, 11, 11, 10, 10, 10, 11, 11, 11, 11, 11, 10, 11, 10, 11, 11, 11, 11, 11, 11, 11, 11, 10, 11, 11, 11, 11, 11, 11, 10, 11, 11, 11, 9, 11, 11, 10, 11, 10, 11, 11, 10, 11, 11, 10, 11, 11, 11, 10, 11, 11, 11, 8, 11, 11, 11, 11, 11, 11, 11, 11, 9, 11, 10, 9, 11, 8, 10, 10, 11, 10, 11, 10, 10, 11, 11, 10, 11, 11, 11, 10, 11, 11, 11, 12, 10, 11, 10, 11, 11, 9, 11, 11, 11, 8, 11, 9, 10, 11, 11, 10, 10, 10, 11, 11, 11, 10, 10, 11, 12, 10, 11, 11, 11, 11, 11, 10, 11, 10, 11, 11, 12, 10, 10, 11, 10, 11, 11, 11, 11, 11, 10, 11, 11, 10, 9, 11, 11, 11, 10, 11, 11, 10, 11, 11, 11, 11, 12, 10, 11, 12, 11, 11, 11, 10, 11, 10, 11, 11, 11, 10, 12, 11, 11, 11, 11, 11, 10, 11, 11, 11, 10, 11, 11, 11, 10, 11, 11, 11, 11, 10, 11, 11, 12, 11, 11, 11, 11, 12, 11, 11, 11, 11, 11, 11, 11, 10, 10, 12, 10, 11, 11, 11, 11, 11, 11, 11, 11, 11, 11, 10, 10, 11, 11, 11, 11, 11, 10, 11, 10, 12, 11, 11, 10, 11, 11, 11, 11, 12, 12, 11, 11, 11, 12, 12, 10, 10, 10, 11, 11, 10, 11, 12, 11, 11, 11, 10, 11, 11, 11, 10, 11, 11, 10, 11, 11, 11, 12, 10, 10, 11, 11, 11, 11, 11, 11, 11, 11, 11, 11, 11, 11, 10, 11, 11, 11, 11, 10, 9, 10, 10, 11, 11, 11, 11, 11, 11, 10, 10, 10, 11, 10, 11, 11, 11, 11, 11, 11, 11, 11, 10, 10, 10, 11, 11, 10, 11, 10, 11, 11, 11, 12, 11, 11, 11, 11, 11, 11, 11, 11, 11, 11, 10, 10, 11, 11, 11, 10, 10, 10, 11, 11, 11, 10, 10, 11, 11, 11, 11, 11, 11, 10, 10, 10, 11, 10, 11, 11, 11, 11, 12, 11, 11], strides = [1, 1], support_compress = true, use_3ic_optimize = 0 : i64, weight_is_coeff = 1 : i64, with_bias = true} : (tensor<1x1024x7x10x!quant.uniform<i8:f32, 0.18272077007874016>>, tensor<512x1024x1x1xsi8>, tensor<1x512x1x1xi32>) -> tensor<1x512x7x10x!quant.uniform<i8:f32, 0.10026667401574803>> loc(#loc189)
    %190 = "top.Weight"() : () -> tensor<1x1x1x256xsi8> loc(#loc190)
    %191 = "tpu.Lut"(%189, %190) : (tensor<1x512x7x10x!quant.uniform<i8:f32, 0.10026667401574803>>, tensor<1x1x1x256xsi8>) -> tensor<1x512x7x10x!quant.uniform<i8:f32, 0.033823980314960631>> loc(#loc191)
    %192 = "top.Weight"() : () -> tensor<512x512x1x1xsi8> loc(#loc192)
    %193 = "top.Weight"() : () -> tensor<1x512x1x1xi32> loc(#loc193)
    %194 = "tpu.Conv2D"(%191, %192, %193) {coeff_merged = false, dilations = [1, 1], do_relu = false, do_winograd = false, dynweight_reorderd = false, group = 1 : i64, kernel_shape = [1, 1], kernel_zp = 0 : i64, multiplier = [1676096768, 1213327232, 1115500032, 1388208640, 1606318720, 1213609088, 2121732096, 1125296896, 1226948352, 1074435712, 1120442752, 1861798528, 1885731968, 1085333632, 1222852608, 1130779264, 1982542464, 1143764736, 1306820352, 1137859584, 1221523584, 2141767680, 1176869248, 1903778304, 1582919168, 1475406848, 1084331136, 1389875840, 1176255488, 1124467072, 1995207040, 1686754816, 1602046848, 1189239680, 1377288832, 1246201728, 1493042816, 1573317504, 1155054720, 1401876864, 1516283264, 1517463168, 1246135296, 2116602112, 1363086080, 1617054208, 1439146624, 1198994816, 1772238336, 1655095936, 1495037696, 1318068736, 1914077568, 1191525248, 1099666560, 1435380864, 1116059904, 1092275456, 1094110848, 1206024064, 1630461696, 1073768320, 1104889728, 2023020288, 1618945792, 1850464640, 1092384512, 1498066816, 1930991872, 1622352256, 1240275200, 1264036352, 1578557824, 1331741568, 1164199168, 1119823744, 1248544128, 1256667520, 1500624256, 1685001088, 1176167168, 1260502400, 1116560512, 1084772736, 1450663168, 1654362112, 2001865344, 2084684160, 1954410752, 1649533312, 1284327168, 1513816448, 2113396352, 1991944704, 1365454080, 2080672256, 1663627008, 1510133504, 1277045120, 1932224768, 1965362560, 1348184576, 1237871616, 1859691008, 1104765312, 1246946176, 1428154112, 1077173376, 1883927040, 1176446848, 1854888576, 1217867904, 1823702144, 1242237696, 1874559616, 1396976896, 1339385088, 1770611200, 1128275712, 1180336896, 1792613504, 1294092032, 1232524928, 1335822080, 1277253376, 2127948160, 1397597824, 2028418816, 1159715328, 1862733312, 1167258368, 1238195200, 1674199552, 1997422720, 1281418880, 1164893824, 1121029504, 1264155904, 1740829184, 1632287872, 2105032832, 1580167168, 1144261504, 1160161536, 1621709312, 1415714048, 1830435712, 1115218688, 1103553664, 1410976128, 1130026624, 1284946304, 1997476096, 1363219200, 1110048128, 1861860864, 1366790784, 1288963456, 1267835008, 2098060288, 1865981056, 2035015808, 2093693184, 1361888256, 1813699072, 1276297600, 1124559232, 1234994560, 1377989632, 1233380992, 2081958656, 2030090368, 1204749056, 2133344512, 1957777024, 1955401216, 1640751104, 2035366272, 1414673408, 1563809920, 1252424832, 1438706688, 1316381440, 1735721216, 1423851136, 1920052480, 1434670592, 1922593664, 1869526144, 2072737536, 1593437952, 2147008128, 2127334784, 1272222464, 1211501568, 1306428288, 1287313664, 1185457536, 1306792576, 2116786816, 1083850368, 2076669824, 1168852224, 1113697536, 1376384896, 1259557504, 1368279296, 1400334080, 1420516864, 1099997568, 1599242624, 1120754048, 1657199744, 1147865856, 1142731904, 1089077632, 1670608896, 1415916800, 2028451456, 1797629056, 1984255488, 1162530688, 2031266816, 1812699264, 1680872064, 1545173888, 1335767936, 1373368192, 1693890304, 1358929024, 1211862272, 1112086272, 1302113536, 1827822208, 1459848576, 1265479552, 1098195072, 1101081984, 1211775104, 1731096320, 1946922368, 1153866368, 1187906816, 2062601728, 1931237760, 1986549248, 1180623104, 1128294912, 1349841536, 1741597056, 1308045440, 1108609152, 1143512960, 1383757056, 1303117824, 1573628928, 1439535104, 2137385216, 1100942464, 1664025984, 1312212096, 1727542528, 1214094720, 1149555968, 1555088256, 1906215808, 1428259584, 1214676736, 1421582592, 1538265984, 1080127360, 1780496512, 1919390208, 1073932032, 1759515264, 1881763456, 1138414208, 1737490944, 1361956608, 1136161536, 1985403264, 1735216000, 1416471552, 1348653056, 1089792512, 1679740800, 1475341824, 1721926016, 1888566400, 1463574016, 1978966400, 1399512704, 1610921856, 1473175296, 1917635840, 1729233280, 2059635712, 1212655104, 1898110976, 1111701760, 2114259456, 1421454720, 2081149440, 1079056000, 1186472448, 1074817536, 2121120128, 1459147648, 1448871808, 1342760192, 1706938880, 1232222464, 2006666112, 1323027200, 1599977088, 1080039552, 1638023680, 1824061312, 1562566656, 1887381632, 1117793920, 1814050816, 1334433152, 1316749184, 1401246848, 1197533312, 1305662848, 1150098432, 1742914176, 1179224448, 1777226112, 1204027136, 1852859008, 1222773888, 1396796800, 1404455040, 1826928640, 1170491392, 1229209216, 1841752832, 1886323840, 1800008064, 1917003904, 1117429888, 1116598912, 1397778304, 1730984576, 1457774592, 1324746368, 1825472768, 1279926912, 1683074944, 1652358016, 2124764032, 1205052928, 1666118016, 1896313088, 1444215808, 1211641344, 1662086272, 1102984704, 1524603648, 1764362496, 1396764672, 1559253632, 1915366400, 1270223232, 1472469632, 2017091840, 1167948800, 1499910784, 1123862656, 1967192704, 1785514752, 1245992960, 1871659264, 1130347008, 1855696640, 2006092928, 1105655168, 1552714624, 2139619456, 1550910080, 1796387456, 1309628544, 1503473408, 1572492544, 1657119232, 1981315968, 1475632384, 1906933888, 1151008384, 1781354752, 1925483264, 1232546048, 2142220160, 1929094144, 1192801920, 1360703360, 1844058368, 1358782976, 1645172480, 1117429248, 1132391680, 2010327040, 1827035392, 2144787072, 1884805120, 2089781120, 1582499328, 1879734656, 1933576064, 1567106944, 1217937280, 1177786624, 1264311680, 2016002304, 1755753856, 1840440192, 1385882752, 1824702080, 1566832512, 1698422144, 1279352832, 1216289664, 1560899200, 1908668416, 1358018688, 2118134656, 2057468928, 1133471872, 1128205696, 1572472704, 1790612992, 1164251776, 1512413824, 2130569984, 1572008832, 1831291776, 1075464320, 1427244672, 1795456256, 1766333824, 1573869952, 2140273280, 1296255744, 1667462400, 1718423424, 1186139264, 1434784896, 1469972992, 1627815936, 1755558144, 1827444864, 1957579904, 1215759616, 1078409600, 1449474304, 1948028160, 1450251520, 1120774528, 1420191360, 1263660288, 1400728064, 1322644480, 1519928192, 1664077312, 1519089792, 1089383936, 1600576768, 1207022720, 1877714176, 1692285312, 1371219840, 2037604352, 1481970304, 1177694848, 1830930176, 1207136000, 1546689792, 1671043456, 1126773504, 1153796480, 1852980864, 1103083008, 1965308288, 1152178944, 1586194688, 1378080896, 1844514176, 1734254592, 1677127040, 1131136128, 1962047360, 1905007232, 1816878848, 1503452160, 1704767104, 1158931200, 2114728064, 1605703296, 2060906624, 1909420672, 1617342080, 1370092032, 1816620416, 1546130688, 1929764992, 1598625280, 1142488704, 1941339392, 1607700480], pads = [0, 0, 0, 0], quant_mode = #tpu<rq_mode QDM>, relu_limit = -1.000000e+00 : f64, round_mode = #tpu<round_mode HalfUp>, rshift = [10, 10, 10, 10, 10, 10, 11, 10, 10, 10, 10, 11, 11, 10, 10, 10, 11, 10, 10, 10, 10, 11, 10, 11, 10, 10, 10, 10, 10, 10, 11, 11, 10, 10, 10, 10, 10, 10, 10, 10, 10, 10, 10, 11, 10, 10, 10, 10, 10, 10, 10, 10, 11, 10, 10, 10, 10, 10, 10, 10, 11, 10, 10, 11, 10, 11, 10, 11, 10, 11, 10, 10, 11, 10, 10, 10, 10, 10, 9, 10, 10, 10, 10, 10, 10, 10, 11, 11, 11, 10, 10, 10, 11, 11, 10, 11, 10, 10, 10, 11, 11, 10, 10, 11, 10, 10, 10, 10, 11, 10, 11, 10, 10, 10, 10, 10, 10, 11, 10, 10, 10, 10, 10, 10, 10, 11, 10, 11, 10, 10, 10, 10, 10, 11, 10, 10, 10, 10, 11, 9, 11, 10, 10, 10, 10, 10, 10, 10, 10, 10, 10, 10, 11, 9, 9, 10, 10, 10, 10, 11, 11, 11, 11, 10, 11, 10, 10, 10, 10, 10, 11, 11, 9, 11, 11, 11, 10, 11, 10, 10, 10, 10, 10, 11, 10, 11, 10, 10, 10, 11, 10, 11, 11, 10, 10, 10, 10, 10, 10, 11, 10, 11, 10, 10, 10, 10, 10, 10, 10, 10, 10, 9, 10, 9, 9, 10, 10, 10, 11, 11, 11, 8, 11, 11, 10, 10, 10, 10, 11, 10, 10, 10, 10, 10, 10, 10, 10, 10, 10, 10, 11, 10, 10, 11, 11, 11, 10, 10, 10, 10, 10, 10, 10, 10, 10, 10, 11, 11, 9, 11, 10, 10, 10, 10, 10, 11, 10, 10, 10, 11, 10, 10, 11, 10, 9, 10, 10, 9, 10, 9, 11, 11, 10, 8, 10, 11, 11, 11, 11, 10, 11, 10, 10, 11, 10, 11, 10, 10, 11, 10, 11, 11, 11, 10, 11, 10, 11, 11, 11, 10, 11, 10, 11, 10, 11, 10, 11, 10, 11, 11, 8, 11, 10, 10, 10, 10, 10, 10, 11, 11, 11, 8, 11, 10, 11, 9, 11, 10, 10, 11, 10, 11, 10, 9, 9, 10, 11, 11, 10, 11, 10, 11, 11, 11, 10, 11, 10, 11, 8, 11, 10, 11, 11, 10, 11, 10, 10, 10, 11, 10, 10, 10, 11, 11, 10, 11, 8, 11, 11, 10, 11, 11, 10, 10, 10, 11, 10, 11, 11, 11, 10, 9, 11, 11, 10, 10, 11, 10, 11, 9, 10, 10, 10, 10, 9, 10, 10, 11, 10, 10, 11, 11, 11, 9, 9, 10, 11, 11, 11, 10, 11, 9, 11, 10, 10, 11, 11, 10, 11, 11, 10, 10, 10, 11, 10, 11, 11, 10, 11, 10, 10, 11, 11, 10, 11, 10, 11, 11, 10, 10, 8, 11, 11, 10, 11, 9, 10, 11, 11, 9, 10, 9, 10, 11, 10, 10, 11, 10, 10, 11, 10, 11, 10, 10, 11, 11, 10, 11, 10, 10, 11, 11, 10, 11, 10, 11, 10, 11, 10, 10, 10, 10, 10, 9, 10, 11, 10, 11, 10, 11, 11, 11, 11, 10, 11, 10, 11, 11, 10, 9, 11, 11], strides = [1, 1], support_compress = true, use_3ic_optimize = 0 : i64, weight_is_coeff = 1 : i64, with_bias = true} : (tensor<1x512x7x10x!quant.uniform<i8:f32, 0.033823980314960631>>, tensor<512x512x1x1xsi8>, tensor<1x512x1x1xi32>) -> tensor<1x512x7x10x!quant.uniform<i8:f32, 0.17076360157480314>> loc(#loc194)
    %195 = "top.Weight"() : () -> tensor<1x1x1x256xsi8> loc(#loc195)
    %196 = "tpu.Lut"(%194, %195) : (tensor<1x512x7x10x!quant.uniform<i8:f32, 0.17076360157480314>>, tensor<1x1x1x256xsi8>) -> tensor<1x512x7x10x!quant.uniform<i8:f32, 0.068039255905511811>> loc(#loc196)
    %197 = "tpu.Slice"(%196, %0, %0, %0, %0) {axes = [], ends = [9223372036854775807, 256, 9223372036854775807, 9223372036854775807], hasparamConvert_axes = [1], offset = [0, 0, 0, 0], steps = [1, 1, 1, 1]} : (tensor<1x512x7x10x!quant.uniform<i8:f32, 0.068039255905511811>>, none, none, none, none) -> tensor<1x256x7x10x!quant.uniform<i8:f32, 0.068039255905511811>> loc(#loc197)
    %198 = "tpu.Slice"(%196, %0, %0, %0, %0) {axes = [], ends = [9223372036854775807, 512, 9223372036854775807, 9223372036854775807], hasparamConvert_axes = [1], offset = [0, 256, 0, 0], steps = [1, 1, 1, 1]} : (tensor<1x512x7x10x!quant.uniform<i8:f32, 0.068039255905511811>>, none, none, none, none) -> tensor<1x256x7x10x!quant.uniform<i8:f32, 0.068039255905511811>> loc(#loc198)
    %199 = "top.Weight"() : () -> tensor<512x256x1x1xsi8> loc(#loc199)
    %200 = "top.Weight"() : () -> tensor<1x512x1x1xi32> loc(#loc200)
    %201 = "tpu.Conv2D"(%198, %199, %200) {coeff_merged = false, dilations = [1, 1], do_relu = false, do_winograd = false, dynweight_reorderd = false, group = 1 : i64, kernel_shape = [1, 1], kernel_zp = 0 : i64, multiplier = [1659315712, 1276331392, 1972760192, 1474800384, 1180840960, 1337620608, 1268540416, 1326665216, 1434500224, 2113938560, 1843190912, 1584502016, 1111971072, 1253096960, 1201854464, 1905915776, 1331640448, 1309499904, 1088440960, 1400355328, 1978614656, 1135174656, 1229649920, 1961005696, 1077723136, 1932283776, 1264640000, 1979262208, 1729045632, 1348347520, 1334145920, 1292635648, 1552613504, 1705639296, 1844493952, 1844832384, 1627665664, 1438790400, 1579084672, 1077570560, 1258828288, 1076174592, 1500895744, 1452734592, 1930854656, 1519051776, 1958319360, 1739662080, 1932030592, 1551052544, 1309802112, 1644199936, 1944483712, 1697838080, 1820016640, 1612844672, 1074968576, 1291954688, 1258275200, 1360726528, 1670213376, 1998772608, 1683554304, 1866357504, 1386784384, 1656422016, 1981501952, 1238594432, 1891367936, 1833015552, 1970090368, 1757275520, 1810007552, 1224537856, 1913260416, 1815227264, 1648186112, 1324639616, 2043994752, 2028449152, 1165681920, 2132166272, 1107396608, 1266792192, 1626151552, 1527341952, 1756226816, 2010496256, 1584073600, 1593356800, 1082360832, 1653256704, 1091508992, 1548221056, 1503876352, 1196483328, 1819350016, 1095186048, 1612328960, 1309373184, 1133619968, 1890611456, 1557068032, 1457244800, 1532678784, 1766436480, 1562484352, 1687542528, 1424735488, 1427961600, 2094499456, 1265385728, 1955960960, 1186394368, 1132807168, 1797954688, 1813501056, 1359893248, 1219103744, 1408106368, 1592561920, 1510794112, 2038279808, 2086434944, 1141284608, 1445888256, 1746018688, 1975695104, 2088823168, 1097392384, 1495961216, 1108363648, 1985251584, 1558798336, 1812550784, 1280462080, 1370598912, 1228784000, 1428343680, 1262713984, 1713374720, 1358529536, 2122545024, 1810140928, 1267829504, 1443459968, 1128995712, 1385073664, 1420593536, 1625061248, 1852155392, 1359167744, 1152640128, 1905327616, 1183184384, 1550627712, 1078486912, 1825695616, 1611590400, 1177212288, 1918657536, 1837100928, 2120803712, 1674172160, 1232884736, 1136639872, 1515105664, 1515711744, 1489369728, 1147819648, 1795004032, 1346540288, 2106100608, 1125607040, 1646809984, 1260886016, 1679664768, 1329282176, 1933491712, 1457061632, 1232651776, 1442987776, 1930314752, 1592264064, 1949154432, 1408353664, 1983756800, 1926150400, 1264599168, 1873432704, 1864453888, 2046836992, 1082671872, 1559319040, 1688514304, 2017055104, 1325940096, 1133573376, 1305420672, 1744635008, 1108286080, 1128014208, 1486833536, 1931002880, 1929567872, 1916977792, 1179815168, 1887608832, 1153027200, 1117587584, 2108728704, 1352040704, 1185649536, 1368564480, 1934177536, 1304115840, 1259332736, 1935079808, 1346121216, 1149473664, 1580410624, 2027378432, 1848817408, 1197519488, 1230730496, 1318508800, 1289497216, 1730251520, 1409773952, 1209548672, 2105474816, 2135329792, 1115604992, 1199997312, 1393141760, 1185351040, 1168627584, 1614482176, 1752243840, 1475607168, 1577281664, 1994443520, 1673518464, 1272306048, 1355259136, 1199562880, 2134320128, 1998818944, 1093447296, 2104201088, 2095824000, 1597247872, 1672700032, 1732439936, 2143568512, 1298051328, 1338290816, 1575456128, 1936449664, 2000047232, 1413800448, 1616933888, 1335099264, 1195504000, 1377412096, 1890817280, 2043336576, 1742674304, 1535708544, 1410291328, 2021009792, 1858435072, 2111186688, 1201865472, 1230011520, 1099063296, 1520437376, 1745826048, 1756089088, 1611137536, 1807160448, 1914414976, 1835765376, 2007999872, 1734372352, 2023606656, 1126657280, 1803701248, 1803505408, 1903572480, 1198413056, 1909456768, 2064796928, 1863290240, 2027515520, 1556463360, 1554972672, 1857885824, 1111336064, 1108309760, 1711451904, 1242813696, 1722384128, 1359642624, 1475948544, 1519797376, 1425053312, 1423288576, 1512698112, 1892481536, 1473865728, 2011218560, 1167184512, 1414691200, 1599642880, 1375243136, 1376691072, 1189559808, 1243562368, 1160701312, 1278457344, 2125932928, 1287686784, 1225990656, 1198533120, 1159450112, 1151903104, 1966396032, 1348310912, 1874892160, 2039320704, 1432202240, 2070391296, 1236991360, 1203103616, 1538437248, 1387574272, 1639716736, 1757007232, 1895490944, 1413112320, 1756555648, 1419275392, 1502431360, 1215834368, 2108437248, 1525410816, 1805622400, 1566217472, 1401986944, 1266165120, 1543590144, 1232162048, 1862722048, 1974090752, 1510145152, 1522652032, 1564009984, 1139949952, 1413078528, 1295220480, 1657973888, 2040247680, 1762727552, 1395589120, 1873335168, 1365018752, 2116123008, 2119900160, 1666685312, 2097883904, 1205052416, 1781803136, 1486430208, 1137164160, 1252559232, 1139206912, 2070840192, 1458895744, 1397779712, 1146177664, 1271078912, 1106982784, 1098415360, 1979542400, 1158503680, 1446796544, 1158734976, 1845809536, 2065308544, 1962809216, 1704429312, 1997706880, 1950096512, 1671595904, 1752836992, 1529618304, 1425767296, 1325402496, 1484438528, 1482898176, 2042520064, 1294135424, 1913514624, 1426778368, 1271899264, 1579410048, 1098446720, 1856500608, 2100245888, 1722368768, 1737926400, 1559324160, 2009587840, 1837966848, 1952213888, 1428483840, 1185917568, 1716507136, 1690970112, 1945004544, 1125778176, 2006348800, 1242653312, 1076563456, 1858322560, 1358443776, 1865317376, 2076359296, 1878709760, 1240835584, 1725099136, 1291562624, 1463305984, 2101056640, 1655521792, 1270082048, 2140835840, 1104121216, 1997388416, 1233019136, 1318557440, 1358956416, 1978434432, 1438140288, 1131492224, 2069114240, 1913907328, 1536081408, 1162127232, 1854950912, 2015206144, 1742840192, 1862359168, 2056232192, 1781698048, 1908408960, 1807216896, 1655768576, 1956222208, 1871878656, 1637659136, 1598985216, 1616535680, 2007675776, 2108803968, 1395676928, 1327813504, 1981993600, 1292961024, 1409603072, 1126581120, 1398307712, 2122988032, 1873891712, 1957519744, 1158921216, 1309253248, 1582152448, 1269097984, 1921886976, 1730716928, 1893247232, 1532993920, 1313326464, 1510265472, 1556243072, 1412265600, 1460930816, 1271778816, 1451622144, 1865322624, 1193983488, 1276365696, 1450817664, 1142131456, 1077272448, 1489385600, 1192397696, 1434682240, 1700387584, 1488194432, 2046731648, 1230528512, 1231508096, 1558196736, 1956158464, 1106991616, 1715352320, 1588574336, 1564304640, 1989544704], pads = [0, 0, 0, 0], quant_mode = #tpu<rq_mode QDM>, relu_limit = -1.000000e+00 : f64, round_mode = #tpu<round_mode HalfUp>, rshift = [11, 11, 11, 11, 11, 11, 11, 11, 11, 12, 11, 11, 10, 11, 11, 11, 11, 11, 10, 10, 11, 10, 10, 12, 11, 11, 11, 12, 11, 10, 11, 11, 11, 11, 10, 11, 11, 11, 10, 10, 10, 10, 10, 10, 11, 11, 11, 11, 11, 11, 11, 11, 10, 10, 10, 11, 10, 10, 10, 11, 11, 10, 11, 11, 9, 10, 10, 10, 11, 10, 10, 10, 11, 10, 10, 10, 10, 10, 11, 10, 9, 10, 10, 10, 10, 10, 9, 13, 11, 11, 10, 10, 10, 11, 8, 10, 11, 10, 10, 9, 10, 11, 10, 11, 11, 10, 10, 11, 10, 10, 10, 10, 11, 10, 9, 9, 11, 9, 10, 9, 10, 10…
137681792, 1756918528, 1948177536, 1608107520, 1081887872, 1384709504, 1887938048, 1445259008, 2019376384, 1715019904, 1143023360, 1082545920, 1077062272, 1747762944, 1102020864, 1321528064, 1289093248, 1791721216, 1202270592, 1270710528, 1169648896, 1798374400, 1582990976, 1187824384, 1692452096, 1922391936, 2002163584, 1601998848, 1235377408, 1079768576, 1869703296, 1905733760, 1761041792, 1308593408, 1549805312, 1800779904, 1772055680, 1302000256, 1103433344, 1192460928, 1547308416, 1438218624, 1483184512, 1922923136, 1257708416, 1244932736, 2049376768, 2118899200, 1195327360, 2038978176, 1211652992, 1882322176, 1148576000, 2026340864, 1077419392, 2080600320, 1632827648, 2122808448, 1769814656, 1236106880, 1120809984, 1189056000, 1104370560, 1279434752, 1687680384, 1929549568, 2023671680, 1513729920, 1767823744, 1616629760, 2014928000, 1115371776, 1303078016, 2015620096, 1466733184, 1725489152, 1301629056, 1546146176, 1369612928, 1302847744, 1482176512, 1773164672, 1424451968, 1533244032, 1809340288, 1540394112, 1901931264, 1516566912, 1204462208, 1959052288, 1295523584, 1207059200, 1915464576, 1092520320, 1670426240, 2005508352, 1147602432, 1392083328, 2116795904, 1205895808, 1082187136, 1498280192, 1308123008, 1969303040, 1321235456, 1764873344, 1581110016, 1331318912, 1304635648, 1766545024, 1794170752], pads = [0, 0, 0, 0], quant_mode = #tpu<rq_mode QDM>, relu_limit = -1.000000e+00 : f64, round_mode = #tpu<round_mode HalfUp>, rshift = [9, 9, 9, 9, 9, 9, 9, 9, 10, 9, 10, 10, 9, 10, 9, 10, 9, 8, 9, 9, 9, 7, 9, 9, 9, 9, 9, 9, 9, 9, 9, 9, 9, 9, 11, 8, 8, 9, 10, 10, 9, 10, 10, 10, 9, 9, 9, 10, 9, 9, 9, 9, 10, 10, 9, 8, 10, 10, 9, 9, 10, 9, 9, 9, 10, 9, 10, 9, 9, 9, 10, 7, 10, 9, 10, 10, 9, 9, 9, 8, 9, 10, 10, 10, 9, 10, 9, 9, 9, 9, 9, 9, 9, 9, 8, 9, 9, 9, 9, 9, 10, 9, 9, 9, 10, 9, 9, 9, 9, 9, 9, 9, 10, 8, 9, 10, 8, 9, 10, 9, 9, 9, 9, 10, 9, 9, 10, 10], strides = [1, 1], support_compress = true, use_3ic_optimize = 0 : i64, weight_is_coeff = 1 : i64, with_bias = true} : (tensor<1x512x7x10x!quant.uniform<i8:f32, 0.067609959055118116>>, tensor<128x512x1x1xsi8>, tensor<1x128x1x1xi32>) -> tensor<1x128x7x10x!quant.uniform<i8:f32, 0.078792286614173215>> loc(#loc482)
    %483 = "top.Weight"() : () -> tensor<1x1x1x256xsi8> loc(#loc483)
    %484 = "tpu.Lut"(%479, %483) : (tensor<1x64x7x10x!quant.uniform<i8:f32, 0.10588234409448818>>, tensor<1x1x1x256xsi8>) -> tensor<1x64x7x10x!quant.uniform<i8:f32, 0.096550419685039371>> loc(#loc484)
    %485 = "top.Weight"() : () -> tensor<1x1x1x256xsi8> loc(#loc485)
    %486 = "tpu.Lut"(%482, %485) : (tensor<1x128x7x10x!quant.uniform<i8:f32, 0.078792286614173215>>, tensor<1x1x1x256xsi8>) -> tensor<1x128x7x10x!quant.uniform<i8:f32, 0.04059411968503937>> loc(#loc486)
    %487 = "top.Weight"() : () -> tensor<64x64x1x1xsi8> loc(#loc487)
    %488 = "top.Weight"() : () -> tensor<1x64x1x1xi32> loc(#loc488)
    %489 = "tpu.Conv2D"(%484, %487, %488) {coeff_merged = false, dilations = [1, 1], do_relu = false, do_winograd = false, dynweight_reorderd = false, group = 1 : i64, kernel_shape = [1, 1], kernel_zp = 0 : i64, multiplier = [1195812352, 1185992704, 1981382400, 2124312448, 1914827136, 1562411648, 1935557504, 1621329408, 1423845760, 1656243712, 1141258752, 1190356992, 1251456768, 1190356992, 1294008576, 1299463936, 1538408192, 1091069568, 2122130304, 1134712320, 1824268288, 1828632704, 2073032192, 1877730816, 1736982784, 1522042112, 1625693696, 1758804224, 1950832384, 1927919872, 1508949248, 1223089024, 1189265920, 1192539008, 1089432960, 1835179008, 1810084480, 1946468096, 2015205504, 2109037440, 1694431104, 1822086144, 1678065024, 1623511552, 1117255296, 1410753024, 1374747648, 1378020864, 1202358656, 1158715904, 2095944704, 1133621376, 2107946496, 1944286080, 1627875712, 1556956288, 1747893504, 1354017408, 1306010368, 1117255296, 1371474432, 1221997952, 1824268288, 1632240128], pads = [0, 0, 0, 0], quant_mode = #tpu<rq_mode QDM>, relu_limit = -1.000000e+00 : f64, round_mode = #tpu<round_mode HalfUp>, rshift = [9, 9, 10, 10, 10, 10, 10, 10, 10, 10, 10, 10, 10, 10, 10, 10, 9, 9, 10, 9, 10, 10, 10, 10, 10, 10, 10, 11, 11, 11, 11, 11, 9, 9, 9, 10, 10, 10, 10, 10, 10, 10, 10, 10, 10, 10, 10, 10, 9, 9, 10, 9, 10, 10, 10, 10, 10, 10, 10, 10, 10, 10, 11, 11], strides = [1, 1], support_compress = true, use_3ic_optimize = 0 : i64, weight_is_coeff = 1 : i64, with_bias = true} : (tensor<1x64x7x10x!quant.uniform<i8:f32, 0.096550419685039371>>, tensor<64x64x1x1xsi8>, tensor<1x64x1x1xi32>) -> tensor<1x64x7x10x!quant.uniform<i8:f32, 0.18704145511811024>> loc(#loc489)
    %490 = "top.Weight"() : () -> tensor<128x1x3x3xsi8> loc(#loc490)
    %491 = "top.Weight"() : () -> tensor<1x128x1x1xi32> loc(#loc491)
    %492 = "tpu.Conv2D"(%486, %490, %491) {coeff_merged = false, dilations = [1, 1], do_relu = false, do_winograd = false, dynweight_reorderd = false, group = 128 : i64, kernel_shape = [3, 3], kernel_zp = 0 : i64, multiplier = [1394142592, 1820933632, 1499379712, 1979644288, 1753176064, 1781861248, 1115480960, 1130346112, 1724249472, 1403790080, 1269896832, 1783767040, 1574194560, 1116079488, 1679116160, 1459988864, 1608470912, 1707432576, 1435422976, 1220446592, 2045375360, 1827876736, 1114883840, 1499015808, 1549020416, 1198918656, 1203619072, 1787339392, 1298888064, 1255010048, 2054379264, 1864271616, 1613840640, 1390912128, 1656462464, 1881744640, 1140706304, 1584956416, 2097749248, 2075312128, 1156422144, 2069867008, 1231826560, 1839698304, 2038931456, 1395751936, 1997039872, 1438327808, 1238714880, 1926891392, 1224109056, 1252979584, 1988451200, 1817796480, 1462025344, 1848968704, 1347112576, 1648681600, 2023479424, 1456732032, 1412357504, 1503823616, 1568293376, 2070177408, 1860466816, 1482110464, 1487202304, 1380146560, 1835090304, 1391610112, 2012402176, 1918016128, 1465103104, 1137987584, 1824079872, 1342472320, 1838024832, 1603150208, 2055404288, 2070889216, 1519716992, 1955113856, 1199887104, 1752573824, 2121948160, 1472198528, 1117184000, 1226865664, 1093516288, 1936899840, 1227436800, 1263121536, 1491997440, 1500353024, 1982264576, 1744055296, 1230632704, 1272724608, 1636308480, 1745420800, 1145550720, 1450782080, 1525278976, 1507787264, 1620630144, 1827378176, 1191022080, 1188405248, 2101742720, 1413690240, 1176491904, 1347561472, 1369234560, 2106352768, 1453586816, 1450857088, 1073963136, 1779192192, 1427035392, 1504651904, 1416763264, 1868589696, 1723298432, 2044799488, 2068732032, 1278862208, 2018732800, 1412054144], pads = [1, 1, 1, 1], quant_mode = #tpu<rq_mode QDM>, relu_limit = -1.000000e+00 : f64, round_mode = #tpu<round_mode HalfUp>, rshift = [8, 10, 9, 10, 8, 7, 9, 7, 8, 9, 8, 8, 8, 7, 9, 8, 8, 7, 8, 9, 7, 5, 5, 9, 7, 7, 5, 8, 7, 8, 9, 9, 7, 9, 8, 8, 7, 7, 7, 5, 8, 6, 8, 8, 10, 9, 7, 6, 8, 10, 6, 7, 8, 9, 8, 9, 7, 9, 8, 8, 8, 7, 8, 8, 9, 8, 9, 9, 8, 7, 8, 5, 10, 8, 10, 7, 8, 8, 9, 5, 8, 8, 8, 7, 8, 8, 6, 8, 7, 10, 8, 7, 7, 5, 8, 7, 7, 8, 9, 8, 8, 5, 8, 7, 6, 8, 9, 9, 9, 7, 7, 7, 9, 9, 9, 9, 8, 9, 7, 8, 9, 8, 5, 10, 9, 9, 8, 9], strides = [1, 1], support_compress = true, use_3ic_optimize = 0 : i64, weight_is_coeff = 1 : i64, with_bias = true} : (tensor<1x128x7x10x!quant.uniform<i8:f32, 0.04059411968503937>>, tensor<128x1x3x3xsi8>, tensor<1x128x1x1xi32>) -> tensor<1x128x7x10x!quant.uniform<i8:f32, 0.050401120472440941>> loc(#loc492)
    %493 = "top.Weight"() : () -> tensor<1x1x1x256xsi8> loc(#loc493)
    %494 = "tpu.Lut"(%492, %493) : (tensor<1x128x7x10x!quant.uniform<i8:f32, 0.050401120472440941>>, tensor<1x1x1x256xsi8>) -> tensor<1x128x7x10x!quant.uniform<i8:f32, 0.047596436220472445>> loc(#loc494)
    %495 = "top.Weight"() : () -> tensor<128x128x1x1xsi8> loc(#loc495)
    %496 = "top.Weight"() : () -> tensor<1x128x1x1xi32> loc(#loc496)
    %497 = "tpu.Conv2D"(%494, %495, %496) {coeff_merged = false, dilations = [1, 1], do_relu = false, do_winograd = false, dynweight_reorderd = false, group = 1 : i64, kernel_shape = [1, 1], kernel_zp = 0 : i64, multiplier = [2086645504, 1189708416, 1300862720, 1840769024, 1240637824, 1736348032, 2065281792, 1149494144, 2022575360, 2144917120, 1333341440, 1178886528, 1678111744, 1770931968, 1318657664, 1990401280, 1894481280, 1967477888, 1358279296, 1880321920, 2055436160, 1365576320, 1294069248, 1189162112, 1192679424, 1295557888, 1087652992, 1213566720, 1126584064, 1888630912, 1984244864, 1258835072, 2049460224, 1157538432, 1435614080, 1614261632, 1667278208, 1457361536, 1722793344, 1782041216, 1354743168, 1684012544, 1220303232, 1330091904, 1220460160, 1568818944, 1462944256, 1479106688, 1277623936, 1725603200, 1874400640, 2015315968, 1281879680, 1265465344, 1434061568, 1438412416, 1226423552, 1190998528, 1484567040, 1228178304, 1296552064, 1073934720, 1697006720, 1477856384, 1151043968, 1839571328, 1402162304, 1959842048, 1269674496, 1414921856, 1233453696, 1448855168, 1096621440, 1680163840, 1738350720, 1141221632, 1379385088, 1934792576, 1353520768, 1408899968, 2111695360, 2130573696, 1408006912, 1829892480, 1294208000, 1494107520, 1415967104, 1257427968, 1725664640, 1232358400, 1986403328, 1237117568, 1918294656, 1777493504, 1144099840, 2018262912, 1750850304, 1859757312, 1594307072, 1860602624, 1309093376, 1255082880, 2001860224, 1126605696, 1455979008, 1381628928, 1285944192, 1562512128, 1525933056, 1188247680, 1483128832, 1652407936, 1331947776, 1390367360, 1176732288, 1462042624, 1279760000, 1511744896, 1077496704, 1499504640, 1766068096, 1448032512, 1250873216, 1591867136, 1220079232, 1593350016, 1183784576, 1943354752], pads = [0, 0, 0, 0], quant_mode = #tpu<rq_mode QDM>, relu_limit = -1.000000e+00 : f64, round_mode = #tpu<round_mode HalfUp>, rshift = [10, 8, 8, 9, 9, 10, 9, 7, 9, 9, 9, 9, 9, 8, 8, 9, 9, 8, 9, 9, 10, 8, 9, 8, 8, 8, 8, 8, 7, 9, 9, 8, 9, 9, 9, 9, 9, 9, 9, 9, 9, 10, 9, 8, 8, 9, 8, 9, 9, 9, 9, 7, 9, 8, 9, 9, 9, 8, 9, 9, 8, 9, 9, 9, 8, 9, 8, 9, 9, 8, 8, 8, 8, 9, 10, 9, 8, 7, 10, 8, 9, 9, 9, 9, 9, 9, 8, 9, 10, 9, 9, 8, 10, 9, 9, 9, 9, 10, 9, 9, 8, 8, 9, 8, 9, 9, 9, 9, 9, 8, 9, 10, 9, 9, 9, 9, 8, 9, 9, 8, 8, 9, 8, 8, 8, 9, 8, 9], strides = [1, 1], support_compress = true, use_3ic_optimize = 0 : i64, weight_is_coeff = 1 : i64, with_bias = true} : (tensor<1x128x7x10x!quant.uniform<i8:f32, 0.047596436220472445>>, tensor<128x128x1x1xsi8>, tensor<1x128x1x1xi32>) -> tensor<1x128x7x10x!quant.uniform<i8:f32, 0.1353541094488189>> loc(#loc497)
    %498 = "top.Weight"() : () -> tensor<1x1x1x256xsi8> loc(#loc498)
    %499 = "tpu.Lut"(%497, %498) : (tensor<1x128x7x10x!quant.uniform<i8:f32, 0.1353541094488189>>, tensor<1x1x1x256xsi8>) -> tensor<1x128x7x10x!quant.uniform<i8:f32, 0.095107611811023618>> loc(#loc499)
    %500 = "top.Weight"() : () -> tensor<4x128x1x1xsi8> loc(#loc500)
    %501 = "top.Weight"() : () -> tensor<1x4x1x1xi32> loc(#loc501)
    %502 = "tpu.Conv2D"(%499, %500, %501) {coeff_merged = false, dilations = [1, 1], do_relu = false, do_winograd = false, dynweight_reorderd = false, group = 1 : i64, kernel_shape = [1, 1], kernel_zp = 0 : i64, multiplier = [1395045120, 1173643520, 1254250752, 1094648192], pads = [0, 0, 0, 0], quant_mode = #tpu<rq_mode QDM>, relu_limit = -1.000000e+00 : f64, round_mode = #tpu<round_mode HalfUp>, rshift = [10, 10, 10, 10], strides = [1, 1], support_compress = true, use_3ic_optimize = 0 : i64, weight_is_coeff = 1 : i64, with_bias = true} : (tensor<1x128x7x10x!quant.uniform<i8:f32, 0.095107611811023618>>, tensor<4x128x1x1xsi8>, tensor<1x4x1x1xi32>) -> tensor<1x4x7x10x!quant.uniform<i8:f32, 0.18704145511811024>> loc(#loc502)
    %503 = "tpu.Concat"(%489, %502) {axis = 1 : si32, do_relu = false, multipliers = [1, 1], only_merge = true, relu_limit = -1.000000e+00 : f64, rshifts = [0, 0]} : (tensor<1x64x7x10x!quant.uniform<i8:f32, 0.18704145511811024>>, tensor<1x4x7x10x!quant.uniform<i8:f32, 0.18704145511811024>>) -> tensor<1x68x7x10x!quant.uniform<i8:f32, 0.18704145511811024>> loc(#loc503)
    %504 = "tpu.Reshape"(%503) {flatten_start_dim = -1 : i64, shape = [1, 68, -1]} : (tensor<1x68x7x10x!quant.uniform<i8:f32, 0.18704145511811024>>) -> tensor<1x68x70x!quant.uniform<i8:f32, 0.18704145511811024>> loc(#loc504)
    %505 = "tpu.Concat"(%365, %440, %504) {axis = 2 : si32, do_relu = false, multipliers = [1, 1, 1], only_merge = false, relu_limit = -1.000000e+00 : f64, rshifts = [0, 0, 0]} : (tensor<1x68x1120x!quant.uniform<i8:f32, 0.18704145511811024>>, tensor<1x68x280x!quant.uniform<i8:f32, 0.18704145511811024>>, tensor<1x68x70x!quant.uniform<i8:f32, 0.18704145511811024>>) -> tensor<1x68x1470x!quant.uniform<i8:f32, 0.18704145511811024>> loc(#loc505)
    %506 = "tpu.Slice"(%505, %0, %0, %0, %0) {axes = [], ends = [9223372036854775807, 64, 9223372036854775807], hasparamConvert_axes = [1], offset = [0, 0, 0], steps = [1, 1, 1]} : (tensor<1x68x1470x!quant.uniform<i8:f32, 0.18704145511811024>>, none, none, none, none) -> tensor<1x64x1470x!quant.uniform<i8:f32, 0.18704145511811024>> loc(#loc506)
    %507 = "tpu.Slice"(%505, %0, %0, %0, %0) {axes = [], ends = [9223372036854775807, 68, 9223372036854775807], hasparamConvert_axes = [1], offset = [0, 64, 0], steps = [1, 1, 1]} : (tensor<1x68x1470x!quant.uniform<i8:f32, 0.18704145511811024>>, none, none, none, none) -> tensor<1x4x1470x!quant.uniform<i8:f32, 0.18704145511811024>> loc(#loc507)
    %508 = "tpu.Reshape"(%506) {flatten_start_dim = -1 : i64, shape = [1, 4, 16, 1470]} : (tensor<1x64x1470x!quant.uniform<i8:f32, 0.18704145511811024>>) -> tensor<1x4x16x1470x!quant.uniform<i8:f32, 0.18704145511811024>> loc(#loc508)
    %509 = "top.Weight"() : () -> tensor<1x1x1x256xsi8> loc(#loc509)
    %510 = "tpu.Lut"(%507, %509) : (tensor<1x4x1470x!quant.uniform<i8:f32, 0.18704145511811024>>, tensor<1x1x1x256xsi8>) -> tensor<1x4x1470x!quant.uniform<i8:f32, 0.0078740157480314959>> loc(#loc510)
    %511 = "tpu.Cast"(%510) {round_mode = #tpu<round_mode HalfAwayFromZero>, with_scale = true} : (tensor<1x4x1470x!quant.uniform<i8:f32, 0.0078740157480314959>>) -> tensor<1x4x1470xf32> loc(#loc511)
    %512 = "tpu.Permute"(%508, %0) {order = [0, 2, 1, 3]} : (tensor<1x4x16x1470x!quant.uniform<i8:f32, 0.18704145511811024>>, none) -> tensor<1x16x4x1470x!quant.uniform<i8:f32, 0.18704145511811024>> loc(#loc512)
    %513 = "tpu.Cast"(%512) {round_mode = #tpu<round_mode HalfAwayFromZero>, with_scale = true} : (tensor<1x16x4x1470x!quant.uniform<i8:f32, 0.18704145511811024>>) -> tensor<1x16x4x1470xbf16> loc(#loc513)
    %514 = "top.Weight"() : () -> tensor<1x1x32x8xbf16> loc(#loc514)
    %515 = "top.Weight"() : () -> tensor<1x1x32x8xbf16> loc(#loc515)
    %516 = "top.Weight"() : () -> tensor<1x1x32x8xbf16> loc(#loc516)
    %517 = "top.Weight"() : () -> tensor<1x1x32x8xbf16> loc(#loc517)
    %518 = "tpu.Softmax"(%513, %514, %515, %516, %517, %0) {axis = 1 : si32, beta = 1.000000e+00 : f64, log = false, round_mode = #tpu<round_mode HalfAwayFromZero>} : (tensor<1x16x4x1470xbf16>, tensor<1x1x32x8xbf16>, tensor<1x1x32x8xbf16>, tensor<1x1x32x8xbf16>, tensor<1x1x32x8xbf16>, none) -> tensor<1x16x4x1470x!quant.calibrated<bf16<-1.000000e+00:1.000000e+00>>> loc(#loc518)
    %519 = "tpu.Cast"(%518) {round_mode = #tpu<round_mode HalfAwayFromZero>, with_scale = true} : (tensor<1x16x4x1470x!quant.calibrated<bf16<-1.000000e+00:1.000000e+00>>>) -> tensor<1x16x4x1470x!quant.uniform<i8:bf16, 0.0078740157480314959>> loc(#loc519)
    %520 = "top.Weight"() : () -> tensor<1x16x1x1xsi8> loc(#loc520)
    %521 = "tpu.Conv2D"(%519, %520, %0) {coeff_merged = false, dilations = [1, 1], do_relu = false, do_winograd = false, dynweight_reorderd = false, group = 1 : i64, kernel_shape = [1, 1], kernel_zp = 0 : i64, multiplier = [1714225152], pads = [0, 0, 0, 0], quant_mode = #tpu<rq_mode QDM>, relu_limit = -1.000000e+00 : f64, round_mode = #tpu<round_mode HalfUp>, rshift = [6], strides = [1, 1], support_compress = true, use_3ic_optimize = 0 : i64, weight_is_coeff = 1 : i64, with_bias = false} : (tensor<1x16x4x1470x!quant.uniform<i8:bf16, 0.0078740157480314959>>, tensor<1x16x1x1xsi8>, none) -> tensor<1x1x4x1470x!quant.uniform<i8:f32, 0.074563416535433066>> loc(#loc521)
    %522 = "tpu.Cast"(%521) {round_mode = #tpu<round_mode HalfAwayFromZero>, with_scale = true} : (tensor<1x1x4x1470x!quant.uniform<i8:f32, 0.074563416535433066>>) -> tensor<1x1x4x1470xf32> loc(#loc522)
    return %522, %511 : tensor<1x1x4x1470xf32>, tensor<1x4x1470xf32> loc(#loc)
  } loc(#loc)
} loc(#loc)
#loc1 = loc("images")
#loc2 = loc("images/model.0/conv/Conv_output_0_Conv_si8")
#loc3 = loc("/model.0/conv/Conv_output_0_Conv_filter_i8")
#loc4 = loc("/model.0/conv/Conv_output_0_Conv_bias_int32")
#loc5 = loc("/model.0/conv/Conv_output_0_Conv")
#loc6 = loc("/model.0/act/Mul_output_0_Mul_table")
#loc7 = loc("/model.0/act/Mul_output_0_Mul")
#loc8 = loc("/model.1/conv/Conv_output_0_Conv_filter_i8")
#loc9 = loc("/model.1/conv/Conv_output_0_Conv_bias_int32")
#loc10 = loc("/model.1/conv/Conv_output_0_Conv")
#loc11 = loc("/model.1/act/Mul_output_0_Mul_table")
#loc12 = loc("/model.1/act/Mul_output_0_Mul")
#loc13 = loc("/model.2/cv1/conv/Conv_output_0_Conv_filter_i8")
#loc14 = loc("/model.2/cv1/conv/Conv_output_0_Conv_bias_int32")
#loc15 = loc("/model.2/cv1/conv/Conv_output_0_Conv")
#loc16 = loc("/model.2/cv1/act/Mul_output_0_Mul_table")
#loc17 = loc("/model.2/cv1/act/Mul_output_0_Mul")
#loc18 = loc("/model.2/Split_output_0_Split")
#loc19 = loc("/model.2/Split_output_1_Split")
#loc20 = loc("/model.2/m.0/cv1/conv/Conv_output_0_Conv_filter_i8")
#loc21 = loc("/model.2/m.0/cv1/conv/Conv_output_0_Conv_bias_int32")
#loc22 = loc("/model.2/m.0/cv1/conv/Conv_output_0_Conv")
#loc23 = loc("/model.2/m.0/cv1/act/Mul_output_0_Mul_table")
#loc24 = loc("/model.2/m.0/cv1/act/Mul_output_0_Mul")
#loc25 = loc("/model.2/m.0/cv2/conv/Conv_output_0_Conv_filter_i8")
#loc26 = loc("/model.2/m.0/cv2/conv/Conv_output_0_Conv_bias_int32")
#loc27 = loc("/model.2/m.0/cv2/conv/Conv_output_0_Conv")
#loc28 = loc("/model.2/m.0/cv2/act/Mul_output_0_Mul_table")
#loc29 = loc("/model.2/m.0/cv2/act/Mul_output_0_Mul")
#loc30 = loc("/model.2/m.0/Add_output_0_Add")
#loc31 = loc("/model.2/Concat_output_0_Concat")
#loc32 = loc("/model.2/cv2/conv/Conv_output_0_Conv_filter_i8")
#loc33 = loc("/model.2/cv2/conv/Conv_output_0_Conv_bias_int32")
#loc34 = loc("/model.2/cv2/conv/Conv_output_0_Conv")
#loc35 = loc("/model.2/cv2/act/Mul_output_0_Mul_table")
#loc36 = loc("/model.2/cv2/act/Mul_output_0_Mul")
#loc37 = loc("/model.3/conv/Conv_output_0_Conv_filter_i8")
#loc38 = loc("/model.3/conv/Conv_output_0_Conv_bias_int32")
#loc39 = loc("/model.3/conv/Conv_output_0_Conv")
#loc40 = loc("/model.3/act/Mul_output_0_Mul_table")
#loc41 = loc("/model.3/act/Mul_output_0_Mul")
#loc42 = loc("/model.4/cv1/conv/Conv_output_0_Conv_filter_i8")
#loc43 = loc("/model.4/cv1/conv/Conv_output_0_Conv_bias_int32")
#loc44 = loc("/model.4/cv1/conv/Conv_output_0_Conv")
#loc45 = loc("/model.4/cv1/act/Mul_output_0_Mul_table")
#loc46 = loc("/model.4/cv1/act/Mul_output_0_Mul")
#loc47 = loc("/model.4/Split_output_0_Split")
#loc48 = loc("/model.4/Split_output_1_Split")
#loc49 = loc("/model.4/m.0/cv1/conv/Conv_output_0_Conv_filter_i8")
#loc50 = loc("/model.4/m.0/cv1/conv/Conv_output_0_Conv_bias_int32")
#loc51 = loc("/model.4/m.0/cv1/conv/Conv_output_0_Conv")
#loc52 = loc("/model.4/m.0/cv1/act/Mul_output_0_Mul_table")
#loc53 = loc("/model.4/m.0/cv1/act/Mul_output_0_Mul")
#loc54 = loc("/model.4/m.0/cv2/conv/Conv_output_0_Conv_filter_i8")
#loc55 = loc("/model.4/m.0/cv2/conv/Conv_output_0_Conv_bias_int32")
#loc56 = loc("/model.4/m.0/cv2/conv/Conv_output_0_Conv")
#loc57 = loc("/model.4/m.0/cv2/act/Mul_output_0_Mul_table")
#loc58 = loc("/model.4/m.0/cv2/act/Mul_output_0_Mul")
#loc59 = loc("/model.4/m.0/Add_output_0_Add")
#loc60 = loc("/model.4/Concat_output_0_Concat")
#loc61 = loc("/model.4/cv2/conv/Conv_output_0_Conv_filter_i8")
#loc62 = loc("/model.4/cv2/conv/Conv_output_0_Conv_bias_int32")
#loc63 = loc("/model.4/cv2/conv/Conv_output_0_Conv")
#loc64 = loc("/model.4/cv2/act/Mul_output_0_Mul_table")
#loc65 = loc("/model.4/cv2/act/Mul_output_0_Mul")
#loc66 = loc("/model.5/conv/Conv_output_0_Conv_filter_i8")
#loc67 = loc("/model.5/conv/Conv_output_0_Conv_bias_int32")
#loc68 = loc("/model.5/conv/Conv_output_0_Conv")
#loc69 = loc("/model.5/act/Mul_output_0_Mul_table")
#loc70 = loc("/model.5/act/Mul_output_0_Mul")
#loc71 = loc("/model.6/cv1/conv/Conv_output_0_Conv_filter_i8")
#loc72 = loc("/model.6/cv1/conv/Conv_output_0_Conv_bias_int32")
#loc73 = loc("/model.6/cv1/conv/Conv_output_0_Conv")
#loc74 = loc("/model.6/cv1/act/Mul_output_0_Mul_table")
#loc75 = loc("/model.6/cv1/act/Mul_output_0_Mul")
#loc76 = loc("/model.6/Split_output_0_Split")
#loc77 = loc("/model.6/Split_output_1_Split")
#loc78 = loc("/model.6/m.0/cv1/conv/Conv_output_0_Conv_filter_i8")
#loc79 = loc("/model.6/m.0/cv1/conv/Conv_output_0_Conv_bias_int32")
#loc80 = loc("/model.6/m.0/cv1/conv/Conv_output_0_Conv")
#loc81 = loc("/model.6/m.0/cv2/conv/Conv_output_0_Conv_filter_i8")
#loc82 = loc("/model.6/m.0/cv2/conv/Conv_output_0_Conv_bias_int32")
#loc83 = loc("/model.6/m.0/cv2/conv/Conv_output_0_Conv")
#loc84 = loc("/model.6/m.0/cv1/act/Mul_output_0_Mul_table")
#loc85 = loc("/model.6/m.0/cv1/act/Mul_output_0_Mul")
#loc86 = loc("/model.6/m.0/cv2/act/Mul_output_0_Mul_table")
#loc87 = loc("/model.6/m.0/cv2/act/Mul_output_0_Mul")
#loc88 = loc("/model.6/m.0/m/m.0/cv1/conv/Conv_output_0_Conv_filter_i8")
#loc89 = loc("/model.6/m.0/m/m.0/cv1/conv/Conv_output_0_Conv_bias_int32")
#loc90 = loc("/model.6/m.0/m/m.0/cv1/conv/Conv_output_0_Conv")
#loc91 = loc("/model.6/m.0/m/m.0/cv1/act/Mul_output_0_Mul_table")
#loc92 = loc("/model.6/m.0/m/m.0/cv1/act/Mul_output_0_Mul")
#loc93 = loc("/model.6/m.0/m/m.0/cv2/conv/Conv_output_0_Conv_filter_i8")
#loc94 = loc("/model.6/m.0/m/m.0/cv2/conv/Conv_output_0_Conv_bias_int32")
#loc95 = loc("/model.6/m.0/m/m.0/cv2/conv/Conv_output_0_Conv")
#loc96 = loc("/model.6/m.0/m/m.0/cv2/act/Mul_output_0_Mul_table")
#loc97 = loc("/model.6/m.0/m/m.0/cv2/act/Mul_output_0_Mul")
#loc98 = loc("/model.6/m.0/m/m.0/Add_output_0_Add")
#loc99 = loc("/model.6/m.0/m/m.1/cv1/conv/Conv_output_0_Conv_filter_i8")
#loc100 = loc("/model.6/m.0/m/m.1/cv1/conv/Conv_output_0_Conv_bias_int32")
#loc101 = loc("/model.6/m.0/m/m.1/cv1/conv/Conv_output_0_Conv")
#loc102 = loc("/model.6/m.0/m/m.1/cv1/act/Mul_output_0_Mul_table")
#loc103 = loc("/model.6/m.0/m/m.1/cv1/act/Mul_output_0_Mul")
#loc104 = loc("/model.6/m.0/m/m.1/cv2/conv/Conv_output_0_Conv_filter_i8")
#loc105 = loc("/model.6/m.0/m/m.1/cv2/conv/Conv_output_0_Conv_bias_int32")
#loc106 = loc("/model.6/m.0/m/m.1/cv2/conv/Conv_output_0_Conv")
#loc107 = loc("/model.6/m.0/m/m.1/cv2/act/Mul_output_0_Mul_table")
#loc108 = loc("/model.6/m.0/m/m.1/cv2/act/Mul_output_0_Mul")
#loc109 = loc("/model.6/m.0/m/m.1/Add_output_0_Add")
#loc110 = loc("/model.6/m.0/Concat_output_0_Concat")
#loc111 = loc("/model.6/m.0/cv3/conv/Conv_output_0_Conv_filter_i8")
#loc112 = loc("/model.6/m.0/cv3/conv/Conv_output_0_Conv_bias_int32")
#loc113 = loc("/model.6/m.0/cv3/conv/Conv_output_0_Conv")
#loc114 = loc("/model.6/m.0/cv3/act/Mul_output_0_Mul_table")
#loc115 = loc("/model.6/m.0/cv3/act/Mul_output_0_Mul")
#loc116 = loc("/model.6/Concat_output_0_Concat")
#loc117 = loc("/model.6/cv2/conv/Conv_output_0_Conv_filter_i8")
#loc118 = loc("/model.6/cv2/conv/Conv_output_0_Conv_bias_int32")
#loc119 = loc("/model.6/cv2/conv/Conv_output_0_Conv")
#loc120 = loc("/model.6/cv2/act/Mul_output_0_Mul_table")
#loc121 = loc("/model.6/cv2/act/Mul_output_0_Mul")
#loc122 = loc("/model.7/conv/Conv_output_0_Conv_filter_i8")
#loc123 = loc("/model.7/conv/Conv_output_0_Conv_bias_int32")
#loc124 = loc("/model.7/conv/Conv_output_0_Conv")
#loc125 = loc("/model.7/act/Mul_output_0_Mul_table")
#loc126 = loc("/model.7/act/Mul_output_0_Mul")
#loc127 = loc("/model.8/cv1/conv/Conv_output_0_Conv_filter_i8")
#loc128 = loc("/model.8/cv1/conv/Conv_output_0_Conv_bias_int32")
#loc129 = loc("/model.8/cv1/conv/Conv_output_0_Conv")
#loc130 = loc("/model.8/cv1/act/Mul_output_0_Mul_table")
#loc131 = loc("/model.8/cv1/act/Mul_output_0_Mul")
#loc132 = loc("/model.8/Split_output_0_Split")
#loc133 = loc("/model.8/Split_output_1_Split")
#loc134 = loc("/model.8/m.0/cv1/conv/Conv_output_0_Conv_filter_i8")
#loc135 = loc("/model.8/m.0/cv1/conv/Conv_output_0_Conv_bias_int32")
#loc136 = loc("/model.8/m.0/cv1/conv/Conv_output_0_Conv")
#loc137 = loc("/model.8/m.0/cv2/conv/Conv_output_0_Conv_filter_i8")
#loc138 = loc("/model.8/m.0/cv2/conv/Conv_output_0_Conv_bias_int32")
#loc139 = loc("/model.8/m.0/cv2/conv/Conv_output_0_Conv")
#loc140 = loc("/model.8/m.0/cv1/act/Mul_output_0_Mul_table")
#loc141 = loc("/model.8/m.0/cv1/act/Mul_output_0_Mul")
#loc142 = loc("/model.8/m.0/cv2/act/Mul_output_0_Mul_table")
#loc143 = loc("/model.8/m.0/cv2/act/Mul_output_0_Mul")
#loc144 = loc("/model.8/m.0/m/m.0/cv1/conv/Conv_output_0_Conv_filter_i8")
#loc145 = loc("/model.8/m.0/m/m.0/cv1/conv/Conv_output_0_Conv_bias_int32")
#loc146 = loc("/model.8/m.0/m/m.0/cv1/conv/Conv_output_0_Conv")
#loc147 = loc("/model.8/m.0/m/m.0/cv1/act/Mul_output_0_Mul_table")
#loc148 = loc("/model.8/m.0/m/m.0/cv1/act/Mul_output_0_Mul")
#loc149 = loc("/model.8/m.0/m/m.0/cv2/conv/Conv_output_0_Conv_filter_i8")
#loc150 = loc("/model.8/m.0/m/m.0/cv2/conv/Conv_output_0_Conv_bias_int32")
#loc151 = loc("/model.8/m.0/m/m.0/cv2/conv/Conv_output_0_Conv")
#loc152 = loc("/model.8/m.0/m/m.0/cv2/act/Mul_output_0_Mul_table")
#loc153 = loc("/model.8/m.0/m/m.0/cv2/act/Mul_output_0_Mul")
#loc154 = loc("/model.8/m.0/m/m.0/Add_output_0_Add")
#loc155 = loc("/model.8/m.0/m/m.1/cv1/conv/Conv_output_0_Conv_filter_i8")
#loc156 = loc("/model.8/m.0/m/m.1/cv1/conv/Conv_output_0_Conv_bias_int32")
#loc157 = loc("/model.8/m.0/m/m.1/cv1/conv/Conv_output_0_Conv")
#loc158 = loc("/model.8/m.0/m/m.1/cv1/act/Mul_output_0_Mul_table")
#loc159 = loc("/model.8/m.0/m/m.1/cv1/act/Mul_output_0_Mul")
#loc160 = loc("/model.8/m.0/m/m.1/cv2/conv/Conv_output_0_Conv_filter_i8")
#loc161 = loc("/model.8/m.0/m/m.1/cv2/conv/Conv_output_0_Conv_bias_int32")
#loc162 = loc("/model.8/m.0/m/m.1/cv2/conv/Conv_output_0_Conv")
#loc163 = loc("/model.8/m.0/m/m.1/cv2/act/Mul_output_0_Mul_table")
#loc164 = loc("/model.8/m.0/m/m.1/cv2/act/Mul_output_0_Mul")
#loc165 = loc("/model.8/m.0/m/m.1/Add_output_0_Add")
#loc166 = loc("/model.8/m.0/Concat_output_0_Concat")
#loc167 = loc("/model.8/m.0/cv3/conv/Conv_output_0_Conv_filter_i8")
#loc168 = loc("/model.8/m.0/cv3/conv/Conv_output_0_Conv_bias_int32")
#loc169 = loc("/model.8/m.0/cv3/conv/Conv_output_0_Conv")
#loc170 = loc("/model.8/m.0/cv3/act/Mul_output_0_Mul_table")
#loc171 = loc("/model.8/m.0/cv3/act/Mul_output_0_Mul")
#loc172 = loc("/model.8/Concat_output_0_Concat")
#loc173 = loc("/model.8/cv2/conv/Conv_output_0_Conv_filter_i8")
#loc174 = loc("/model.8/cv2/conv/Conv_output_0_Conv_bias_int32")
#loc175 = loc("/model.8/cv2/conv/Conv_output_0_Conv")
#loc176 = loc("/model.8/cv2/act/Mul_output_0_Mul_table")
#loc177 = loc("/model.8/cv2/act/Mul_output_0_Mul")
#loc178 = loc("/model.9/cv1/conv/Conv_output_0_Conv_filter_i8")
#loc179 = loc("/model.9/cv1/conv/Conv_output_0_Conv_bias_int32")
#loc180 = loc("/model.9/cv1/conv/Conv_output_0_Conv")
#loc181 = loc("/model.9/cv1/act/Mul_output_0_Mul_table")
#loc182 = loc("/model.9/cv1/act/Mul_output_0_Mul")
#loc183 = loc("/model.9/m/MaxPool_output_0_MaxPool")
#loc184 = loc("/model.9/m_1/MaxPool_output_0_MaxPool")
#loc185 = loc("/model.9/m_2/MaxPool_output_0_MaxPool")
#loc186 = loc("/model.9/Concat_output_0_Concat")
#loc187 = loc("/model.9/cv2/conv/Conv_output_0_Conv_filter_i8")
#loc188 = loc("/model.9/cv2/conv/Conv_output_0_Conv_bias_int32")
#loc189 = loc("/model.9/cv2/conv/Conv_output_0_Conv")
#loc190 = loc("/model.9/cv2/act/Mul_output_0_Mul_table")
#loc191 = loc("/model.9/cv2/act/Mul_output_0_Mul")
#loc192 = loc("/model.10/cv1/conv/Conv_output_0_Conv_filter_i8")
#loc193 = loc("/model.10/cv1/conv/Conv_output_0_Conv_bias_int32")
#loc194 = loc("/model.10/cv1/conv/Conv_output_0_Conv")
#loc195 = loc("/model.10/cv1/act/Mul_output_0_Mul_table")
#loc196 = loc("/model.10/cv1/act/Mul_output_0_Mul")
#loc197 = loc("/model.10/Split_output_0_Split")
#loc198 = loc("/model.10/Split_output_1_Split")
#loc199 = loc("/model.10/m/m.0/attn/qkv/conv/Conv_output_0_Conv_filter_i8")
#loc200 = loc("/model.10/m/m.0/attn/qkv/conv/Conv_output_0_Conv_bias_int32")
#loc201 = loc("/model.10/m/m.0/attn/qkv/conv/Conv_output_0_Conv")
#loc202 = loc("/model.10/m/m.0/attn/Reshape_output_0_Reshape")
#loc203 = loc("/model.10/m/m.0/attn/Split_output_0_Split")
#loc204 = loc("/model.10/m/m.0/attn/Split_output_1_Split")
#loc205 = loc("/model.10/m/m.0/attn/Split_output_1_Split/model.10/m/m.0/attn/MatMul_output_0_MatMul_bf16")
#loc206 = loc("/model.10/m/m.0/attn/Split_output_2_Split")
#loc207 = loc("/model.10/m/m.0/attn/Split_output_2_Split/model.10/m/m.0/attn/MatMul_1_output_0_MatMul_bf16")
#loc208 = loc("/model.10/m/m.0/attn/Transpose_output_0_Transpose")
#loc209 = loc("/model.10/m/m.0/attn/Transpose_output_0_Transpose/model.10/m/m.0/attn/MatMul_output_0_MatMul_bf16")
#loc210 = loc("/model.10/m/m.0/attn/Reshape_2_output_0_Reshape")
#loc211 = loc("/model.10/m/m.0/attn/MatMul_output_0_MatMul")
#loc212 = loc("/model.10/m/m.0/attn/MatMul_output_0_MatMul/model.10/m/m.0/attn/Mul_output_0_Mul_si8")
#loc213 = loc("/model.10/m/m.0/attn/pe/conv/Conv_output_0_Conv_filter_i8")
#loc214 = loc("/model.10/m/m.0/attn/pe/conv/Conv_output_0_Conv_bias_int32")
#loc215 = loc("/model.10/m/m.0/attn/pe/conv/Conv_output_0_Conv")
#loc216 = loc("/model.10/m/m.0/attn/Mul_output_0_Mul_table")
#loc217 = loc("/model.10/m/m.0/attn/Mul_output_0_Mul")
#loc218 = loc("/model.10/m/m.0/attn/Mul_output_0_Mul/model.10/m/m.0/attn/Softmax_output_0_Softmax_bf16")
#loc219 = loc("/model.10/m/m.0/attn/Softmax_output_0_Softmax/model.10/m/m.0/attn/Softmax_output_0_Softmax_slope_table_bf16")
#loc220 = loc("/model.10/m/m.0/attn/Softmax_output_0_Softmax/model.10/m/m.0/attn/Softmax_output_0_Softmax_slope_slope_table_bf16")
#loc221 = loc("/model.10/m/m.0/attn/Softmax_output_0_Softmax/model.10/m/m.0/attn/Softmax_output_0_Softmax_pow_table_bf16")
#loc222 = loc("/model.10/m/m.0/attn/Softmax_output_0_Softmax/model.10/m/m.0/attn/Softmax_output_0_Softmax_pow_mantissa_table_bf16")
#loc223 = loc("/model.10/m/m.0/attn/Softmax_output_0_Softmax")
#loc224 = loc("/model.10/m/m.0/attn/Softmax_output_0_Softmax/model.10/m/m.0/attn/Transpose_1_output_0_Transpose_si8")
#loc225 = loc("/model.10/m/m.0/attn/Transpose_1_output_0_Transpose")
#loc226 = loc("/model.10/m/m.0/attn/Transpose_1_output_0_Transpose/model.10/m/m.0/attn/MatMul_1_output_0_MatMul_bf16")
#loc227 = loc("/model.10/m/m.0/attn/MatMul_1_output_0_MatMul")
#loc228 = loc("/model.10/m/m.0/attn/Reshape_1_output_0_Reshape")
#loc229 = loc("/model.10/m/m.0/attn/Reshape_1_output_0_Reshape/model.10/m/m.0/attn/Add_output_0_Add_si8")
#loc230 = loc("/model.10/m/m.0/attn/Add_output_0_Add")
#loc231 = loc("/model.10/m/m.0/attn/proj/conv/Conv_output_0_Conv_filter_i8")
#loc232 = loc("/model.10/m/m.0/attn/proj/conv/Conv_output_0_Conv_bias_int32")
#loc233 = loc("/model.10/m/m.0/attn/proj/conv/Conv_output_0_Conv")
#loc234 = loc("/model.10/m/m.0/Add_output_0_Add")
#loc235 = loc("/model.10/m/m.0/ffn/ffn.0/conv/Conv_output_0_Conv_filter_i8")
#loc236 = loc("/model.10/m/m.0/ffn/ffn.0/conv/Conv_output_0_Conv_bias_int32")
#loc237 = loc("/model.10/m/m.0/ffn/ffn.0/conv/Conv_output_0_Conv")
#loc238 = loc("/model.10/m/m.0/ffn/ffn.0/act/Mul_output_0_Mul_table")
#loc239 = loc("/model.10/m/m.0/ffn/ffn.0/act/Mul_output_0_Mul")
#loc240 = loc("/model.10/m/m.0/ffn/ffn.1/conv/Conv_output_0_Conv_filter_i8")
#loc241 = loc("/model.10/m/m.0/ffn/ffn.1/conv/Conv_output_0_Conv_bias_int32")
#loc242 = loc("/model.10/m/m.0/ffn/ffn.1/conv/Conv_output_0_Conv")
#loc243 = loc("/model.10/m/m.0/Add_1_output_0_Add")
#loc244 = loc("/model.10/Concat_output_0_Concat")
#loc245 = loc("/model.10/cv2/conv/Conv_output_0_Conv_filter_i8")
#loc246 = loc("/model.10/cv2/conv/Conv_output_0_Conv_bias_int32")
#loc247 = loc("/model.10/cv2/conv/Conv_output_0_Conv")
#loc248 = loc("/model.10/cv2/act/Mul_output_0_Mul_table")
#loc249 = loc("/model.10/cv2/act/Mul_output_0_Mul")
#loc250 = loc("/model.11/Resize_output_0_Resize_filter_i8")
#loc251 = loc("/model.11/Resize_output_0_Resize")
#loc252 = loc("/model.12/Concat_output_0_Concat")
#loc253 = loc("/model.13/cv1/conv/Conv_output_0_Conv_filter_i8")
#loc254 = loc("/model.13/cv1/conv/Conv_output_0_Conv_bias_int32")
#loc255 = loc("/model.13/cv1/conv/Conv_output_0_Conv")
#loc256 = loc("/model.13/cv1/act/Mul_output_0_Mul_table")
#loc257 = loc("/model.13/cv1/act/Mul_output_0_Mul")
#loc258 = loc("/model.13/Split_output_0_Split")
#loc259 = loc("/model.13/Split_output_1_Split")
#loc260 = loc("/model.13/m.0/cv1/conv/Conv_output_0_Conv_filter_i8")
#loc261 = loc("/model.13/m.0/cv1/conv/Conv_output_0_Conv_bias_int32")
#loc262 = loc("/model.13/m.0/cv1/conv/Conv_output_0_Conv")
#loc263 = loc("/model.13/m.0/cv1/act/Mul_output_0_Mul_table")
#loc264 = loc("/model.13/m.0/cv1/act/Mul_output_0_Mul")
#loc265 = loc("/model.13/m.0/cv2/conv/Conv_output_0_Conv_filter_i8")
#loc266 = loc("/model.13/m.0/cv2/conv/Conv_output_0_Conv_bias_int32")
#loc267 = loc("/model.13/m.0/cv2/conv/Conv_output_0_Conv")
#loc268 = loc("/model.13/m.0/cv2/act/Mul_output_0_Mul_table")
#loc269 = loc("/model.13/m.0/cv2/act/Mul_output_0_Mul")
#loc270 = loc("/model.13/m.0/Add_output_0_Add")
#loc271 = loc("/model.13/Concat_output_0_Concat")
#loc272 = loc("/model.13/cv2/conv/Conv_output_0_Conv_filter_i8")
#loc273 = loc("/model.13/cv2/conv/Conv_output_0_Conv_bias_int32")
#loc274 = loc("/model.13/cv2/conv/Conv_output_0_Conv")
#loc275 = loc("/model.13/cv2/act/Mul_output_0_Mul_table")
#loc276 = loc("/model.13/cv2/act/Mul_output_0_Mul")
#loc277 = loc("/model.14/Resize_output_0_Resize_filter_i8")
#loc278 = loc("/model.14/Resize_output_0_Resize")
#loc279 = loc("/model.15/Concat_output_0_Concat")
#loc280 = loc("/model.16/cv1/conv/Conv_output_0_Conv_filter_i8")
#loc281 = loc("/model.16/cv1/conv/Conv_output_0_Conv_bias_int32")
#loc282 = loc("/model.16/cv1/conv/Conv_output_0_Conv")
#loc283 = loc("/model.16/cv1/act/Mul_output_0_Mul_table")
#loc284 = loc("/model.16/cv1/act/Mul_output_0_Mul")
#loc285 = loc("/model.16/Split_output_0_Split")
#loc286 = loc("/model.16/Split_output_1_Split")
#loc287 = loc("/model.16/m.0/cv1/conv/Conv_output_0_Conv_filter_i8")
#loc288 = loc("/model.16/m.0/cv1/conv/Conv_output_0_Conv_bias_int32")
#loc289 = loc("/model.16/m.0/cv1/conv/Conv_output_0_Conv")
#loc290 = loc("/model.16/m.0/cv1/act/Mul_output_0_Mul_table")
#loc291 = loc("/model.16/m.0/cv1/act/Mul_output_0_Mul")
#loc292 = loc("/model.16/m.0/cv2/conv/Conv_output_0_Conv_filter_i8")
#loc293 = loc("/model.16/m.0/cv2/conv/Conv_output_0_Conv_bias_int32")
#loc294 = loc("/model.16/m.0/cv2/conv/Conv_output_0_Conv")
#loc295 = loc("/model.16/m.0/cv2/act/Mul_output_0_Mul_table")
#loc296 = loc("/model.16/m.0/cv2/act/Mul_output_0_Mul")
#loc297 = loc("/model.16/m.0/Add_output_0_Add")
#loc298 = loc("/model.16/Concat_output_0_Concat")
#loc299 = loc("/model.16/cv2/conv/Conv_output_0_Conv_filter_i8")
#loc300 = loc("/model.16/cv2/conv/Conv_output_0_Conv_bias_int32")
#loc301 = loc("/model.16/cv2/conv/Conv_output_0_Conv")
#loc302 = loc("/model.16/cv2/act/Mul_output_0_Mul_table")
#loc303 = loc("/model.16/cv2/act/Mul_output_0_Mul")
#loc304 = loc("/model.17/conv/Conv_output_0_Conv_filter_i8")
#loc305 = loc("/model.17/conv/Conv_output_0_Conv_bias_int32")
#loc306 = loc("/model.17/conv/Conv_output_0_Conv")
#loc307 = loc("/model.23/cv2.0/cv2.0.0/conv/Conv_output_0_Conv_filter_i8")
#loc308 = loc("/model.23/cv2.0/cv2.0.0/conv/Conv_output_0_Conv_bias_int32")
#loc309 = loc("/model.23/cv2.0/cv2.0.0/conv/Conv_output_0_Conv")
#loc310 = loc("/model.23/cv3.0/cv3.0.0/cv3.0.0.0/conv/Conv_output_0_Conv_filter_i8")
#loc311 = loc("/model.23/cv3.0/cv3.0.0/cv3.0.0.0/conv/Conv_output_0_Conv_bias_int32")
#loc312 = loc("/model.23/cv3.0/cv3.0.0/cv3.0.0.0/conv/Conv_output_0_Conv")
#loc313 = loc("/model.17/act/Mul_output_0_Mul_table")
#loc314 = loc("/model.17/act/Mul_output_0_Mul")
#loc315 = loc("/model.23/cv2.0/cv2.0.0/act/Mul_output_0_Mul_table")
#loc316 = loc("/model.23/cv2.0/cv2.0.0/act/Mul_output_0_Mul")
#loc317 = loc("/model.23/cv3.0/cv3.0.0/cv3.0.0.0/act/Mul_output_0_Mul_table")
#loc318 = loc("/model.23/cv3.0/cv3.0.0/cv3.0.0.0/act/Mul_output_0_Mul")
#loc319 = loc("/model.18/Concat_output_0_Concat")
#loc320 = loc("/model.23/cv2.0/cv2.0.1/conv/Conv_output_0_Conv_filter_i8")
#loc321 = loc("/model.23/cv2.0/cv2.0.1/conv/Conv_output_0_Conv_bias_int32")
#loc322 = loc("/model.23/cv2.0/cv2.0.1/conv/Conv_output_0_Conv")
#loc323 = loc("/model.23/cv3.0/cv3.0.0/cv3.0.0.1/conv/Conv_output_0_Conv_filter_i8")
#loc324 = loc("/model.23/cv3.0/cv3.0.0/cv3.0.0.1/conv/Conv_output_0_Conv_bias_int32")
#loc325 = loc("/model.23/cv3.0/cv3.0.0/cv3.0.0.1/conv/Conv_output_0_Conv")
#loc326 = loc("/model.19/cv1/conv/Conv_output_0_Conv_filter_i8")
#loc327 = loc("/model.19/cv1/conv/Conv_output_0_Conv_bias_int32")
#loc328 = loc("/model.19/cv1/conv/Conv_output_0_Conv")
#loc329 = loc("/model.23/cv2.0/cv2.0.1/act/Mul_output_0_Mul_table")
#loc330 = loc("/model.23/cv2.0/cv2.0.1/act/Mul_output_0_Mul")
#loc331 = loc("/model.23/cv3.0/cv3.0.0/cv3.0.0.1/act/Mul_output_0_Mul_table")
#loc332 = loc("/model.23/cv3.0/cv3.0.0/cv3.0.0.1/act/Mul_output_0_Mul")
#loc333 = loc("/model.19/cv1/act/Mul_output_0_Mul_table")
#loc334 = loc("/model.19/cv1/act/Mul_output_0_Mul")
#loc335 = loc("/model.23/cv2.0/cv2.0.2/Conv_output_0_Conv_filter_i8")
#loc336 = loc("/model.23/cv2.0/cv2.0.2/Conv_output_0_Conv_bias_int32")
#loc337 = loc("/model.23/cv2.0/cv2.0.2/Conv_output_0_Conv")
#loc338 = loc("/model.23/cv3.0/cv3.0.1/cv3.0.1.0/conv/Conv_output_0_Conv_filter_i8")
#loc339 = loc("/model.23/cv3.0/cv3.0.1/cv3.0.1.0/conv/Conv_output_0_Conv_bias_int32")
#loc340 = loc("/model.23/cv3.0/cv3.0.1/cv3.0.1.0/conv/Conv_output_0_Conv")
#loc341 = loc("/model.19/Split_output_0_Split")
#loc342 = loc("/model.19/Split_output_1_Split")
#loc343 = loc("/model.19/m.0/cv1/conv/Conv_output_0_Conv_filter_i8")
#loc344 = loc("/model.19/m.0/cv1/conv/Conv_output_0_Conv_bias_int32")
#loc345 = loc("/model.19/m.0/cv1/conv/Conv_output_0_Conv")
#loc346 = loc("/model.23/cv3.0/cv3.0.1/cv3.0.1.0/act/Mul_output_0_Mul_table")
#loc347 = loc("/model.23/cv3.0/cv3.0.1/cv3.0.1.0/act/Mul_output_0_Mul")
#loc348 = loc("/model.23/cv3.0/cv3.0.1/cv3.0.1.1/conv/Conv_output_0_Conv_filter_i8")
#loc349 = loc("/model.23/cv3.0/cv3.0.1/cv3.0.1.1/conv/Conv_output_0_Conv_bias_int32")
#loc350 = loc("/model.23/cv3.0/cv3.0.1/cv3.0.1.1/conv/Conv_output_0_Conv")
#loc351 = loc("/model.19/m.0/cv1/act/Mul_output_0_Mul_table")
#loc352 = loc("/model.19/m.0/cv1/act/Mul_output_0_Mul")
#loc353 = loc("/model.19/m.0/cv2/conv/Conv_output_0_Conv_filter_i8")
#loc354 = loc("/model.19/m.0/cv2/conv/Conv_output_0_Conv_bias_int32")
#loc355 = loc("/model.19/m.0/cv2/conv/Conv_output_0_Conv")
#loc356 = loc("/model.23/cv3.0/cv3.0.1/cv3.0.1.1/act/Mul_output_0_Mul_table")
#loc357 = loc("/model.23/cv3.0/cv3.0.1/cv3.0.1.1/act/Mul_output_0_Mul")
#loc358 = loc("/model.23/cv3.0/cv3.0.2/Conv_output_0_Conv_filter_i8")
#loc359 = loc("/model.23/cv3.0/cv3.0.2/Conv_output_0_Conv_bias_int32")
#loc360 = loc("/model.23/cv3.0/cv3.0.2/Conv_output_0_Conv")
#loc361 = loc("/model.19/m.0/cv2/act/Mul_output_0_Mul_table")
#loc362 = loc("/model.19/m.0/cv2/act/Mul_output_0_Mul")
#loc363 = loc("/model.23/Concat_output_0_Concat")
#loc364 = loc("/model.19/m.0/Add_output_0_Add")
#loc365 = loc("/model.23/Reshape_output_0_Reshape")
#loc366 = loc("/model.19/Concat_output_0_Concat")
#loc367 = loc("/model.19/cv2/conv/Conv_output_0_Conv_filter_i8")
#loc368 = loc("/model.19/cv2/conv/Conv_output_0_Conv_bias_int32")
#loc369 = loc("/model.19/cv2/conv/Conv_output_0_Conv")
#loc370 = loc("/model.19/cv2/act/Mul_output_0_Mul_table")
#loc371 = loc("/model.19/cv2/act/Mul_output_0_Mul")
#loc372 = loc("/model.20/conv/Conv_output_0_Conv_filter_i8")
#loc373 = loc("/model.20/conv/Conv_output_0_Conv_bias_int32")
#loc374 = loc("/model.20/conv/Conv_output_0_Conv")
#loc375 = loc("/model.23/cv2.1/cv2.1.0/conv/Conv_output_0_Conv_filter_i8")
#loc376 = loc("/model.23/cv2.1/cv2.1.0/conv/Conv_output_0_Conv_bias_int32")
#loc377 = loc("/model.23/cv2.1/cv2.1.0/conv/Conv_output_0_Conv")
#loc378 = loc("/model.23/cv3.1/cv3.1.0/cv3.1.0.0/conv/Conv_output_0_Conv_filter_i8")
#loc379 = loc("/model.23/cv3.1/cv3.1.0/cv3.1.0.0/conv/Conv_output_0_Conv_bias_int32")
#loc380 = loc("/model.23/cv3.1/cv3.1.0/cv3.1.0.0/conv/Conv_output_0_Conv")
#loc381 = loc("/model.20/act/Mul_output_0_Mul_table")
#loc382 = loc("/model.20/act/Mul_output_0_Mul")
#loc383 = loc("/model.23/cv2.1/cv2.1.0/act/Mul_output_0_Mul_table")
#loc384 = loc("/model.23/cv2.1/cv2.1.0/act/Mul_output_0_Mul")
#loc385 = loc("/model.23/cv3.1/cv3.1.0/cv3.1.0.0/act/Mul_output_0_Mul_table")
#loc386 = loc("/model.23/cv3.1/cv3.1.0/cv3.1.0.0/act/Mul_output_0_Mul")
#loc387 = loc("/model.21/Concat_output_0_Concat")
#loc388 = loc("/model.23/cv2.1/cv2.1.1/conv/Conv_output_0_Conv_filter_i8")
#loc389 = loc("/model.23/cv2.1/cv2.1.1/conv/Conv_output_0_Conv_bias_int32")
#loc390 = loc("/model.23/cv2.1/cv2.1.1/conv/Conv_output_0_Conv")
#loc391 = loc("/model.23/cv3.1/cv3.1.0/cv3.1.0.1/conv/Conv_output_0_Conv_filter_i8")
#loc392 = loc("/model.23/cv3.1/cv3.1.0/cv3.1.0.1/conv/Conv_output_0_Conv_bias_int32")
#loc393 = loc("/model.23/cv3.1/cv3.1.0/cv3.1.0.1/conv/Conv_output_0_Conv")
#loc394 = loc("/model.22/cv1/conv/Conv_output_0_Conv_filter_i8")
#loc395 = loc("/model.22/cv1/conv/Conv_output_0_Conv_bias_int32")
#loc396 = loc("/model.22/cv1/conv/Conv_output_0_Conv")
#loc397 = loc("/model.23/cv2.1/cv2.1.1/act/Mul_output_0_Mul_table")
#loc398 = loc("/model.23/cv2.1/cv2.1.1/act/Mul_output_0_Mul")
#loc399 = loc("/model.23/cv3.1/cv3.1.0/cv3.1.0.1/act/Mul_output_0_Mul_table")
#loc400 = loc("/model.23/cv3.1/cv3.1.0/cv3.1.0.1/act/Mul_output_0_Mul")
#loc401 = loc("/model.22/cv1/act/Mul_output_0_Mul_table")
#loc402 = loc("/model.22/cv1/act/Mul_output_0_Mul")
#loc403 = loc("/model.23/cv2.1/cv2.1.2/Conv_output_0_Conv_filter_i8")
#loc404 = loc("/model.23/cv2.1/cv2.1.2/Conv_output_0_Conv_bias_int32")
#loc405 = loc("/model.23/cv2.1/cv2.1.2/Conv_output_0_Conv")
#loc406 = loc("/model.23/cv3.1/cv3.1.1/cv3.1.1.0/conv/Conv_output_0_Conv_filter_i8")
#loc407 = loc("/model.23/cv3.1/cv3.1.1/cv3.1.1.0/conv/Conv_output_0_Conv_bias_int32")
#loc408 = loc("/model.23/cv3.1/cv3.1.1/cv3.1.1.0/conv/Conv_output_0_Conv")
#loc409 = loc("/model.22/Split_output_0_Split")
#loc410 = loc("/model.22/Split_output_1_Split")
#loc411 = loc("/model.22/m.0/cv1/conv/Conv_output_0_Conv_filter_i8")
#loc412 = loc("/model.22/m.0/cv1/conv/Conv_output_0_Conv_bias_int32")
#loc413 = loc("/model.22/m.0/cv1/conv/Conv_output_0_Conv")
#loc414 = loc("/model.22/m.0/cv2/conv/Conv_output_0_Conv_filter_i8")
#loc415 = loc("/model.22/m.0/cv2/conv/Conv_output_0_Conv_bias_int32")
#loc416 = loc("/model.22/m.0/cv2/conv/Conv_output_0_Conv")
#loc417 = loc("/model.23/cv3.1/cv3.1.1/cv3.1.1.0/act/Mul_output_0_Mul_table")
#loc418 = loc("/model.23/cv3.1/cv3.1.1/cv3.1.1.0/act/Mul_output_0_Mul")
#loc419 = loc("/model.23/cv3.1/cv3.1.1/cv3.1.1.1/conv/Conv_output_0_Conv_filter_i8")
#loc420 = loc("/model.23/cv3.1/cv3.1.1/cv3.1.1.1/conv/Conv_output_0_Conv_bias_int32")
#loc421 = loc("/model.23/cv3.1/cv3.1.1/cv3.1.1.1/conv/Conv_output_0_Conv")
#loc422 = loc("/model.22/m.0/cv1/act/Mul_output_0_Mul_table")
#loc423 = loc("/model.22/m.0/cv1/act/Mul_output_0_Mul")
#loc424 = loc("/model.22/m.0/cv2/act/Mul_output_0_Mul_table")
#loc425 = loc("/model.22/m.0/cv2/act/Mul_output_0_Mul")
#loc426 = loc("/model.22/m.0/m/m.0/cv1/conv/Conv_output_0_Conv_filter_i8")
#loc427 = loc("/model.22/m.0/m/m.0/cv1/conv/Conv_output_0_Conv_bias_int32")
#loc428 = loc("/model.22/m.0/m/m.0/cv1/conv/Conv_output_0_Conv")
#loc429 = loc("/model.23/cv3.1/cv3.1.1/cv3.1.1.1/act/Mul_output_0_Mul_table")
#loc430 = loc("/model.23/cv3.1/cv3.1.1/cv3.1.1.1/act/Mul_output_0_Mul")
#loc431 = loc("/model.23/cv3.1/cv3.1.2/Conv_output_0_Conv_filter_i8")
#loc432 = loc("/model.23/cv3.1/cv3.1.2/Conv_output_0_Conv_bias_int32")
#loc433 = loc("/model.23/cv3.1/cv3.1.2/Conv_output_0_Conv")
#loc434 = loc("/model.22/m.0/m/m.0/cv1/act/Mul_output_0_Mul_table")
#loc435 = loc("/model.22/m.0/m/m.0/cv1/act/Mul_output_0_Mul")
#loc436 = loc("/model.23/Concat_1_output_0_Concat")
#loc437 = loc("/model.22/m.0/m/m.0/cv2/conv/Conv_output_0_Conv_filter_i8")
#loc438 = loc("/model.22/m.0/m/m.0/cv2/conv/Conv_output_0_Conv_bias_int32")
#loc439 = loc("/model.22/m.0/m/m.0/cv2/conv/Conv_output_0_Conv")
#loc440 = loc("/model.23/Reshape_1_output_0_Reshape")
#loc441 = loc("/model.22/m.0/m/m.0/cv2/act/Mul_output_0_Mul_table")
#loc442 = loc("/model.22/m.0/m/m.0/cv2/act/Mul_output_0_Mul")
#loc443 = loc("/model.22/m.0/m/m.0/Add_output_0_Add")
#loc444 = loc("/model.22/m.0/m/m.1/cv1/conv/Conv_output_0_Conv_filter_i8")
#loc445 = loc("/model.22/m.0/m/m.1/cv1/conv/Conv_output_0_Conv_bias_int32")
#loc446 = loc("/model.22/m.0/m/m.1/cv1/conv/Conv_output_0_Conv")
#loc447 = loc("/model.22/m.0/m/m.1/cv1/act/Mul_output_0_Mul_table")
#loc448 = loc("/model.22/m.0/m/m.1/cv1/act/Mul_output_0_Mul")
#loc449 = loc("/model.22/m.0/m/m.1/cv2/conv/Conv_output_0_Conv_filter_i8")
#loc450 = loc("/model.22/m.0/m/m.1/cv2/conv/Conv_output_0_Conv_bias_int32")
#loc451 = loc("/model.22/m.0/m/m.1/cv2/conv/Conv_output_0_Conv")
#loc452 = loc("/model.22/m.0/m/m.1/cv2/act/Mul_output_0_Mul_table")
#loc453 = loc("/model.22/m.0/m/m.1/cv2/act/Mul_output_0_Mul")
#loc454 = loc("/model.22/m.0/m/m.1/Add_output_0_Add")
#loc455 = loc("/model.22/m.0/Concat_output_0_Concat")
#loc456 = loc("/model.22/m.0/cv3/conv/Conv_output_0_Conv_filter_i8")
#loc457 = loc("/model.22/m.0/cv3/conv/Conv_output_0_Conv_bias_int32")
#loc458 = loc("/model.22/m.0/cv3/conv/Conv_output_0_Conv")
#loc459 = loc("/model.22/m.0/cv3/act/Mul_output_0_Mul_table")
#loc460 = loc("/model.22/m.0/cv3/act/Mul_output_0_Mul")
#loc461 = loc("/model.22/Concat_output_0_Concat")
#loc462 = loc("/model.22/cv2/conv/Conv_output_0_Conv_filter_i8")
#loc463 = loc("/model.22/cv2/conv/Conv_output_0_Conv_bias_int32")
#loc464 = loc("/model.22/cv2/conv/Conv_output_0_Conv")
#loc465 = loc("/model.22/cv2/act/Mul_output_0_Mul_table")
#loc466 = loc("/model.22/cv2/act/Mul_output_0_Mul")
#loc467 = loc("/model.23/cv2.2/cv2.2.0/conv/Conv_output_0_Conv_filter_i8")
#loc468 = loc("/model.23/cv2.2/cv2.2.0/conv/Conv_output_0_Conv_bias_int32")
#loc469 = loc("/model.23/cv2.2/cv2.2.0/conv/Conv_output_0_Conv")
#loc470 = loc("/model.23/cv3.2/cv3.2.0/cv3.2.0.0/conv/Conv_output_0_Conv_filter_i8")
#loc471 = loc("/model.23/cv3.2/cv3.2.0/cv3.2.0.0/conv/Conv_output_0_Conv_bias_int32")
#loc472 = loc("/model.23/cv3.2/cv3.2.0/cv3.2.0.0/conv/Conv_output_0_Conv")
#loc473 = loc("/model.23/cv2.2/cv2.2.0/act/Mul_output_0_Mul_table")
#loc474 = loc("/model.23/cv2.2/cv2.2.0/act/Mul_output_0_Mul")
#loc475 = loc("/model.23/cv3.2/cv3.2.0/cv3.2.0.0/act/Mul_output_0_Mul_table")
#loc476 = loc("/model.23/cv3.2/cv3.2.0/cv3.2.0.0/act/Mul_output_0_Mul")
#loc477 = loc("/model.23/cv2.2/cv2.2.1/conv/Conv_output_0_Conv_filter_i8")
#loc478 = loc("/model.23/cv2.2/cv2.2.1/conv/Conv_output_0_Conv_bias_int32")
#loc479 = loc("/model.23/cv2.2/cv2.2.1/conv/Conv_output_0_Conv")
#loc480 = loc("/model.23/cv3.2/cv3.2.0/cv3.2.0.1/conv/Conv_output_0_Conv_filter_i8")
#loc481 = loc("/model.23/cv3.2/cv3.2.0/cv3.2.0.1/conv/Conv_output_0_Conv_bias_int32")
#loc482 = loc("/model.23/cv3.2/cv3.2.0/cv3.2.0.1/conv/Conv_output_0_Conv")
#loc483 = loc("/model.23/cv2.2/cv2.2.1/act/Mul_output_0_Mul_table")
#loc484 = loc("/model.23/cv2.2/cv2.2.1/act/Mul_output_0_Mul")
#loc485 = loc("/model.23/cv3.2/cv3.2.0/cv3.2.0.1/act/Mul_output_0_Mul_table")
#loc486 = loc("/model.23/cv3.2/cv3.2.0/cv3.2.0.1/act/Mul_output_0_Mul")
#loc487 = loc("/model.23/cv2.2/cv2.2.2/Conv_output_0_Conv_filter_i8")
#loc488 = loc("/model.23/cv2.2/cv2.2.2/Conv_output_0_Conv_bias_int32")
#loc489 = loc("/model.23/cv2.2/cv2.2.2/Conv_output_0_Conv")
#loc490 = loc("/model.23/cv3.2/cv3.2.1/cv3.2.1.0/conv/Conv_output_0_Conv_filter_i8")
#loc491 = loc("/model.23/cv3.2/cv3.2.1/cv3.2.1.0/conv/Conv_output_0_Conv_bias_int32")
#loc492 = loc("/model.23/cv3.2/cv3.2.1/cv3.2.1.0/conv/Conv_output_0_Conv")
#loc493 = loc("/model.23/cv3.2/cv3.2.1/cv3.2.1.0/act/Mul_output_0_Mul_table")
#loc494 = loc("/model.23/cv3.2/cv3.2.1/cv3.2.1.0/act/Mul_output_0_Mul")
#loc495 = loc("/model.23/cv3.2/cv3.2.1/cv3.2.1.1/conv/Conv_output_0_Conv_filter_i8")
#loc496 = loc("/model.23/cv3.2/cv3.2.1/cv3.2.1.1/conv/Conv_output_0_Conv_bias_int32")
#loc497 = loc("/model.23/cv3.2/cv3.2.1/cv3.2.1.1/conv/Conv_output_0_Conv")
#loc498 = loc("/model.23/cv3.2/cv3.2.1/cv3.2.1.1/act/Mul_output_0_Mul_table")
#loc499 = loc("/model.23/cv3.2/cv3.2.1/cv3.2.1.1/act/Mul_output_0_Mul")
#loc500 = loc("/model.23/cv3.2/cv3.2.2/Conv_output_0_Conv_filter_i8")
#loc501 = loc("/model.23/cv3.2/cv3.2.2/Conv_output_0_Conv_bias_int32")
#loc502 = loc("/model.23/cv3.2/cv3.2.2/Conv_output_0_Conv")
#loc503 = loc("/model.23/Concat_2_output_0_Concat")
#loc504 = loc("/model.23/Reshape_2_output_0_Reshape")
#loc505 = loc("/model.23/Concat_3_output_0_Concat")
#loc506 = loc("/model.23/Split_output_0_Split")
#loc507 = loc("/model.23/Split_output_1_Split")
#loc508 = loc("/model.23/dfl/Reshape_output_0_Reshape")
#loc509 = loc("/model.23/Sigmoid_output_0_Sigmoid_table")
#loc510 = loc("/model.23/Sigmoid_output_0_Sigmoid")
#loc511 = loc("/model.23/Sigmoid_output_0_Sigmoid_f32")
#loc512 = loc("/model.23/dfl/Transpose_output_0_Transpose")
#loc513 = loc("/model.23/dfl/Transpose_output_0_Transpose/model.23/dfl/Softmax_output_0_Softmax_bf16")
#loc514 = loc("/model.23/dfl/Softmax_output_0_Softmax/model.23/dfl/Softmax_output_0_Softmax_slope_table_bf16")
#loc515 = loc("/model.23/dfl/Softmax_output_0_Softmax/model.23/dfl/Softmax_output_0_Softmax_slope_slope_table_bf16")
#loc516 = loc("/model.23/dfl/Softmax_output_0_Softmax/model.23/dfl/Softmax_output_0_Softmax_pow_table_bf16")
#loc517 = loc("/model.23/dfl/Softmax_output_0_Softmax/model.23/dfl/Softmax_output_0_Softmax_pow_mantissa_table_bf16")
#loc518 = loc("/model.23/dfl/Softmax_output_0_Softmax")
#loc519 = loc("/model.23/dfl/Softmax_output_0_Softmax/model.23/dfl/conv/Conv_output_0_Conv_si8")
#loc520 = loc("/model.23/dfl/conv/Conv_output_0_Conv_filter_i8")
#loc521 = loc("/model.23/dfl/conv/Conv_output_0_Conv")
#loc522 = loc("/model.23/dfl/conv/Conv_output_0_Conv_f32")

