#loc = loc(unknown)
module @yolo11s attributes {module.chip = "ALL", module.platform = "ONNX", module.state = "TOP_F32", module.top_run_mode = "STATIC", module.weight_file = "yolo11s_top_f32_all_origin_weight.npz"} {
  func.func @main(%arg0: tensor<1x3x224x320xf32> loc(unknown)) -> (tensor<*xf32>, tensor<*xf32>) {
    %0 = "top.None"() : () -> none loc(#loc)
    %1 = "top.Input"(%arg0) {channel_format = "nchw", do_preprocess = true, keep_aspect_ratio = true, keep_ratio_mode = "letterbox", mean = [0.000000e+00, 0.000000e+00, 0.000000e+00], pad_type = "center", pad_value = 0 : i64, pixel_format = "rgb", resize_dims = [224, 320], scale = [0.0039215688593685627, 0.0039215688593685627, 0.0039215688593685627]} : (tensor<1x3x224x320xf32>) -> tensor<1x3x224x320xf32> loc(#loc1)
    %2 = "top.Weight"() : () -> tensor<32x3x3x3xf32> loc(#loc2)
    %3 = "top.Weight"() : () -> tensor<32xf32> loc(#loc3)
    %4 = "top.Conv"(%1, %2, %3) {auto_pad = "NOTSET", dilations = [1, 1], do_relu = false, dynweight_reorderd = false, group = 1 : i64, kernel_shape = [3, 3], pads = [1, 1, 1, 1], relu_limit = -1.000000e+00 : f64, strides = [2, 2], weight_is_coeff = 1 : i64} : (tensor<1x3x224x320xf32>, tensor<32x3x3x3xf32>, tensor<32xf32>) -> tensor<*xf32> loc(#loc4)
    %5 = "top.Sigmoid"(%4) {bias = 0.000000e+00 : f64, log = false, round_mode = "HalfAwayFromZero", scale = 1.000000e+00 : f64} : (tensor<*xf32>) -> tensor<*xf32> loc(#loc5)
    %6 = "top.Mul"(%4, %5) {do_relu = false, is_scalar = false, relu_limit = -1.000000e+00 : f64} : (tensor<*xf32>, tensor<*xf32>) -> tensor<*xf32> loc(#loc6)
    %7 = "top.Weight"() : () -> tensor<64x32x3x3xf32> loc(#loc7)
    %8 = "top.Weight"() : () -> tensor<64xf32> loc(#loc8)
    %9 = "top.Conv"(%6, %7, %8) {auto_pad = "NOTSET", dilations = [1, 1], do_relu = false, dynweight_reorderd = false, group = 1 : i64, kernel_shape = [3, 3], pads = [1, 1, 1, 1], relu_limit = -1.000000e+00 : f64, strides = [2, 2], weight_is_coeff = 1 : i64} : (tensor<*xf32>, tensor<64x32x3x3xf32>, tensor<64xf32>) -> tensor<*xf32> loc(#loc9)
    %10 = "top.Sigmoid"(%9) {bias = 0.000000e+00 : f64, log = false, round_mode = "HalfAwayFromZero", scale = 1.000000e+00 : f64} : (tensor<*xf32>) -> tensor<*xf32> loc(#loc10)
    %11 = "top.Mul"(%9, %10) {do_relu = false, is_scalar = false, relu_limit = -1.000000e+00 : f64} : (tensor<*xf32>, tensor<*xf32>) -> tensor<*xf32> loc(#loc11)
    %12 = "top.Weight"() : () -> tensor<64x64x1x1xf32> loc(#loc12)
    %13 = "top.Weight"() : () -> tensor<64xf32> loc(#loc13)
    %14 = "top.Conv"(%11, %12, %13) {auto_pad = "NOTSET", dilations = [1, 1], do_relu = false, dynweight_reorderd = false, group = 1 : i64, kernel_shape = [1, 1], pads = [0, 0, 0, 0], relu_limit = -1.000000e+00 : f64, strides = [1, 1], weight_is_coeff = 1 : i64} : (tensor<*xf32>, tensor<64x64x1x1xf32>, tensor<64xf32>) -> tensor<*xf32> loc(#loc14)
    %15 = "top.Sigmoid"(%14) {bias = 0.000000e+00 : f64, log = false, round_mode = "HalfAwayFromZero", scale = 1.000000e+00 : f64} : (tensor<*xf32>) -> tensor<*xf32> loc(#loc15)
    %16 = "top.Mul"(%14, %15) {do_relu = false, is_scalar = false, relu_limit = -1.000000e+00 : f64} : (tensor<*xf32>, tensor<*xf32>) -> tensor<*xf32> loc(#loc16)
    %17:2 = "top.Split"(%16) {axis = 1 : si32, num = 2 : i64, split_size = [32, 32]} : (tensor<*xf32>) -> (tensor<*xf32>, tensor<*xf32>) loc(#loc499)
    %18 = "top.Weight"() : () -> tensor<16x32x3x3xf32> loc(#loc19)
    %19 = "top.Weight"() : () -> tensor<16xf32> loc(#loc20)
    %20 = "top.Conv"(%17#1, %18, %19) {auto_pad = "NOTSET", dilations = [1, 1], do_relu = false, dynweight_reorderd = false, group = 1 : i64, kernel_shape = [3, 3], pads = [1, 1, 1, 1], relu_limit = -1.000000e+00 : f64, strides = [1, 1], weight_is_coeff = 1 : i64} : (tensor<*xf32>, tensor<16x32x3x3xf32>, tensor<16xf32>) -> tensor<*xf32> loc(#loc21)
    %21 = "top.Sigmoid"(%20) {bias = 0.000000e+00 : f64, log = false, round_mode = "HalfAwayFromZero", scale = 1.000000e+00 : f64} : (tensor<*xf32>) -> tensor<*xf32> loc(#loc22)
    %22 = "top.Mul"(%20, %21) {do_relu = false, is_scalar = false, relu_limit = -1.000000e+00 : f64} : (tensor<*xf32>, tensor<*xf32>) -> tensor<*xf32> loc(#loc23)
    %23 = "top.Weight"() : () -> tensor<32x16x3x3xf32> loc(#loc24)
    %24 = "top.Weight"() : () -> tensor<32xf32> loc(#loc25)
    %25 = "top.Conv"(%22, %23, %24) {auto_pad = "NOTSET", dilations = [1, 1], do_relu = false, dynweight_reorderd = false, group = 1 : i64, kernel_shape = [3, 3], pads = [1, 1, 1, 1], relu_limit = -1.000000e+00 : f64, strides = [1, 1], weight_is_coeff = 1 : i64} : (tensor<*xf32>, tensor<32x16x3x3xf32>, tensor<32xf32>) -> tensor<*xf32> loc(#loc26)
    %26 = "top.Sigmoid"(%25) {bias = 0.000000e+00 : f64, log = false, round_mode = "HalfAwayFromZero", scale = 1.000000e+00 : f64} : (tensor<*xf32>) -> tensor<*xf32> loc(#loc27)
    %27 = "top.Mul"(%25, %26) {do_relu = false, is_scalar = false, relu_limit = -1.000000e+00 : f64} : (tensor<*xf32>, tensor<*xf32>) -> tensor<*xf32> loc(#loc28)
    %28 = "top.Add"(%17#1, %27) {do_relu = false, is_scalar = false, relu_limit = -1.000000e+00 : f64} : (tensor<*xf32>, tensor<*xf32>) -> tensor<*xf32> loc(#loc29)
    %29 = "top.Concat"(%17#0, %17#1, %28) {axis = 1 : si32, do_relu = false, relu_limit = -1.000000e+00 : f64, round_mode = "HalfAwayFromZero"} : (tensor<*xf32>, tensor<*xf32>, tensor<*xf32>) -> tensor<*xf32> loc(#loc30)
    %30 = "top.Weight"() : () -> tensor<128x96x1x1xf32> loc(#loc31)
    %31 = "top.Weight"() : () -> tensor<128xf32> loc(#loc32)
    %32 = "top.Conv"(%29, %30, %31) {auto_pad = "NOTSET", dilations = [1, 1], do_relu = false, dynweight_reorderd = false, group = 1 : i64, kernel_shape = [1, 1], pads = [0, 0, 0, 0], relu_limit = -1.000000e+00 : f64, strides = [1, 1], weight_is_coeff = 1 : i64} : (tensor<*xf32>, tensor<128x96x1x1xf32>, tensor<128xf32>) -> tensor<*xf32> loc(#loc33)
    %33 = "top.Sigmoid"(%32) {bias = 0.000000e+00 : f64, log = false, round_mode = "HalfAwayFromZero", scale = 1.000000e+00 : f64} : (tensor<*xf32>) -> tensor<*xf32> loc(#loc34)
    %34 = "top.Mul"(%32, %33) {do_relu = false, is_scalar = false, relu_limit = -1.000000e+00 : f64} : (tensor<*xf32>, tensor<*xf32>) -> tensor<*xf32> loc(#loc35)
    %35 = "top.Weight"() : () -> tensor<128x128x3x3xf32> loc(#loc36)
    %36 = "top.Weight"() : () -> tensor<128xf32> loc(#loc37)
    %37 = "top.Conv"(%34, %35, %36) {auto_pad = "NOTSET", dilations = [1, 1], do_relu = false, dynweight_reorderd = false, group = 1 : i64, kernel_shape = [3, 3], pads = [1, 1, 1, 1], relu_limit = -1.000000e+00 : f64, strides = [2, 2], weight_is_coeff = 1 : i64} : (tensor<*xf32>, tensor<128x128x3x3xf32>, tensor<128xf32>) -> tensor<*xf32> loc(#loc38)
    %38 = "top.Sigmoid"(%37) {bias = 0.000000e+00 : f64, log = false, round_mode = "HalfAwayFromZero", scale = 1.000000e+00 : f64} : (tensor<*xf32>) -> tensor<*xf32> loc(#loc39)
    %39 = "top.Mul"(%37, %38) {do_relu = false, is_scalar = false, relu_limit = -1.000000e+00 : f64} : (tensor<*xf32>, tensor<*xf32>) -> tensor<*xf32> loc(#loc40)
    %40 = "top.Weight"() : () -> tensor<128x128x1x1xf32> loc(#loc41)
    %41 = "top.Weight"() : () -> tensor<128xf32> loc(#loc42)
    %42 = "top.Conv"(%39, %40, %41) {auto_pad = "NOTSET", dilations = [1, 1], do_relu = false, dynweight_reorderd = false, group = 1 : i64, kernel_shape = [1, 1], pads = [0, 0, 0, 0], relu_limit = -1.000000e+00 : f64, strides = [1, 1], weight_is_coeff = 1 : i64} : (tensor<*xf32>, tensor<128x128x1x1xf32>, tensor<128xf32>) -> tensor<*xf32> loc(#loc43)
    %43 = "top.Sigmoid"(%42) {bias = 0.000000e+00 : f64, log = false, round_mode = "HalfAwayFromZero", scale = 1.000000e+00 : f64} : (tensor<*xf32>) -> tensor<*xf32> loc(#loc44)
    %44 = "top.Mul"(%42, %43) {do_relu = false, is_scalar = false, relu_limit = -1.000000e+00 : f64} : (tensor<*xf32>, tensor<*xf32>) -> tensor<*xf32> loc(#loc45)
    %45:2 = "top.Split"(%44) {axis = 1 : si32, num = 2 : i64, split_size = [64, 64]} : (tensor<*xf32>) -> (tensor<*xf32>, tensor<*xf32>) loc(#loc500)
    %46 = "top.Weight"() : () -> tensor<32x64x3x3xf32> loc(#loc48)
    %47 = "top.Weight"() : () -> tensor<32xf32> loc(#loc49)
    %48 = "top.Conv"(%45#1, %46, %47) {auto_pad = "NOTSET", dilations = [1, 1], do_relu = false, dynweight_reorderd = false, group = 1 : i64, kernel_shape = [3, 3], pads = [1, 1, 1, 1], relu_limit = -1.000000e+00 : f64, strides = [1, 1], weight_is_coeff = 1 : i64} : (tensor<*xf32>, tensor<32x64x3x3xf32>, tensor<32xf32>) -> tensor<*xf32> loc(#loc50)
    %49 = "top.Sigmoid"(%48) {bias = 0.000000e+00 : f64, log = false, round_mode = "HalfAwayFromZero", scale = 1.000000e+00 : f64} : (tensor<*xf32>) -> tensor<*xf32> loc(#loc51)
    %50 = "top.Mul"(%48, %49) {do_relu = false, is_scalar = false, relu_limit = -1.000000e+00 : f64} : (tensor<*xf32>, tensor<*xf32>) -> tensor<*xf32> loc(#loc52)
    %51 = "top.Weight"() : () -> tensor<64x32x3x3xf32> loc(#loc53)
    %52 = "top.Weight"() : () -> tensor<64xf32> loc(#loc54)
    %53 = "top.Conv"(%50, %51, %52) {auto_pad = "NOTSET", dilations = [1, 1], do_relu = false, dynweight_reorderd = false, group = 1 : i64, kernel_shape = [3, 3], pads = [1, 1, 1, 1], relu_limit = -1.000000e+00 : f64, strides = [1, 1], weight_is_coeff = 1 : i64} : (tensor<*xf32>, tensor<64x32x3x3xf32>, tensor<64xf32>) -> tensor<*xf32> loc(#loc55)
    %54 = "top.Sigmoid"(%53) {bias = 0.000000e+00 : f64, log = false, round_mode = "HalfAwayFromZero", scale = 1.000000e+00 : f64} : (tensor<*xf32>) -> tensor<*xf32> loc(#loc56)
    %55 = "top.Mul"(%53, %54) {do_relu = false, is_scalar = false, relu_limit = -1.000000e+00 : f64} : (tensor<*xf32>, tensor<*xf32>) -> tensor<*xf32> loc(#loc57)
    %56 = "top.Add"(%45#1, %55) {do_relu = false, is_scalar = false, relu_limit = -1.000000e+00 : f64} : (tensor<*xf32>, tensor<*xf32>) -> tensor<*xf32> loc(#loc58)
    %57 = "top.Concat"(%45#0, %45#1, %56) {axis = 1 : si32, do_relu = false, relu_limit = -1.000000e+00 : f64, round_mode = "HalfAwayFromZero"} : (tensor<*xf32>, tensor<*xf32>, tensor<*xf32>) -> tensor<*xf32> loc(#loc59)
    %58 = "top.Weight"() : () -> tensor<256x192x1x1xf32> loc(#loc60)
    %59 = "top.Weight"() : () -> tensor<256xf32> loc(#loc61)
    %60 = "top.Conv"(%57, %58, %59) {auto_pad = "NOTSET", dilations = [1, 1], do_relu = false, dynweight_reorderd = false, group = 1 : i64, kernel_shape = [1, 1], pads = [0, 0, 0, 0], relu_limit = -1.000000e+00 : f64, strides = [1, 1], weight_is_coeff = 1 : i64} : (tensor<*xf32>, tensor<256x192x1x1xf32>, tensor<256xf32>) -> tensor<*xf32> loc(#loc62)
    %61 = "top.Sigmoid"(%60) {bias = 0.000000e+00 : f64, log = false, round_mode = "HalfAwayFromZero", scale = 1.000000e+00 : f64} : (tensor<*xf32>) -> tensor<*xf32> loc(#loc63)
    %62 = "top.Mul"(%60, %61) {do_relu = false, is_scalar = false, relu_limit = -1.000000e+00 : f64} : (tensor<*xf32>, tensor<*xf32>) -> tensor<*xf32> loc(#loc64)
    %63 = "top.Weight"() : () -> tensor<256x256x3x3xf32> loc(#loc65)
    %64 = "top.Weight"() : () -> tensor<256xf32> loc(#loc66)
    %65 = "top.Conv"(%62, %63, %64) {auto_pad = "NOTSET", dilations = [1, 1], do_relu = false, dynweight_reorderd = false, group = 1 : i64, kernel_shape = [3, 3], pads = [1, 1, 1, 1], relu_limit = -1.000000e+00 : f64, strides = [2, 2], weight_is_coeff = 1 : i64} : (tensor<*xf32>, tensor<256x256x3x3xf32>, tensor<256xf32>) -> tensor<*xf32> loc(#loc67)
    %66 = "top.Sigmoid"(%65) {bias = 0.000000e+00 : f64, log = false, round_mode = "HalfAwayFromZero", scale = 1.000000e+00 : f64} : (tensor<*xf32>) -> tensor<*xf32> loc(#loc68)
    %67 = "top.Mul"(%65, %66) {do_relu = false, is_scalar = false, relu_limit = -1.000000e+00 : f64} : (tensor<*xf32>, tensor<*xf32>) -> tensor<*xf32> loc(#loc69)
    %68 = "top.Weight"() : () -> tensor<256x256x1x1xf32> loc(#loc70)
    %69 = "top.Weight"() : () -> tensor<256xf32> loc(#loc71)
    %70 = "top.Conv"(%67, %68, %69) {auto_pad = "NOTSET", dilations = [1, 1], do_relu = false, dynweight_reorderd = false, group = 1 : i64, kernel_shape = [1, 1], pads = [0, 0, 0, 0], relu_limit = -1.000000e+00 : f64, strides = [1, 1], weight_is_coeff = 1 : i64} : (tensor<*xf32>, tensor<256x256x1x1xf32>, tensor<256xf32>) -> tensor<*xf32> loc(#loc72)
    %71 = "top.Sigmoid"(%70) {bias = 0.000000e+00 : f64, log = false, round_mode = "HalfAwayFromZero", scale = 1.000000e+00 : f64} : (tensor<*xf32>) -> tensor<*xf32> loc(#loc73)
    %72 = "top.Mul"(%70, %71) {do_relu = false, is_scalar = false, relu_limit = -1.000000e+00 : f64} : (tensor<*xf32>, tensor<*xf32>) -> tensor<*xf32> loc(#loc74)
    %73:2 = "top.Split"(%72) {axis = 1 : si32, num = 2 : i64, split_size = [128, 128]} : (tensor<*xf32>) -> (tensor<*xf32>, tensor<*xf32>) loc(#loc501)
    %74 = "top.Weight"() : () -> tensor<64x128x1x1xf32> loc(#loc77)
    %75 = "top.Weight"() : () -> tensor<64xf32> loc(#loc78)
    %76 = "top.Conv"(%73#1, %74, %75) {auto_pad = "NOTSET", dilations = [1, 1], do_relu = false, dynweight_reorderd = false, group = 1 : i64, kernel_shape = [1, 1], pads = [0, 0, 0, 0], relu_limit = -1.000000e+00 : f64, strides = [1, 1], weight_is_coeff = 1 : i64} : (tensor<*xf32>, tensor<64x128x1x1xf32>, tensor<64xf32>) -> tensor<*xf32> loc(#loc79)
    %77 = "top.Weight"() : () -> tensor<64x128x1x1xf32> loc(#loc80)
    %78 = "top.Weight"() : () -> tensor<64xf32> loc(#loc81)
    %79 = "top.Conv"(%73#1, %77, %78) {auto_pad = "NOTSET", dilations = [1, 1], do_relu = false, dynweight_reorderd = false, group = 1 : i64, kernel_shape = [1, 1], pads = [0, 0, 0, 0], relu_limit = -1.000000e+00 : f64, strides = [1, 1], weight_is_coeff = 1 : i64} : (tensor<*xf32>, tensor<64x128x1x1xf32>, tensor<64xf32>) -> tensor<*xf32> loc(#loc82)
    %80 = "top.Sigmoid"(%76) {bias = 0.000000e+00 : f64, log = false, round_mode = "HalfAwayFromZero", scale = 1.000000e+00 : f64} : (tensor<*xf32>) -> tensor<*xf32> loc(#loc83)
    %81 = "top.Sigmoid"(%79) {bias = 0.000000e+00 : f64, log = false, round_mode = "HalfAwayFromZero", scale = 1.000000e+00 : f64} : (tensor<*xf32>) -> tensor<*xf32> loc(#loc84)
    %82 = "top.Mul"(%76, %80) {do_relu = false, is_scalar = false, relu_limit = -1.000000e+00 : f64} : (tensor<*xf32>, tensor<*xf32>) -> tensor<*xf32> loc(#loc85)
    %83 = "top.Mul"(%79, %81) {do_relu = false, is_scalar = false, relu_limit = -1.000000e+00 : f64} : (tensor<*xf32>, tensor<*xf32>) -> tensor<*xf32> loc(#loc86)
    %84 = "top.Weight"() : () -> tensor<64x64x3x3xf32> loc(#loc87)
    %85 = "top.Weight"() : () -> tensor<64xf32> loc(#loc88)
    %86 = "top.Conv"(%82, %84, %85) {auto_pad = "NOTSET", dilations = [1, 1], do_relu = false, dynweight_reorderd = false, group = 1 : i64, kernel_shape = [3, 3], pads = [1, 1, 1, 1], relu_limit = -1.000000e+00 : f64, strides = [1, 1], weight_is_coeff = 1 : i64} : (tensor<*xf32>, tensor<64x64x3x3xf32>, tensor<64xf32>) -> tensor<*xf32> loc(#loc89)
    %87 = "top.Sigmoid"(%86) {bias = 0.000000e+00 : f64, log = false, round_mode = "HalfAwayFromZero", scale = 1.000000e+00 : f64} : (tensor<*xf32>) -> tensor<*xf32> loc(#loc90)
    %88 = "top.Mul"(%86, %87) {do_relu = false, is_scalar = false, relu_limit = -1.000000e+00 : f64} : (tensor<*xf32>, tensor<*xf32>) -> tensor<*xf32> loc(#loc91)
    %89 = "top.Weight"() : () -> tensor<64x64x3x3xf32> loc(#loc92)
    %90 = "top.Weight"() : () -> tensor<64xf32> loc(#loc93)
    %91 = "top.Conv"(%88, %89, %90) {auto_pad = "NOTSET", dilations = [1, 1], do_relu = false, dynweight_reorderd = false, group = 1 : i64, kernel_shape = [3, 3], pads = [1, 1, 1, 1], relu_limit = -1.000000e+00 : f64, strides = [1, 1], weight_is_coeff = 1 : i64} : (tensor<*xf32>, tensor<64x64x3x3xf32>, tensor<64xf32>) -> tensor<*xf32> loc(#loc94)
    %92 = "top.Sigmoid"(%91) {bias = 0.000000e+00 : f64, log = false, round_mode = "HalfAwayFromZero", scale = 1.000000e+00 : f64} : (tensor<*xf32>) -> tensor<*xf32> loc(#loc95)
    %93 = "top.Mul"(%91, %92) {do_relu = false, is_scalar = false, relu_limit = -1.000000e+00 : f64} : (tensor<*xf32>, tensor<*xf32>) -> tensor<*xf32> loc(#loc96)
    %94 = "top.Add"(%82, %93) {do_relu = false, is_scalar = false, relu_limit = -1.000000e+00 : f64} : (tensor<*xf32>, tensor<*xf32>) -> tensor<*xf32> loc(#loc97)
    %95 = "top.Weight"() : () -> tensor<64x64x3x3xf32> loc(#loc98)
    %96 = "top.Weight"() : () -> tensor<64xf32> loc(#loc99)
    %97 = "top.Conv"(%94, %95, %96) {auto_pad = "NOTSET", dilations = [1, 1], do_relu = false, dynweight_reorderd = false, group = 1 : i64, kernel_shape = [3, 3], pads = [1, 1, 1, 1], relu_limit = -1.000000e+00 : f64, strides = [1, 1], weight_is_coeff = 1 : i64} : (tensor<*xf32>, tensor<64x64x3x3xf32>, tensor<64xf32>) -> tensor<*xf32> loc(#loc100)
    %98 = "top.Sigmoid"(%97) {bias = 0.000000e+00 : f64, log = false, round_mode = "HalfAwayFromZero", scale = 1.000000e+00 : f64} : (tensor<*xf32>) -> tensor<*xf32> loc(#loc101)
    %99 = "top.Mul"(%97, %98) {do_relu = false, is_scalar = false, relu_limit = -1.000000e+00 : f64} : (tensor<*xf32>, tensor<*xf32>) -> tensor<*xf32> loc(#loc102)
    %100 = "top.Weight"() : () -> tensor<64x64x3x3xf32> loc(#loc103)
    %101 = "top.Weight"() : () -> tensor<64xf32> loc(#loc104)
    %102 = "top.Conv"(%99, %100, %101) {auto_pad = "NOTSET", dilations = [1, 1], do_relu = false, dynweight_reorderd = false, group = 1 : i64, kernel_shape = [3, 3], pads = [1, 1, 1, 1], relu_limit = -1.000000e+00 : f64, strides = [1, 1], weight_is_coeff = 1 : i64} : (tensor<*xf32>, tensor<64x64x3x3xf32>, tensor<64xf32>) -> tensor<*xf32> loc(#loc105)
    %103 = "top.Sigmoid"(%102) {bias = 0.000000e+00 : f64, log = false, round_mode = "HalfAwayFromZero", scale = 1.000000e+00 : f64} : (tensor<*xf32>) -> tensor<*xf32> loc(#loc106)
    %104 = "top.Mul"(%102, %103) {do_relu = false, is_scalar = false, relu_limit = -1.000000e+00 : f64} : (tensor<*xf32>, tensor<*xf32>) -> tensor<*xf32> loc(#loc107)
    %105 = "top.Add"(%94, %104) {do_relu = false, is_scalar = false, relu_limit = -1.000000e+00 : f64} : (tensor<*xf32>, tensor<*xf32>) -> tensor<*xf32> loc(#loc108)
    %106 = "top.Concat"(%105, %83) {axis = 1 : si32, do_relu = false, relu_limit = -1.000000e+00 : f64, round_mode = "HalfAwayFromZero"} : (tensor<*xf32>, tensor<*xf32>) -> tensor<*xf32> loc(#loc109)
    %107 = "top.Weight"() : () -> tensor<128x128x1x1xf32> loc(#loc110)
    %108 = "top.Weight"() : () -> tensor<128xf32> loc(#loc111)
    %109 = "top.Conv"(%106, %107, %108) {auto_pad = "NOTSET", dilations = [1, 1], do_relu = false, dynweight_reorderd = false, group = 1 : i64, kernel_shape = [1, 1], pads = [0, 0, 0, 0], relu_limit = -1.000000e+00 : f64, strides = [1, 1], weight_is_coeff = 1 : i64} : (tensor<*xf32>, tensor<128x128x1x1xf32>, tensor<128xf32>) -> tensor<*xf32> loc(#loc112)
    %110 = "top.Sigmoid"(%109) {bias = 0.000000e+00 : f64, log = false, round_mode = "HalfAwayFromZero", scale = 1.000000e+00 : f64} : (tensor<*xf32>) -> tensor<*xf32> loc(#loc113)
    %111 = "top.Mul"(%109, %110) {do_relu = false, is_scalar = false, relu_limit = -1.000000e+00 : f64} : (tensor<*xf32>, tensor<*xf32>) -> tensor<*xf32> loc(#loc114)
    %112 = "top.Concat"(%73#0, %73#1, %111) {axis = 1 : si32, do_relu = false, relu_limit = -1.000000e+00 : f64, round_mode = "HalfAwayFromZero"} : (tensor<*xf32>, tensor<*xf32>, tensor<*xf32>) -> tensor<*xf32> loc(#loc115)
    %113 = "top.Weight"() : () -> tensor<256x384x1x1xf32> loc(#loc116)
    %114 = "top.Weight"() : () -> tensor<256xf32> loc(#loc117)
    %115 = "top.Conv"(%112, %113, %114) {auto_pad = "NOTSET", dilations = [1, 1], do_relu = false, dynweight_reorderd = false, group = 1 : i64, kernel_shape = [1, 1], pads = [0, 0, 0, 0], relu_limit = -1.000000e+00 : f64, strides = [1, 1], weight_is_coeff = 1 : i64} : (tensor<*xf32>, tensor<256x384x1x1xf32>, tensor<256xf32>) -> tensor<*xf32> loc(#loc118)
    %116 = "top.Sigmoid"(%115) {bias = 0.000000e+00 : f64, log = false, round_mode = "HalfAwayFromZero", scale = 1.000000e+00 : f64} : (tensor<*xf32>) -> tensor<*xf32> loc(#loc119)
    %117 = "top.Mul"(%115, %116) {do_relu = false, is_scalar = false, relu_limit = -1.000000e+00 : f64} : (tensor<*xf32>, tensor<*xf32>) -> tensor<*xf32> loc(#loc120)
    %118 = "top.Weight"() : () -> tensor<512x256x3x3xf32> loc(#loc121)
    %119 = "top.Weight"() : () -> tensor<512xf32> loc(#loc122)
    %120 = "top.Conv"(%117, %118, %119) {auto_pad = "NOTSET", dilations = [1, 1], do_relu = false, dynweight_reorderd = false, group = 1 : i64, kernel_shape = [3, 3], pads = [1, 1, 1, 1], relu_limit = -1.000000e+00 : f64, strides = [2, 2], weight_is_coeff = 1 : i64} : (tensor<*xf32>, tensor<512x256x3x3xf32>, tensor<512xf32>) -> tensor<*xf32> loc(#loc123)
    %121 = "top.Sigmoid"(%120) {bias = 0.000000e+00 : f64, log = false, round_mode = "HalfAwayFromZero", scale = 1.000000e+00 : f64} : (tensor<*xf32>) -> tensor<*xf32> loc(#loc124)
    %122 = "top.Mul"(%120, %121) {do_relu = false, is_scalar = false, relu_limit = -1.000000e+00 : f64} : (tensor<*xf32>, tensor<*xf32>) -> tensor<*xf32> loc(#loc125)
    %123 = "top.Weight"() : () -> tensor<512x512x1x1xf32> loc(#loc126)
    %124 = "top.Weight"() : () -> tensor<512xf32> loc(#loc127)
    %125 = "top.Conv"(%122, %123, %124) {auto_pad = "NOTSET", dilations = [1, 1], do_relu = false, dynweight_reorderd = false, group = 1 : i64, kernel_shape = [1, 1], pads = [0, 0, 0, 0], relu_limit = -1.000000e+00 : f64, strides = [1, 1], weight_is_coeff = 1 : i64} : (tensor<*xf32>, tensor<512x512x1x1xf32>, tensor<512xf32>) -> tensor<*xf32> loc(#loc128)
    %126 = "top.Sigmoid"(%125) {bias = 0.000000e+00 : f64, log = false, round_mode = "HalfAwayFromZero", scale = 1.000000e+00 : f64} : (tensor<*xf32>) -> tensor<*xf32> loc(#loc129)
    %127 = "top.Mul"(%125, %126) {do_relu = false, is_scalar = false, relu_limit = -1.000000e+00 : f64} : (tensor<*xf32>, tensor<*xf32>) -> tensor<*xf32> loc(#loc130)
    %128:2 = "top.Split"(%127) {axis = 1 : si32, num = 2 : i64, split_size = [256, 256]} : (tensor<*xf32>) -> (tensor<*xf32>, tensor<*xf32>) loc(#loc502)
    %129 = "top.Weight"() : () -> tensor<128x256x1x1xf32> loc(#loc133)
    %130 = "top.Weight"() : () -> tensor<128xf32> loc(#loc134)
    %131 = "top.Conv"(%128#1, %129, %130) {auto_pad = "NOTSET", dilations = [1, 1], do_relu = false, dynweight_reorderd = false, group = 1 : i64, kernel_shape = [1, 1], pads = [0, 0, 0, 0], relu_limit = -1.000000e+00 : f64, strides = [1, 1], weight_is_coeff = 1 : i64} : (tensor<*xf32>, tensor<128x256x1x1xf32>, tensor<128xf32>) -> tensor<*xf32> loc(#loc135)
    %132 = "top.Weight"() : () -> tensor<128x256x1x1xf32> loc(#loc136)
    %133 = "top.Weight"() : () -> tensor<128xf32> loc(#loc137)
    %134 = "top.Conv"(%128#1, %132, %133) {auto_pad = "NOTSET", dilations = [1, 1], do_relu = false, dynweight_reorderd = false, group = 1 : i64, kernel_shape = [1, 1], pads = [0, 0, 0, 0], relu_limit = -1.000000e+00 : f64, strides = [1, 1], weight_is_coeff = 1 : i64} : (tensor<*xf32>, tensor<128x256x1x1xf32>, tensor<128xf32>) -> tensor<*xf32> loc(#loc138)
    %135 = "top.Sigmoid"(%131) {bias = 0.000000e+00 : f64, log = false, round_mode = "HalfAwayFromZero", scale = 1.000000e+00 : f64} : (tensor<*xf32>) -> tensor<*xf32> loc(#loc139)
    %136 = "top.Sigmoid"(%134) {bias = 0.000000e+00 : f64, log = false, round_mode = "HalfAwayFromZero", scale = 1.000000e+00 : f64} : (tensor<*xf32>) -> tensor<*xf32> loc(#loc140)
    %137 = "top.Mul"(%131, %135) {do_relu = false, is_scalar = false, relu_limit = -1.000000e+00 : f64} : (tensor<*xf32>, tensor<*xf32>) -> tensor<*xf32> loc(#loc141)
    %138 = "top.Mul"(%134, %136) {do_relu = false, is_scalar = false, relu_limit = -1.000000e+00 : f64} : (tensor<*xf32>, tensor<*xf32>) -> tensor<*xf32> loc(#loc142)
    %139 = "top.Weight"() : () -> tensor<128x128x3x3xf32> loc(#loc143)
    %140 = "top.Weight"() : () -> tensor<128xf32> loc(#loc144)
    %141 = "top.Conv"(%137, %139, %140) {auto_pad = "NOTSET", dilations = [1, 1], do_relu = false, dynweight_reorderd = false, group = 1 : i64, kernel_shape = [3, 3], pads = [1, 1, 1, 1], relu_limit = -1.000000e+00 : f64, strides = [1, 1], weight_is_coeff = 1 : i64} : (tensor<*xf32>, tensor<128x128x3x3xf32>, tensor<128xf32>) -> tensor<*xf32> loc(#loc145)
    %142 = "top.Sigmoid"(%141) {bias = 0.000000e+00 : f64, log = false, round_mode = "HalfAwayFromZero", scale = 1.000000e+00 : f64} : (tensor<*xf32>) -> tensor<*xf32> loc(#loc146)
    %143 = "top.Mul"(%141, %142) {do_relu = false, is_scalar = false, relu_limit = -1.000000e+00 : f64} : (tensor<*xf32>, tensor<*xf32>) -> tensor<*xf32> loc(#loc147)
    %144 = "top.Weight"() : () -> tensor<128x128x3x3xf32> loc(#loc148)
    %145 = "top.Weight"() : () -> tensor<128xf32> loc(#loc149)
    %146 = "top.Conv"(%143, %144, %145) {auto_pad = "NOTSET", dilations = [1, 1], do_relu = false, dynweight_reorderd = false, group = 1 : i64, kernel_shape = [3, 3], pads = [1, 1, 1, 1], relu_limit = -1.000000e+00 : f64, strides = [1, 1], weight_is_coeff = 1 : i64} : (tensor<*xf32>, tensor<128x128x3x3xf32>, tensor<128xf32>) -> tensor<*xf32> loc(#loc150)
    %147 = "top.Sigmoid"(%146) {bias = 0.000000e+00 : f64, log = false, round_mode = "HalfAwayFromZero", scale = 1.000000e+00 : f64} : (tensor<*xf32>) -> tensor<*xf32> loc(#loc151)
    %148 = "top.Mul"(%146, %147) {do_relu = false, is_scalar = false, relu_limit = -1.000000e+00 : f64} : (tensor<*xf32>, tensor<*xf32>) -> tensor<*xf32> loc(#loc152)
    %149 = "top.Add"(%137, %148) {do_relu = false, is_scalar = false, relu_limit = -1.000000e+00 : f64} : (tensor<*xf32>, tensor<*xf32>) -> tensor<*xf32> loc(#loc153)
    %150 = "top.Weight"() : () -> tensor<128x128x3x3xf32> loc(#loc154)
    %151 = "top.Weight"() : () -> tensor<128xf32> loc(#loc155)
    %152 = "top.Conv"(%149, %150, %151) {auto_pad = "NOTSET", dilations = [1, 1], do_relu = false, dynweight_reorderd = false, group = 1 : i64, kernel_shape = [3, 3], pads = [1, 1, 1, 1], relu_limit = -1.000000e+00 : f64, strides = [1, 1], weight_is_coeff = 1 : i64} : (tensor<*xf32>, tensor<128x128x3x3xf32>, tensor<128xf32>) -> tensor<*xf32> loc(#loc156)
    %153 = "top.Sigmoid"(%152) {bias = 0.000000e+00 : f64, log = false, round_mode = "HalfAwayFromZero", scale = 1.000000e+00 : f64} : (tensor<*xf32>) -> tensor<*xf32> loc(#loc157)
    %154 = "top.Mul"(%152, %153) {do_relu = false, is_scalar = false, relu_limit = -1.000000e+00 : f64} : (tensor<*xf32>, tensor<*xf32>) -> tensor<*xf32> loc(#loc158)
    %155 = "top.Weight"() : () -> tensor<128x128x3x3xf32> loc(#loc159)
    %156 = "top.Weight"() : () -> tensor<128xf32> loc(#loc160)
    %157 = "top.Conv"(%154, %155, %156) {auto_pad = "NOTSET", dilations = [1, 1], do_relu = false, dynweight_reorderd = false, group = 1 : i64, kernel_shape = [3, 3], pads = [1, 1, 1, 1], relu_limit = -1.000000e+00 : f64, strides = [1, 1], weight_is_coeff = 1 : i64} : (tensor<*xf32>, tensor<128x128x3x3xf32>, tensor<128xf32>) -> tensor<*xf32> loc(#loc161)
    %158 = "top.Sigmoid"(%157) {bias = 0.000000e+00 : f64, log = false, round_mode = "HalfAwayFromZero", scale = 1.000000e+00 : f64} : (tensor<*xf32>) -> tensor<*xf32> loc(#loc162)
    %159 = "top.Mul"(%157, %158) {do_relu = false, is_scalar = false, relu_limit = -1.000000e+00 : f64} : (tensor<*xf32>, tensor<*xf32>) -> tensor<*xf32> loc(#loc163)
    %160 = "top.Add"(%149, %159) {do_relu = false, is_scalar = false, relu_limit = -1.000000e+00 : f64} : (tensor<*xf32>, tensor<*xf32>) -> tensor<*xf32> loc(#loc164)
    %161 = "top.Concat"(%160, %138) {axis = 1 : si32, do_relu = false, relu_limit = -1.000000e+00 : f64, round_mode = "HalfAwayFromZero"} : (tensor<*xf32>, tensor<*xf32>) -> tensor<*xf32> loc(#loc165)
    %162 = "top.Weight"() : () -> tensor<256x256x1x1xf32> loc(#loc166)
    %163 = "top.Weight"() : () -> tensor<256xf32> loc(#loc167)
    %164 = "top.Conv"(%161, %162, %163) {auto_pad = "NOTSET", dilations = [1, 1], do_relu = false, dynweight_reorderd = false, group = 1 : i64, kernel_shape = [1, 1], pads = [0, 0, 0, 0], relu_limit = -1.000000e+00 : f64, strides = [1, 1], weight_is_coeff = 1 : i64} : (tensor<*xf32>, tensor<256x256x1x1xf32>, tensor<256xf32>) -> tensor<*xf32> loc(#loc168)
    %165 = "top.Sigmoid"(%164) {bias = 0.000000e+00 : f64, log = false, round_mode = "HalfAwayFromZero", scale = 1.000000e+00 : f64} : (tensor<*xf32>) -> tensor<*xf32> loc(#loc169)
    %166 = "top.Mul"(%164, %165) {do_relu = false, is_scalar = false, relu_limit = -1.000000e+00 : f64} : (tensor<*xf32>, tensor<*xf32>) -> tensor<*xf32> loc(#loc170)
    %167 = "top.Concat"(%128#0, %128#1, %166) {axis = 1 : si32, do_relu = false, relu_limit = -1.000000e+00 : f64, round_mode = "HalfAwayFromZero"} : (tensor<*xf32>, tensor<*xf32>, tensor<*xf32>) -> tensor<*xf32> loc(#loc171)
    %168 = "top.Weight"() : () -> tensor<512x768x1x1xf32> loc(#loc172)
    %169 = "top.Weight"() : () -> tensor<512xf32> loc(#loc173)
    %170 = "top.Conv"(%167, %168, %169) {auto_pad = "NOTSET", dilations = [1, 1], do_relu = false, dynweight_reorderd = false, group = 1 : i64, kernel_shape = [1, 1], pads = [0, 0, 0, 0], relu_limit = -1.000000e+00 : f64, strides = [1, 1], weight_is_coeff = 1 : i64} : (tensor<*xf32>, tensor<512x768x1x1xf32>, tensor<512xf32>) -> tensor<*xf32> loc(#loc174)
    %171 = "top.Sigmoid"(%170) {bias = 0.000000e+00 : f64, log = false, round_mode = "HalfAwayFromZero", scale = 1.000000e+00 : f64} : (tensor<*xf32>) -> tensor<*xf32> loc(#loc175)
    %172 = "top.Mul"(%170, %171) {do_relu = false, is_scalar = false, relu_limit = -1.000000e+00 : f64} : (tensor<*xf32>, tensor<*xf32>) -> tensor<*xf32> loc(#loc176)
    %173 = "top.Weight"() : () -> tensor<256x512x1x1xf32> loc(#loc177)
    %174 = "top.Weight"() : () -> tensor<256xf32> loc(#loc178)
    %175 = "top.Conv"(%172, %173, %174) {auto_pad = "NOTSET", dilations = [1, 1], do_relu = false, dynweight_reorderd = false, group = 1 : i64, kernel_shape = [1, 1], pads = [0, 0, 0, 0], relu_limit = -1.000000e+00 : f64, strides = [1, 1], weight_is_coeff = 1 : i64} : (tensor<*xf32>, tensor<256x512x1x1xf32>, tensor<256xf32>) -> tensor<*xf32> loc(#loc179)
    %176 = "top.Sigmoid"(%175) {bias = 0.000000e+00 : f64, log = false, round_mode = "HalfAwayFromZero", scale = 1.000000e+00 : f64} : (tensor<*xf32>) -> tensor<*xf32> loc(#loc180)
    %177 = "top.Mul"(%175, %176) {do_relu = false, is_scalar = false, relu_limit = -1.000000e+00 : f64} : (tensor<*xf32>, tensor<*xf32>) -> tensor<*xf32> loc(#loc181)
    %178 = "top.MaxPool"(%177) {auto_pad = "NOTSET", ceil_mode = false, count_include_pad = false, do_relu = false, first_round_mode = "HalfAwayFromZero", is_adaptive = false, keepdims = true, kernel_shape = [5, 5], pad_value = 0 : i64, pads = [2, 2, 2, 2], relu_limit = -1.000000e+00 : f64, round_mode = "HalfAwayFromZero", strides = [1, 1]} : (tensor<*xf32>) -> tensor<*xf32> loc(#loc182)
    %179 = "top.MaxPool"(%178) {auto_pad = "NOTSET", ceil_mode = false, count_include_pad = false, do_relu = false, first_round_mode = "HalfAwayFromZero", is_adaptive = false, keepdims = true, kernel_shape = [5, 5], pad_value = 0 : i64, pads = [2, 2, 2, 2], relu_limit = -1.000000e+00 : f64, round_mode = "HalfAwayFromZero", strides = [1, 1]} : (tensor<*xf32>) -> tensor<*xf32> loc(#loc183)
    %180 = "top.MaxPool"(%179) {auto_pad = "NOTSET", ceil_mode = false, count_include_pad = false, do_relu = false, first_round_mode = "HalfAwayFromZero", is_adaptive = false, keepdims = true, kernel_shape = [5, 5], pad_value = 0 : i64, pads = [2, 2, 2, 2], relu_limit = -1.000000e+00 : f64, round_mode = "HalfAwayFromZero", strides = [1, 1]} : (tensor<*xf32>) -> tensor<*xf32> loc(#loc184)
    %181 = "top.Concat"(%177, %178, %179, %180) {axis = 1 : si32, do_relu = false, relu_limit = -1.000000e+00 : f64, round_mode = "HalfAwayFromZero"} : (tensor<*xf32>, tensor<*xf32>, tensor<*xf32>, tensor<*xf32>) -> tensor<*xf32> loc(#loc185)
    %182 = "top.Weight"() : () -> tensor<512x1024x1x1xf32> loc(#loc186)
    %183 = "top.Weight"() : () -> tensor<512xf32> loc(#loc187)
    %184 = "top.Conv"(%181, %182, %183) {auto_pad = "NOTSET", dilations = [1, 1], do_relu = false, dynweight_reorderd = false, group = 1 : i64, kernel_shape = [1, 1], pads = [0, 0, 0, 0], relu_limit = -1.000000e+00 : f64, strides = [1, 1], weight_is_coeff = 1 : i64} : (tensor<*xf32>, tensor<512x1024x1x1xf32>, tensor<512xf32>) -> tensor<*xf32> loc(#loc188)
    %185 = "top.Sigmoid"(%184) {bias = 0.000000e+00 : f64, log = false, round_mode = "HalfAwayFromZero", scale = 1.000000e+00 : f64} : (tensor<*xf32>) -> tensor<*xf32> loc(#loc189)
    %186 = "top.Mul"(%184, %185) {do_relu = false, is_scalar = false, relu_limit = -1.000000e+00 : f64} : (tensor<*xf32>, tensor<*xf32>) -> tensor<*xf32> loc(#loc190)
    %187 = "top.Weight"() : () -> tensor<512x512x1x1xf32> loc(#loc191)
    %188 = "top.Weight"() : () -> tensor<512xf32> loc(#loc192)
    %189 = "top.Conv"(%186, %187, %188) {auto_pad = "NOTSET", dilations = [1, 1], do_relu = false, dynweight_reorderd = false, group = 1 : i64, kernel_shape = [1, 1], pads = [0, 0, 0, 0], relu_limit = -1.000000e+00 : f64, strides = [1, 1], weight_is_coeff = 1 : i64} : (tensor<*xf32>, tensor<512x512x1x1xf32>, tensor<512xf32>) -> tensor<*xf32> loc(#loc193)
    %190 = "top.Sigmoid"(%189) {bias = 0.000000e+00 : f64, log = false, round_mode = "HalfAwayFromZero", scale = 1.000000e+00 : f64} : (tensor<*xf32>) -> tensor<*xf32> loc(#loc194)
    %191 = "top.Mul"(%189, %190) {do_relu = false, is_scalar = false, relu_limit = -1.000000e+00 : f64} : (tensor<*xf32>, tensor<*xf32>) -> tensor<*xf32> loc(#loc195)
    %192:2 = "top.Split"(%191) {axis = 1 : si32, num = 2 : i64, split_size = [256, 256]} : (tensor<*xf32>) -> (tensor<*xf32>, tensor<*xf32>) loc(#loc503)
    %193 = "top.Weight"() : () -> tensor<512x256x1x1xf32> loc(#loc198)
    %194 = "top.Weight"() : () -> tensor<512xf32> loc(#loc199)
    %195 = "top.Conv"(%192#1, %193, %194) {auto_pad = "NOTSET", dilations = [1, 1], do_relu = false, dynweight_reorderd = false, group = 1 : i64, kernel_shape = [1, 1], pads = [0, 0, 0, 0], relu_limit = -1.000000e+00 : f64, strides = [1, 1], weight_is_coeff = 1 : i64} : (tensor<*xf32>, tensor<512x256x1x1xf32>, tensor<512xf32>) -> tensor<*xf32> loc(#loc200)
    %196 = "top.Reshape"(%195) {flatten_start_dim = -1 : i64, shape = [1, 4, 128, 70]} : (tensor<*xf32>) -> tensor<*xf32> loc(#loc201)
    %197:3 = "top.Split"(%196) {axis = 2 : si32, num = 3 : i64, split_size = [32, 32, 64]} : (tensor<*xf32>) -> (tensor<*xf32>, tensor<*xf32>, tensor<*xf32>) loc(#loc504)
    %198 = "top.Permute"(%197#0) {order = [0, 1, 3, 2]} : (tensor<*xf32>) -> tensor<*xf32> loc(#loc205)
    %199 = "top.Reshape"(%197#2) {flatten_start_dim = -1 : i64, shape = [1, 256, 7, 10]} : (tensor<*xf32>) -> tensor<*xf32> loc(#loc206)
    %200 = "top.MatMul"(%198, %197#1, %0) {do_relu = false, hdim_is_batch = false, keep_dims = true, left_transpose = false, output_transpose = false, relu_limit = -1.000000e+00 : f64, right_transpose = false} : (tensor<*xf32>, tensor<*xf32>, none) -> tensor<*xf32> loc(#loc207)
    %201 = "top.Weight"() : () -> tensor<256x1x3x3xf32> loc(#loc208)
    %202 = "top.Weight"() : () -> tensor<256xf32> loc(#loc209)
    %203 = "top.Conv"(%199, %201, %202) {auto_pad = "NOTSET", dilations = [1, 1], do_relu = false, dynweight_reorderd = false, group = 256 : i64, kernel_shape = [3, 3], pads = [1, 1, 1, 1], relu_limit = -1.000000e+00 : f64, strides = [1, 1], weight_is_coeff = 1 : i64} : (tensor<*xf32>, tensor<256x1x3x3xf32>, tensor<256xf32>) -> tensor<*xf32> loc(#loc210)
    %204 = "top.Weight"() : () -> tensor<1xf32> loc(#loc211)
    %205 = "top.Mul"(%200, %204) {do_relu = false, is_scalar = false, relu_limit = -1.000000e+00 : f64} : (tensor<*xf32>, tensor<1xf32>) -> tensor<*xf32> loc(#loc212)
    %206 = "top.Softmax"(%205) {axis = -1 : si32, beta = 1.000000e+00 : f64, log = false, round_mode = "HalfAwayFromZero"} : (tensor<*xf32>) -> tensor<*xf32> loc(#loc213)
    %207 = "top.Permute"(%206) {order = [0, 1, 3, 2]} : (tensor<*xf32>) -> tensor<*xf32> loc(#loc214)
    %208 = "top.MatMul"(%197#2, %207, %0) {do_relu = false, hdim_is_batch = false, keep_dims = true, left_transpose = false, output_transpose = false, relu_limit = -1.000000e+00 : f64, right_transpose = false} : (tensor<*xf32>, tensor<*xf32>, none) -> tensor<*xf32> loc(#loc215)
    %209 = "top.Reshape"(%208) {flatten_start_dim = -1 : i64, shape = [1, 256, 7, 10]} : (tensor<*xf32>) -> tensor<*xf32> loc(#loc216)
    %210 = "top.Add"(%209, %203) {do_relu = false, is_scalar = false, relu_limit = -1.000000e+00 : f64} : (tensor<*xf32>, tensor<*xf32>) -> tensor<*xf32> loc(#loc217)
    %211 = "top.Weight"() : () -> tensor<256x256x1x1xf32> loc(#loc218)
    %212 = "top.Weight"() : () -> tensor<256xf32> loc(#loc219)
    %213 = "top.Conv"(%210, %211, %212) {auto_pad = "NOTSET", dilations = [1, 1], do_relu = false, dynweight_reorderd = false, group = 1 : i64, kernel_shape = [1, 1], pads = [0, 0, 0, 0], relu_limit = -1.000000e+00 : f64, strides = [1, 1], weight_is_coeff = 1 : i64} : (tensor<*xf32>, tensor<256x256x1x1xf32>, tensor<256xf32>) -> tensor<*xf32> loc(#loc220)
    %214 = "top.Add"(%192#1, %213) {do_relu = false, is_scalar = false, relu_limit = -1.000000e+00 : f64} : (tensor<*xf32>, tensor<*xf32>) -> tensor<*xf32> loc(#loc221)
    %215 = "top.Weight"() : () -> tensor<512x256x1x1xf32> loc(#loc222)
    %216 = "top.Weight"() : () -> tensor<512xf32> loc(#loc223)
    %217 = "top.Conv"(%214, %215, %216) {auto_pad = "NOTSET", dilations = [1, 1], do_relu = false, dynweight_reorderd = false, group = 1 : i64, kernel_shape = [1, 1], pads = [0, 0, 0, 0], relu_limit = -1.000000e+00 : f64, strides = [1, 1], weight_is_coeff = 1 : i64} : (tensor<*xf32>, tensor<512x256x1x1xf32>, tensor<512xf32>) -> tensor<*xf32> loc(#loc224)
    %218 = "top.Sigmoid"(%217) {bias = 0.000000e+00 : f64, log = false, round_mode = "HalfAwayFromZero", scale = 1.000000e+00 : f64} : (tensor<*xf32>) -> tensor<*xf32> loc(#loc225)
    %219 = "top.Mul"(%217, %218) {do_relu = false, is_scalar = false, relu_limit = -1.000000e+00 : f64} : (tensor<*xf32>, tensor<*xf32>) -> tensor<*xf32> loc(#loc226)
    %220 = "top.Weight"() : () -> tensor<256x512x1x1xf32> loc(#loc227)
    %221 = "top.Weight"() : () -> tensor<256xf32> loc(#loc228)
    %222 = "top.Conv"(%219, %220, %221) {auto_pad = "NOTSET", dilations = [1, 1], do_relu = false, dynweight_reorderd = false, group = 1 : i64, kernel_shape = [1, 1], pads = [0, 0, 0, 0], relu_limit = -1.000000e+00 : f64, strides = [1, 1], weight_is_coeff = 1 : i64} : (tensor<*xf32>, tensor<256x512x1x1xf32>, tensor<256xf32>) -> tensor<*xf32> loc(#loc229)
    %223 = "top.Add"(%214, %222) {do_relu = false, is_scalar = false, relu_limit = -1.000000e+00 : f64} : (tensor<*xf32>, tensor<*xf32>) -> tensor<*xf32> loc(#loc230)
    %224 = "top.Concat"(%192#0, %223) {axis = 1 : si32, do_relu = false, relu_limit = -1.000000e+00 : f64, round_mode = "HalfAwayFromZero"} : (tensor<*xf32>, tensor<*xf32>) -> tensor<*xf32> loc(#loc231)
    %225 = "top.Weight"() : () -> tensor<512x512x1x1xf32> loc(#loc232)
    %226 = "top.Weight"() : () -> tensor<512xf32> loc(#loc233)
    %227 = "top.Conv"(%224, %225, %226) {auto_pad = "NOTSET", dilations = [1, 1], do_relu = false, dynweight_reorderd = false, group = 1 : i64, kernel_shape = [1, 1], pads = [0, 0, 0, 0], relu_limit = -1.000000e+00 : f64, strides = [1, 1], weight_is_coeff = 1 : i64} : (tensor<*xf32>, tensor<512x512x1x1xf32>, tensor<512xf32>) -> tensor<*xf32> loc(#loc234)
    %228 = "top.Sigmoid"(%227) {bias = 0.000000e+00 : f64, log = false, round_mode = "HalfAwayFromZero", scale = 1.000000e+00 : f64} : (tensor<*xf32>) -> tensor<*xf32> loc(#loc235)
    %229 = "top.Mul"(%227, %228) {do_relu = false, is_scalar = false, relu_limit = -1.000000e+00 : f64} : (tensor<*xf32>, tensor<*xf32>) -> tensor<*xf32> loc(#loc236)
    %230 = "top.Interp"(%229, %0) {coord_mode = "asymmetric", mode = "nearest", scale_h = 2.000000e+00 : f64, scale_w = 2.000000e+00 : f64} : (tensor<*xf32>, none) -> tensor<*xf32> loc(#loc237)
    %231 = "top.Concat"(%230, %117) {axis = 1 : si32, do_relu = false, relu_limit = -1.000000e+00 : f64, round_mode = "HalfAwayFromZero"} : (tensor<*xf32>, tensor<*xf32>) -> tensor<*xf32> loc(#loc238)
    %232 = "top.Weight"() : () -> tensor<256x768x1x1xf32> loc(#loc239)
    %233 = "top.Weight"() : () -> tensor<256xf32> loc(#loc240)
    %234 = "top.Conv"(%231, %232, %233) {auto_pad = "NOTSET", dilations = [1, 1], do_relu = false, dynweight_reorderd = false, group = 1 : i64, kernel_shape = [1, 1], pads = [0, 0, 0, 0], relu_limit = -1.000000e+00 : f64, strides = [1, 1], weight_is_coeff = 1 : i64} : (tensor<*xf32>, tensor<256x768x1x1xf32>, tensor<256xf32>) -> tensor<*xf32> loc(#loc241)
    %235 = "top.Sigmoid"(%234) {bias = 0.000000e+00 : f64, log = false, round_mode = "HalfAwayFromZero", scale = 1.000000e+00 : f64} : (tensor<*xf32>) -> tensor<*xf32> loc(#loc242)
    %236 = "top.Mul"(%234, %235) {do_relu = false, is_scalar = false, relu_limit = -1.000000e+00 : f64} : (tensor<*xf32>, tensor<*xf32>) -> tensor<*xf32> loc(#loc243)
    %237:2 = "top.Split"(%236) {axis = 1 : si32, num = 2 : i64, split_size = [128, 128]} : (tensor<*xf32>) -> (tensor<*xf32>, tensor<*xf32>) loc(#loc505)
    %238 = "top.Weight"() : () -> tensor<64x128x3x3xf32> loc(#loc246)
    %239 = "top.Weight"() : () -> tensor<64xf32> loc(#loc247)
    %240 = "top.Conv"(%237#1, %238, %239) {auto_pad = "NOTSET", dilations = [1, 1], do_relu = false, dynweight_reorderd = false, group = 1 : i64, kernel_shape = [3, 3], pads = [1, 1, 1, 1], relu_limit = -1.000000e+00 : f64, strides = [1, 1], weight_is_coeff = 1 : i64} : (tensor<*xf32>, tensor<64x128x3x3xf32>, tensor<64xf32>) -> tensor<*xf32> loc(#loc248)
    %241 = "top.Sigmoid"(%240) {bias = 0.000000e+00 : f64, log = false, round_mode = "HalfAwayFromZero", scale = 1.000000e+00 : f64} : (tensor<*xf32>) -> tensor<*xf32> loc(#loc249)
    %242 = "top.Mul"(%240, %241) {do_relu = false, is_scalar = false, relu_limit = -1.000000e+00 : f64} : (tensor<*xf32>, tensor<*xf32>) -> tensor<*xf32> loc(#loc250)
    %243 = "top.Weight"() : () -> tensor<128x64x3x3xf32> loc(#loc251)
    %244 = "top.Weight"() : () -> tensor<128xf32> loc(#loc252)
    %245 = "top.Conv"(%242, %243, %244) {auto_pad = "NOTSET", dilations = [1, 1], do_relu = false, dynweight_reorderd = false, group = 1 : i64, kernel_shape = [3, 3], pads = [1, 1, 1, 1], relu_limit = -1.000000e+00 : f64, strides = [1, 1], weight_is_coeff = 1 : i64} : (tensor<*xf32>, tensor<128x64x3x3xf32>, tensor<128xf32>) -> tensor<*xf32> loc(#loc253)
    %246 = "top.Sigmoid"(%245) {bias = 0.000000e+00 : f64, log = false, round_mode = "HalfAwayFromZero", scale = 1.000000e+00 : f64} : (tensor<*xf32>) -> tensor<*xf32> loc(#loc254)
    %247 = "top.Mul"(%245, %246) {do_relu = false, is_scalar = false, relu_limit = -1.000000e+00 : f64} : (tensor<*xf32>, tensor<*xf32>) -> tensor<*xf32> loc(#loc255)
    %248 = "top.Add"(%237#1, %247) {do_relu = false, is_scalar = false, relu_limit = -1.000000e+00 : f64} : (tensor<*xf32>, tensor<*xf32>) -> tensor<*xf32> loc(#loc256)
    %249 = "top.Concat"(%237#0, %237#1, %248) {axis = 1 : si32, do_relu = false, relu_limit = -1.000000e+00 : f64, round_mode = "HalfAwayFromZero"} : (tensor<*xf32>, tensor<*xf32>, tensor<*xf32>) -> tensor<*xf32> loc(#loc257)
    %250 = "top.Weight"() : () -> tensor<256x384x1x1xf32> loc(#loc258)
    %251 = "top.Weight"() : () -> tensor<256xf32> loc(#loc259)
    %252 = "top.Conv"(%249, %250, %251) {auto_pad = "NOTSET", dilations = [1, 1], do_relu = false, dynweight_reorderd = false, group = 1 : i64, kernel_shape = [1, 1], pads = [0, 0, 0, 0], relu_limit = -1.000000e+00 : f64, strides = [1, 1], weight_is_coeff = 1 : i64} : (tensor<*xf32>, tensor<256x384x1x1xf32>, tensor<256xf32>) -> tensor<*xf32> loc(#loc260)
    %253 = "top.Sigmoid"(%252) {bias = 0.000000e+00 : f64, log = false, round_mode = "HalfAwayFromZero", scale = 1.000000e+00 : f64} : (tensor<*xf32>) -> tensor<*xf32> loc(#loc261)
    %254 = "top.Mul"(%252, %253) {do_relu = false, is_scalar = false, relu_limit = -1.000000e+00 : f64} : (tensor<*xf32>, tensor<*xf32>) -> tensor<*xf32> loc(#loc262)
    %255 = "top.Interp"(%254, %0) {coord_mode = "asymmetric", mode = "nearest", scale_h = 2.000000e+00 : f64, scale_w = 2.000000e+00 : f64} : (tensor<*xf32>, none) -> tensor<*xf32> loc(#loc263)
    %256 = "top.Concat"(%255, %62) {axis = 1 : si32, do_relu = false, relu_limit = -1.000000e+00 : f64, round_mode = "HalfAwayFromZero"} : (tensor<*xf32>, tensor<*xf32>) -> tensor<*xf32> loc(#loc264)
    %257 = "top.Weight"() : () -> tensor<128x512x1x1xf32> loc(#loc265)
    %258 = "top.Weight"() : () -> tensor<128xf32> loc(#loc266)
    %259 = "top.Conv"(%256, %257, %258) {auto_pad = "NOTSET", dilations = [1, 1], do_relu = false, dynweight_reorderd = false, group = 1 : i64, kernel_shape = [1, 1], pads = [0, 0, 0, 0], relu_limit = -1.000000e+00 : f64, strides = [1, 1], weight_is_coeff = 1 : i64} : (tensor<*xf32>, tensor<128x512x1x1xf32>, tensor<128xf32>) -> tensor<*xf32> loc(#loc267)
    %260 = "top.Sigmoid"(%259) {bias = 0.000000e+00 : f64, log = false, round_mode = "HalfAwayFromZero", scale = 1.000000e+00 : f64} : (tensor<*xf32>) -> tensor<*xf32> loc(#loc268)
    %261 = "top.Mul"(%259, %260) {do_relu = false, is_scalar = false, relu_limit = -1.000000e+00 : f64} : (tensor<*xf32>, tensor<*xf32>) -> tensor<*xf32> loc(#loc269)
    %262:2 = "top.Split"(%261) {axis = 1 : si32, num = 2 : i64, split_size = [64, 64]} : (tensor<*xf32>) -> (tensor<*xf32>, tensor<*xf32>) loc(#loc506)
    %263 = "top.Weight"() : () -> tensor<32x64x3x3xf32> loc(#loc272)
    %264 = "top.Weight"() : () -> tensor<32xf32> loc(#loc273)
    %265 = "top.Conv"(%262#1, %263, %264) {auto_pad = "NOTSET", dilations = [1, 1], do_relu = false, dynweight_reorderd = false, group = 1 : i64, kernel_shape = [3, 3], pads = [1, 1, 1, 1], relu_limit = -1.000000e+00 : f64, strides = [1, 1], weight_is_coeff = 1 : i64} : (tensor<*xf32>, tensor<32x64x3x3xf32>, tensor<32xf32>) -> tensor<*xf32> loc(#loc274)
    %266 = "top.Sigmoid"(%265) {bias = 0.000000e+00 : f64, log = false, round_mode = "HalfAwayFromZero", scale = 1.000000e+00 : f64} : (tensor<*xf32>) -> tensor<*xf32> loc(#loc275)
    %267 = "top.Mul"(%265, %266) {do_relu = false, is_scalar = false, relu_limit = -1.000000e+00 : f64} : (tensor<*xf32>, tensor<*xf32>) -> tensor<*xf32> loc(#loc276)
    %268 = "top.Weight"() : () -> tensor<64x32x3x3xf32> loc(#loc277)
    %269 = "top.Weight"() : () -> tensor<64xf32> loc(#loc278)
    %270 = "top.Conv"(%267, %268, %269) {auto_pad = "NOTSET", dilations = [1, 1], do_relu = false, dynweight_reorderd = false, group = 1 : i64, kernel_shape = [3, 3], pads = [1, 1, 1, 1], relu_limit = -1.000000e+00 : f64, strides = [1, 1], weight_is_coeff = 1 : i64} : (tensor<*xf32>, tensor<64x32x3x3xf32>, tensor<64xf32>) -> tensor<*xf32> loc(#loc279)
    %271 = "top.Sigmoid"(%270) {bias = 0.000000e+00 : f64, log = false, round_mode = "HalfAwayFromZero", scale = 1.000000e+00 : f64} : (tensor<*xf32>) -> tensor<*xf32> loc(#loc280)
    %272 = "top.Mul"(%270, %271) {do_relu = false, is_scalar = false, relu_limit = -1.000000e+00 : f64} : (tensor<*xf32>, tensor<*xf32>) -> tensor<*xf32> loc(#loc281)
    %273 = "top.Add"(%262#1, %272) {do_relu = false, is_scalar = false, relu_limit = -1.000000e+00 : f64} : (tensor<*xf32>, tensor<*xf32>) -> tensor<*xf32> loc(#loc282)
    %274 = "top.Concat"(%262#0, %262#1, %273) {axis = 1 : si32, do_relu = false, relu_limit = -1.000000e+00 : f64, round_mode = "HalfAwayFromZero"} : (tensor<*xf32>, tensor<*xf32>, tensor<*xf32>) -> tensor<*xf32> loc(#loc283)
    %275 = "top.Weight"() : () -> tensor<128x192x1x1xf32> loc(#loc284)
    %276 = "top.Weight"() : () -> tensor<128xf32> loc(#loc285)
    %277 = "top.Conv"(%274, %275, %276) {auto_pad = "NOTSET", dilations = [1, 1], do_relu = false, dynweight_reorderd = false, group = 1 : i64, kernel_shape = [1, 1], pads = [0, 0, 0, 0], relu_limit = -1.000000e+00 : f64, strides = [1, 1], weight_is_coeff = 1 : i64} : (tensor<*xf32>, tensor<128x192x1x1xf32>, tensor<128xf32>) -> tensor<*xf32> loc(#loc286)
    %278 = "top.Sigmoid"(%277) {bias = 0.000000e+00 : f64, log = false, round_mode = "HalfAwayFromZero", scale = 1.000000e+00 : f64} : (tensor<*xf32>) -> tensor<*xf32> loc(#loc287)
    %279 = "top.Mul"(%277, %278) {do_relu = false, is_scalar = false, relu_limit = -1.000000e+00 : f64} : (tensor<*xf32>, tensor<*xf32>) -> tensor<*xf32> loc(#loc288)
    %280 = "top.Weight"() : () -> tensor<128x128x3x3xf32> loc(#loc289)
    %281 = "top.Weight"() : () -> tensor<128xf32> loc(#loc290)
    %282 = "top.Conv"(%279, %280, %281) {auto_pad = "NOTSET", dilations = [1, 1], do_relu = false, dynweight_reorderd = false, group = 1 : i64, kernel_shape = [3, 3], pads = [1, 1, 1, 1], relu_limit = -1.000000e+00 : f64, strides = [2, 2], weight_is_coeff = 1 : i64} : (tensor<*xf32>, tensor<128x128x3x3xf32>, tensor<128xf32>) -> tensor<*xf32> loc(#loc291)
    %283 = "top.Weight"() : () -> tensor<64x128x3x3xf32> loc(#loc292)
    %284 = "top.Weight"() : () -> tensor<64xf32> loc(#loc293)
    %285 = "top.Conv"(%279, %283, %284) {auto_pad = "NOTSET", dilations = [1, 1], do_relu = false, dynweight_reorderd = false, group = 1 : i64, kernel_shape = [3, 3], pads = [1, 1, 1, 1], relu_limit = -1.000000e+00 : f64, strides = [1, 1], weight_is_coeff = 1 : i64} : (tensor<*xf32>, tensor<64x128x3x3xf32>, tensor<64xf32>) -> tensor<*xf32> loc(#loc294)
    %286 = "top.Weight"() : () -> tensor<128x1x3x3xf32> loc(#loc295)
    %287 = "top.Weight"() : () -> tensor<128xf32> loc(#loc296)
    %288 = "top.Conv"(%279, %286, %287) {auto_pad = "NOTSET", dilations = [1, 1], do_relu = false, dynweight_reorderd = false, group = 128 : i64, kernel_shape = [3, 3], pads = [1, 1, 1, 1], relu_limit = -1.000000e+00 : f64, strides = [1, 1], weight_is_coeff = 1 : i64} : (tensor<*xf32>, tensor<128x1x3x3xf32>, tensor<128xf32>) -> tensor<*xf32> loc(#loc297)
    %289 = "top.Sigmoid"(%282) {bias = 0.000000e+00 : f64, log = false, round_mode = "HalfAwayFromZero", scale = 1.000000e+00 : f64} : (tensor<*xf32>) -> tensor<*xf32> loc(#loc298)
    %290 = "top.Sigmoid"(%285) {bias = 0.000000e+00 : f64, log = false, round_mode = "HalfAwayFromZero", scale = 1.000000e+00 : f64} : (tensor<*xf32>) -> tensor<*xf32> loc(#loc299)
    %291 = "top.Sigmoid"(%288) {bias = 0.000000e+00 : f64, log = false, round_mode = "HalfAwayFromZero", scale = 1.000000e+00 : f64} : (tensor<*xf32>) -> tensor<*xf32> loc(#loc300)
    %292 = "top.Mul"(%282, %289) {do_relu = false, is_scalar = false, relu_limit = -1.000000e+00 : f64} : (tensor<*xf32>, tensor<*xf32>) -> tensor<*xf32> loc(#loc301)
    %293 = "top.Mul"(%285, %290) {do_relu = false, is_scalar = false, relu_limit = -1.000000e+00 : f64} : (tensor<*xf32>, tensor<*xf32>) -> tensor<*xf32> loc(#loc302)
    %294 = "top.Mul"(%288, %291) {do_relu = false, is_scalar = false, relu_limit = -1.000000e+00 : f64} : (tensor<*xf32>, tensor<*xf32>) -> tensor<*xf32> loc(#loc303)
    %295 = "top.Concat"(%292, %254) {axis = 1 : si32, do_relu = false, relu_limit = -1.000000e+00 : f64, round_mode = "HalfAwayFromZero"} : (tensor<*xf32>, tensor<*xf32>) -> tensor<*xf32> loc(#loc304)
    %296 = "top.Weight"() : () -> tensor<64x64x3x3xf32> loc(#loc305)
    %297 = "top.Weight"() : () -> tensor<64xf32> loc(#loc306)
    %298 = "top.Conv"(%293, %296, %297) {auto_pad = "NOTSET", dilations = [1, 1], do_relu = false, dynweight_reorderd = false, group = 1 : i64, kernel_shape = [3, 3], pads = [1, 1, 1, 1], relu_limit = -1.000000e+00 : f64, strides = [1, 1], weight_is_coeff = 1 : i64} : (tensor<*xf32>, tensor<64x64x3x3xf32>, tensor<64xf32>) -> tensor<*xf32> loc(#loc307)
    %299 = "top.Weight"() : () -> tensor<128x128x1x1xf32> loc(#loc308)
    %300 = "top.Weight"() : () -> tensor<128xf32> loc(#loc309)
    %301 = "top.Conv"(%294, %299, %300) {auto_pad = "NOTSET", dilations = [1, 1], do_relu = false, dynweight_reorderd = false, group = 1 : i64, kernel_shape = [1, 1], pads = [0, 0, 0, 0], relu_limit = -1.000000e+00 : f64, strides = [1, 1], weight_is_coeff = 1 : i64} : (tensor<*xf32>, tensor<128x128x1x1xf32>, tensor<128xf32>) -> tensor<*xf32> loc(#loc310)
    %302 = "top.Weight"() : () -> tensor<256x384x1x1xf32> loc(#loc311)
    %303 = "top.Weight"() : () -> tensor<256xf32> loc(#loc312)
    %304 = "top.Conv"(%295, %302, %303) {auto_pad = "NOTSET", dilations = [1, 1], do_relu = false, dynweight_reorderd = false, group = 1 : i64, kernel_shape = [1, 1], pads = [0, 0, 0, 0], relu_limit = -1.000000e+00 : f64, strides = [1, 1], weight_is_coeff = 1 : i64} : (tensor<*xf32>, tensor<256x384x1x1xf32>, tensor<256xf32>) -> tensor<*xf32> loc(#loc313)
    %305 = "top.Sigmoid"(%298) {bias = 0.000000e+00 : f64, log = false, round_mode = "HalfAwayFromZero", scale = 1.000000e+00 : f64} : (tensor<*xf32>) -> tensor<*xf32> loc(#loc314)
    %306 = "top.Sigmoid"(%301) {bias = 0.000000e+00 : f64, log = false, round_mode = "HalfAwayFromZero", scale = 1.000000e+00 : f64} : (tensor<*xf32>) -> tensor<*xf32> loc(#loc315)
    %307 = "top.Sigmoid"(%304) {bias = 0.000000e+00 : f64, log = false, round_mode = "HalfAwayFromZero", scale = 1.000000e+00 : f64} : (tensor<*xf32>) -> tensor<*xf32> loc(#loc316)
    %308 = "top.Mul"(%298, %305) {do_relu = false, is_scalar = false, relu_limit = -1.000000e+00 : f64} : (tensor<*xf32>, tensor<*xf32>) -> tensor<*xf32> loc(#loc317)
    %309 = "top.Mul"(%301, %306) {do_relu = false, is_scalar = false, relu_limit = -1.000000e+00 : f64} : (tensor<*xf32>, tensor<*xf32>) -> tensor<*xf32> loc(#loc318)
    %310 = "top.Mul"(%304, %307) {do_relu = false, is_scalar = false, relu_limit = -1.000000e+00 : f64} : (tensor<*xf32>, tensor<*xf32>) -> tensor<*xf32> loc(#loc319)
    %311 = "top.Weight"() : () -> tensor<64x64x1x1xf32> loc(#loc320)
    %312 = "top.Weight"() : () -> tensor<64xf32> loc(#loc321)
    %313 = "top.Conv"(%308, %311, %312) {auto_pad = "NOTSET", dilations = [1, 1], do_relu = false, dynweight_reorderd = false, group = 1 : i64, kernel_shape = [1, 1], pads = [0, 0, 0, 0], relu_limit = -1.000000e+00 : f64, strides = [1, 1], weight_is_coeff = 1 : i64} : (tensor<*xf32>, tensor<64x64x1x1xf32>, tensor<64xf32>) -> tensor<*xf32> loc(#loc322)
    %314 = "top.Weight"() : () -> tensor<128x1x3x3xf32> loc(#loc323)
    %315 = "top.Weight"() : () -> tensor<128xf32> loc(#loc324)
    %316 = "top.Conv"(%309, %314, %315) {auto_pad = "NOTSET", dilations = [1, 1], do_relu = false, dynweight_reorderd = false, group = 128 : i64, kernel_shape = [3, 3], pads = [1, 1, 1, 1], relu_limit = -1.000000e+00 : f64, strides = [1, 1], weight_is_coeff = 1 : i64} : (tensor<*xf32>, tensor<128x1x3x3xf32>, tensor<128xf32>) -> tensor<*xf32> loc(#loc325)
    %317:2 = "top.Split"(%310) {axis = 1 : si32, num = 2 : i64, split_size = [128, 128]} : (tensor<*xf32>) -> (tensor<*xf32>, tensor<*xf32>) loc(#loc507)
    %318 = "top.Sigmoid"(%316) {bias = 0.000000e+00 : f64, log = false, round_mode = "HalfAwayFromZero", scale = 1.000000e+00 : f64} : (tensor<*xf32>) -> tensor<*xf32> loc(#loc328)
    %319 = "top.Weight"() : () -> tensor<64x128x3x3xf32> loc(#loc329)
    %320 = "top.Weight"() : () -> tensor<64xf32> loc(#loc330)
    %321 = "top.Conv"(%317#1, %319, %320) {auto_pad = "NOTSET", dilations = [1, 1], do_relu = false, dynweight_reorderd = false, group = 1 : i64, kernel_shape = [3, 3], pads = [1, 1, 1, 1], relu_limit = -1.000000e+00 : f64, strides = [1, 1], weight_is_coeff = 1 : i64} : (tensor<*xf32>, tensor<64x128x3x3xf32>, tensor<64xf32>) -> tensor<*xf32> loc(#loc331)
    %322 = "top.Mul"(%316, %318) {do_relu = false, is_scalar = false, relu_limit = -1.000000e+00 : f64} : (tensor<*xf32>, tensor<*xf32>) -> tensor<*xf32> loc(#loc332)
    %323 = "top.Sigmoid"(%321) {bias = 0.000000e+00 : f64, log = false, round_mode = "HalfAwayFromZero", scale = 1.000000e+00 : f64} : (tensor<*xf32>) -> tensor<*xf32> loc(#loc333)
    %324 = "top.Weight"() : () -> tensor<128x128x1x1xf32> loc(#loc334)
    %325 = "top.Weight"() : () -> tensor<128xf32> loc(#loc335)
    %326 = "top.Conv"(%322, %324, %325) {auto_pad = "NOTSET", dilations = [1, 1], do_relu = false, dynweight_reorderd = false, group = 1 : i64, kernel_shape = [1, 1], pads = [0, 0, 0, 0], relu_limit = -1.000000e+00 : f64, strides = [1, 1], weight_is_coeff = 1 : i64} : (tensor<*xf32>, tensor<128x128x1x1xf32>, tensor<128xf32>) -> tensor<*xf32> loc(#loc336)
    %327 = "top.Mul"(%321, %323) {do_relu = false, is_scalar = false, relu_limit = -1.000000e+00 : f64} : (tensor<*xf32>, tensor<*xf32>) -> tensor<*xf32> loc(#loc337)
    %328 = "top.Sigmoid"(%326) {bias = 0.000000e+00 : f64, log = false, round_mode = "HalfAwayFromZero", scale = 1.000000e+00 : f64} : (tensor<*xf32>) -> tensor<*xf32> loc(#loc338)
    %329 = "top.Weight"() : () -> tensor<128x64x3x3xf32> loc(#loc339)
    %330 = "top.Weight"() : () -> tensor<128xf32> loc(#loc340)
    %331 = "top.Conv"(%327, %329, %330) {auto_pad = "NOTSET", dilations = [1, 1], do_relu = false, dynweight_reorderd = false, group = 1 : i64, kernel_shape = [3, 3], pads = [1, 1, 1, 1], relu_limit = -1.000000e+00 : f64, strides = [1, 1], weight_is_coeff = 1 : i64} : (tensor<*xf32>, tensor<128x64x3x3xf32>, tensor<128xf32>) -> tensor<*xf32> loc(#loc341)
    %332 = "top.Mul"(%326, %328) {do_relu = false, is_scalar = false, relu_limit = -1.000000e+00 : f64} : (tensor<*xf32>, tensor<*xf32>) -> tensor<*xf32> loc(#loc342)
    %333 = "top.Sigmoid"(%331) {bias = 0.000000e+00 : f64, log = false, round_mode = "HalfAwayFromZero", scale = 1.000000e+00 : f64} : (tensor<*xf32>) -> tensor<*xf32> loc(#loc343)
    %334 = "top.Weight"() : () -> tensor<4x128x1x1xf32> loc(#loc344)
    %335 = "top.Weight"() : () -> tensor<4xf32> loc(#loc345)
    %336 = "top.Conv"(%332, %334, %335) {auto_pad = "NOTSET", dilations = [1, 1], do_relu = false, dynweight_reorderd = false, group = 1 : i64, kernel_shape = [1, 1], pads = [0, 0, 0, 0], relu_limit = -1.000000e+00 : f64, strides = [1, 1], weight_is_coeff = 1 : i64} : (tensor<*xf32>, tensor<4x128x1x1xf32>, tensor<4xf32>) -> tensor<*xf32> loc(#loc346)
    %337 = "top.Mul"(%331, %333) {do_relu = false, is_scalar = false, relu_limit = -1.000000e+00 : f64} : (tensor<*xf32>, tensor<*xf32>) -> tensor<*xf32> loc(#loc347)
    %338 = "top.Concat"(%313, %336) {axis = 1 : si32, do_relu = false, relu_limit = -1.000000e+00 : f64, round_mode = "HalfAwayFromZero"} : (tensor<*xf32>, tensor<*xf32>) -> tensor<*xf32> loc(#loc348)
    %339 = "top.Add"(%317#1, %337) {do_relu = false, is_scalar = false, relu_limit = -1.000000e+00 : f64} : (tensor<*xf32>, tensor<*xf32>) -> tensor<*xf32> loc(#loc349)
    %340 = "top.Reshape"(%338) {flatten_start_dim = -1 : i64, shape = [1, 68, -1]} : (tensor<*xf32>) -> tensor<*xf32> loc(#loc350)
    %341 = "top.Concat"(%317#0, %317#1, %339) {axis = 1 : si32, do_relu = false, relu_limit = -1.000000e+00 : f64, round_mode = "HalfAwayFromZero"} : (tensor<*xf32>, tensor<*xf32>, tensor<*xf32>) -> tensor<*xf32> loc(#loc351)
    %342 = "top.Weight"() : () -> tensor<256x384x1x1xf32> loc(#loc352)
    %343 = "top.Weight"() : () -> tensor<256xf32> loc(#loc353)
    %344 = "top.Conv"(%341, %342, %343) {auto_pad = "NOTSET", dilations = [1, 1], do_relu = false, dynweight_reorderd = false, group = 1 : i64, kernel_shape = [1, 1], pads = [0, 0, 0, 0], relu_limit = -1.000000e+00 : f64, strides = [1, 1], weight_is_coeff = 1 : i64} : (tensor<*xf32>, tensor<256x384x1x1xf32>, tensor<256xf32>) -> tensor<*xf32> loc(#loc354)
    %345 = "top.Sigmoid"(%344) {bias = 0.000000e+00 : f64, log = false, round_mode = "HalfAwayFromZero", scale = 1.000000e+00 : f64} : (tensor<*xf32>) -> tensor<*xf32> loc(#loc355)
    %346 = "top.Mul"(%344, %345) {do_relu = false, is_scalar = false, relu_limit = -1.000000e+00 : f64} : (tensor<*xf32>, tensor<*xf32>) -> tensor<*xf32> loc(#loc356)
    %347 = "top.Weight"() : () -> tensor<256x256x3x3xf32> loc(#loc357)
    %348 = "top.Weight"() : () -> tensor<256xf32> loc(#loc358)
    %349 = "top.Conv"(%346, %347, %348) {auto_pad = "NOTSET", dilations = [1, 1], do_relu = false, dynweight_reorderd = false, group = 1 : i64, kernel_shape = [3, 3], pads = [1, 1, 1, 1], relu_limit = -1.000000e+00 : f64, strides = [2, 2], weight_is_coeff = 1 : i64} : (tensor<*xf32>, tensor<256x256x3x3xf32>, tensor<256xf32>) -> tensor<*xf32> loc(#loc359)
    %350 = "top.Weight"() : () -> tensor<64x256x3x3xf32> loc(#loc360)
    %351 = "top.Weight"() : () -> tensor<64xf32> loc(#loc361)
    %352 = "top.Conv"(%346, %350, %351) {auto_pad = "NOTSET", dilations = [1, 1], do_relu = false, dynweight_reorderd = false, group = 1 : i64, kernel_shape = [3, 3], pads = [1, 1, 1, 1], relu_limit = -1.000000e+00 : f64, strides = [1, 1], weight_is_coeff = 1 : i64} : (tensor<*xf32>, tensor<64x256x3x3xf32>, tensor<64xf32>) -> tensor<*xf32> loc(#loc362)
    %353 = "top.Weight"() : () -> tensor<256x1x3x3xf32> loc(#loc363)
    %354 = "top.Weight"() : () -> tensor<256xf32> loc(#loc364)
    %355 = "top.Conv"(%346, %353, %354) {auto_pad = "NOTSET", dilations = [1, 1], do_relu = false, dynweight_reorderd = false, group = 256 : i64, kernel_shape = [3, 3], pads = [1, 1, 1, 1], relu_limit = -1.000000e+00 : f64, strides = [1, 1], weight_is_coeff = 1 : i64} : (tensor<*xf32>, tensor<256x1x3x3xf32>, tensor<256xf32>) -> tensor<*xf32> loc(#loc365)
    %356 = "top.Sigmoid"(%349) {bias = 0.000000e+00 : f64, log = false, round_mode = "HalfAwayFromZero", scale = 1.000000e+00 : f64} : (tensor<*xf32>) -> tensor<*xf32> loc(#loc366)
    %357 = "top.Sigmoid"(%352) {bias = 0.000000e+00 : f64, log = false, round_mode = "HalfAwayFromZero", scale = 1.000000e+00 : f64} : (tensor<*xf32>) -> tensor<*xf32> loc(#loc367)
    %358 = "top.Sigmoid"(%355) {bias = 0.000000e+00 : f64, log = false, round_mode = "HalfAwayFromZero", scale = 1.000000e+00 : f64} : (tensor<*xf32>) -> tensor<*xf32> loc(#loc368)
    %359 = "top.Mul"(%349, %356) {do_relu = false, is_scalar = false, relu_limit = -1.000000e+00 : f64} : (tensor<*xf32>, tensor<*xf32>) -> tensor<*xf32> loc(#loc369)
    %360 = "top.Mul"(%352, %357) {do_relu = false, is_scalar = false, relu_limit = -1.000000e+00 : f64} : (tensor<*xf32>, tensor<*xf32>) -> tensor<*xf32> loc(#loc370)
    %361 = "top.Mul"(%355, %358) {do_relu = false, is_scalar = false, relu_limit = -1.000000e+00 : f64} : (tensor<*xf32>, tensor<*xf32>) -> tensor<*xf32> loc(#loc371)
    %362 = "top.Concat"(%359, %229) {axis = 1 : si32, do_relu = false, relu_limit = -1.000000e+00 : f64, round_mode = "HalfAwayFromZero"} : (tensor<*xf32>, tensor<*xf32>) -> tensor<*xf32> loc(#loc372)
    %363 = "top.Weight"() : () -> tensor<64x64x3x3xf32> loc(#loc373)
    %364 = "top.Weight"() : () -> tensor<64xf32> loc(#loc374)
    %365 = "top.Conv"(%360, %363, %364) {auto_pad = "NOTSET", dilations = [1, 1], do_relu = false, dynweight_reorderd = false, group = 1 : i64, kernel_shape = [3, 3], pads = [1, 1, 1, 1], relu_limit = -1.000000e+00 : f64, strides = [1, 1], weight_is_coeff = 1 : i64} : (tensor<*xf32>, tensor<64x64x3x3xf32>, tensor<64xf32>) -> tensor<*xf32> loc(#loc375)
    %366 = "top.Weight"() : () -> tensor<128x256x1x1xf32> loc(#loc376)
    %367 = "top.Weight"() : () -> tensor<128xf32> loc(#loc377)
    %368 = "top.Conv"(%361, %366, %367) {auto_pad = "NOTSET", dilations = [1, 1], do_relu = false, dynweight_reorderd = false, group = 1 : i64, kernel_shape = [1, 1], pads = [0, 0, 0, 0], relu_limit = -1.000000e+00 : f64, strides = [1, 1], weight_is_coeff = 1 : i64} : (tensor<*xf32>, tensor<128x256x1x1xf32>, tensor<128xf32>) -> tensor<*xf32> loc(#loc378)
    %369 = "top.Weight"() : () -> tensor<512x768x1x1xf32> loc(#loc379)
    %370 = "top.Weight"() : () -> tensor<512xf32> loc(#loc380)
    %371 = "top.Conv"(%362, %369, %370) {auto_pad = "NOTSET", dilations = [1, 1], do_relu = false, dynweight_reorderd = false, group = 1 : i64, kernel_shape = [1, 1], pads = [0, 0, 0, 0], relu_limit = -1.000000e+00 : f64, strides = [1, 1], weight_is_coeff = 1 : i64} : (tensor<*xf32>, tensor<512x768x1x1xf32>, tensor<512xf32>) -> tensor<*xf32> loc(#loc381)
    %372 = "top.Sigmoid"(%365) {bias = 0.000000e+00 : f64, log = false, round_mode = "HalfAwayFromZero", scale = 1.000000e+00 : f64} : (tensor<*xf32>) -> tensor<*xf32> loc(#loc382)
    %373 = "top.Sigmoid"(%368) {bias = 0.000000e+00 : f64, log = false, round_mode = "HalfAwayFromZero", scale = 1.000000e+00 : f64} : (tensor<*xf32>) -> tensor<*xf32> loc(#loc383)
    %374 = "top.Sigmoid"(%371) {bias = 0.000000e+00 : f64, log = false, round_mode = "HalfAwayFromZero", scale = 1.000000e+00 : f64} : (tensor<*xf32>) -> tensor<*xf32> loc(#loc384)
    %375 = "top.Mul"(%365, %372) {do_relu = false, is_scalar = false, relu_limit = -1.000000e+00 : f64} : (tensor<*xf32>, tensor<*xf32>) -> tensor<*xf32> loc(#loc385)
    %376 = "top.Mul"(%368, %373) {do_relu = false, is_scalar = false, relu_limit = -1.000000e+00 : f64} : (tensor<*xf32>, tensor<*xf32>) -> tensor<*xf32> loc(#loc386)
    %377 = "top.Mul"(%371, %374) {do_relu = false, is_scalar = false, relu_limit = -1.000000e+00 : f64} : (tensor<*xf32>, tensor<*xf32>) -> tensor<*xf32> loc(#loc387)
    %378 = "top.Weight"() : () -> tensor<64x64x1x1xf32> loc(#loc388)
    %379 = "top.Weight"() : () -> tensor<64xf32> loc(#loc389)
    %380 = "top.Conv"(%375, %378, %379) {auto_pad = "NOTSET", dilations = [1, 1], do_relu = false, dynweight_reorderd = false, group = 1 : i64, kernel_shape = [1, 1], pads = [0, 0, 0, 0], relu_limit = -1.000000e+00 : f64, strides = [1, 1], weight_is_coeff = 1 : i64} : (tensor<*xf32>, tensor<64x64x1x1xf32>, tensor<64xf32>) -> tensor<*xf32> loc(#loc390)
    %381 = "top.Weight"() : () -> tensor<128x1x3x3xf32> loc(#loc391)
    %382 = "top.Weight"() : () -> tensor<128xf32> loc(#loc392)
    %383 = "top.Conv"(%376, %381, %382) {auto_pad = "NOTSET", dilations = [1, 1], do_relu = false, dynweight_reorderd = false, group = 128 : i64, kernel_shape = [3, 3], pads = [1, 1, 1, 1], relu_limit = -1.000000e+00 : f64, strides = [1, 1], weight_is_coeff = 1 : i64} : (tensor<*xf32>, tensor<128x1x3x3xf32>, tensor<128xf32>) -> tensor<*xf32> loc(#loc393)
    %384:2 = "top.Split"(%377) {axis = 1 : si32, num = 2 : i64, split_size = [256, 256]} : (tensor<*xf32>) -> (tensor<*xf32>, tensor<*xf32>) loc(#loc508)
    %385 = "top.Sigmoid"(%383) {bias = 0.000000e+00 : f64, log = false, round_mode = "HalfAwayFromZero", scale = 1.000000e+00 : f64} : (tensor<*xf32>) -> tensor<*xf32> loc(#loc396)
    %386 = "top.Weight"() : () -> tensor<128x256x1x1xf32> loc(#loc397)
    %387 = "top.Weight"() : () -> tensor<128xf32> loc(#loc398)
    %388 = "top.Conv"(%384#1, %386, %387) {auto_pad = "NOTSET", dilations = [1, 1], do_relu = false, dynweight_reorderd = false, group = 1 : i64, kernel_shape = [1, 1], pads = [0, 0, 0, 0], relu_limit = -1.000000e+00 : f64, strides = [1, 1], weight_is_coeff = 1 : i64} : (tensor<*xf32>, tensor<128x256x1x1xf32>, tensor<128xf32>) -> tensor<*xf32> loc(#loc399)
    %389 = "top.Weight"() : () -> tensor<128x256x1x1xf32> loc(#loc400)
    %390 = "top.Weight"() : () -> tensor<128xf32> loc(#loc401)
    %391 = "top.Conv"(%384#1, %389, %390) {auto_pad = "NOTSET", dilations = [1, 1], do_relu = false, dynweight_reorderd = false, group = 1 : i64, kernel_shape = [1, 1], pads = [0, 0, 0, 0], relu_limit = -1.000000e+00 : f64, strides = [1, 1], weight_is_coeff = 1 : i64} : (tensor<*xf32>, tensor<128x256x1x1xf32>, tensor<128xf32>) -> tensor<*xf32> loc(#loc402)
    %392 = "top.Mul"(%383, %385) {do_relu = false, is_scalar = false, relu_limit = -1.000000e+00 : f64} : (tensor<*xf32>, tensor<*xf32>) -> tensor<*xf32> loc(#loc403)
    %393 = "top.Sigmoid"(%388) {bias = 0.000000e+00 : f64, log = false, round_mode = "HalfAwayFromZero", scale = 1.000000e+00 : f64} : (tensor<*xf32>) -> tensor<*xf32> loc(#loc404)
    %394 = "top.Sigmoid"(%391) {bias = 0.000000e+00 : f64, log = false, round_mode = "HalfAwayFromZero", scale = 1.000000e+00 : f64} : (tensor<*xf32>) -> tensor<*xf32> loc(#loc405)
    %395 = "top.Weight"() : () -> tensor<128x128x1x1xf32> loc(#loc406)
    %396 = "top.Weight"() : () -> tensor<128xf32> loc(#loc407)
    %397 = "top.Conv"(%392, %395, %396) {auto_pad = "NOTSET", dilations = [1, 1], do_relu = false, dynweight_reorderd = false, group = 1 : i64, kernel_shape = [1, 1], pads = [0, 0, 0, 0], relu_limit = -1.000000e+00 : f64, strides = [1, 1], weight_is_coeff = 1 : i64} : (tensor<*xf32>, tensor<128x128x1x1xf32>, tensor<128xf32>) -> tensor<*xf32> loc(#loc408)
    %398 = "top.Mul"(%388, %393) {do_relu = false, is_scalar = false, relu_limit = -1.000000e+00 : f64} : (tensor<*xf32>, tensor<*xf32>) -> tensor<*xf32> loc(#loc409)
    %399 = "top.Mul"(%391, %394) {do_relu = false, is_scalar = false, relu_limit = -1.000000e+00 : f64} : (tensor<*xf32>, tensor<*xf32>) -> tensor<*xf32> loc(#loc410)
    %400 = "top.Sigmoid"(%397) {bias = 0.000000e+00 : f64, log = false, round_mode = "HalfAwayFromZero", scale = 1.000000e+00 : f64} : (tensor<*xf32>) -> tensor<*xf32> loc(#loc411)
    %401 = "top.Weight"() : () -> tensor<128x128x3x3xf32> loc(#loc412)
    %402 = "top.Weight"() : () -> tensor<128xf32> loc(#loc413)
    %403 = "top.Conv"(%398, %401, %402) {auto_pad = "NOTSET", dilations = [1, 1], do_relu = false, dynweight_reorderd = false, group = 1 : i64, kernel_shape = [3, 3], pads = [1, 1, 1, 1], relu_limit = -1.000000e+00 : f64, strides = [1, 1], weight_is_coeff = 1 : i64} : (tensor<*xf32>, tensor<128x128x3x3xf32>, tensor<128xf32>) -> tensor<*xf32> loc(#loc414)
    %404 = "top.Mul"(%397, %400) {do_relu = false, is_scalar = false, relu_limit = -1.000000e+00 : f64} : (tensor<*xf32>, tensor<*xf32>) -> tensor<*xf32> loc(#loc415)
    %405 = "top.Sigmoid"(%403) {bias = 0.000000e+00 : f64, log = false, round_mode = "HalfAwayFromZero", scale = 1.000000e+00 : f64} : (tensor<*xf32>) -> tensor<*xf32> loc(#loc416)
    %406 = "top.Weight"() : () -> tensor<4x128x1x1xf32> loc(#loc417)
    %407 = "top.Weight"() : () -> tensor<4xf32> loc(#loc418)
    %408 = "top.Conv"(%404, %406, %407) {auto_pad = "NOTSET", dilations = [1, 1], do_relu = false, dynweight_reorderd = false, group = 1 : i64, kernel_shape = [1, 1], pads = [0, 0, 0, 0], relu_limit = -1.000000e+00 : f64, strides = [1, 1], weight_is_coeff = 1 : i64} : (tensor<*xf32>, tensor<4x128x1x1xf32>, tensor<4xf32>) -> tensor<*xf32> loc(#loc419)
    %409 = "top.Mul"(%403, %405) {do_relu = false, is_scalar = false, relu_limit = -1.000000e+00 : f64} : (tensor<*xf32>, tensor<*xf32>) -> tensor<*xf32> loc(#loc420)
    %410 = "top.Concat"(%380, %408) {axis = 1 : si32, do_relu = false, relu_limit = -1.000000e+00 : f64, round_mode = "HalfAwayFromZero"} : (tensor<*xf32>, tensor<*xf32>) -> tensor<*xf32> loc(#loc421)
    %411 = "top.Weight"() : () -> tensor<128x128x3x3xf32> loc(#loc422)
    %412 = "top.Weight"() : () -> tensor<128xf32> loc(#loc423)
    %413 = "top.Conv"(%409, %411, %412) {auto_pad = "NOTSET", dilations = [1, 1], do_relu = false, dynweight_reorderd = false, group = 1 : i64, kernel_shape = [3, 3], pads = [1, 1, 1, 1], relu_limit = -1.000000e+00 : f64, strides = [1, 1], weight_is_coeff = 1 : i64} : (tensor<*xf32>, tensor<128x128x3x3xf32>, tensor<128xf32>) -> tensor<*xf32> loc(#loc424)
    %414 = "top.Reshape"(%410) {flatten_start_dim = -1 : i64, shape = [1, 68, -1]} : (tensor<*xf32>) -> tensor<*xf32> loc(#loc425)
    %415 = "top.Sigmoid"(%413) {bias = 0.000000e+00 : f64, log = false, round_mode = "HalfAwayFromZero", scale = 1.000000e+00 : f64} : (tensor<*xf32>) -> tensor<*xf32> loc(#loc426)
    %416 = "top.Mul"(%413, %415) {do_relu = false, is_scalar = false, relu_limit = -1.000000e+00 : f64} : (tensor<*xf32>, tensor<*xf32>) -> tensor<*xf32> loc(#loc427)
    %417 = "top.Add"(%398, %416) {do_relu = false, is_scalar = false, relu_limit = -1.000000e+00 : f64} : (tensor<*xf32>, tensor<*xf32>) -> tensor<*xf32> loc(#loc428)
    %418 = "top.Weight"() : () -> tensor<128x128x3x3xf32> loc(#loc429)
    %419 = "top.Weight"() : () -> tensor<128xf32> loc(#loc430)
    %420 = "top.Conv"(%417, %418, %419) {auto_pad = "NOTSET", dilations = [1, 1], do_relu = false, dynweight_reorderd = false, group = 1 : i64, kernel_shape = [3, 3], pads = [1, 1, 1, 1], relu_limit = -1.000000e+00 : f64, strides = [1, 1], weight_is_coeff = 1 : i64} : (tensor<*xf32>, tensor<128x128x3x3xf32>, tensor<128xf32>) -> tensor<*xf32> loc(#loc431)
    %421 = "top.Sigmoid"(%420) {bias = 0.000000e+00 : f64, log = false, round_mode = "HalfAwayFromZero", scale = 1.000000e+00 : f64} : (tensor<*xf32>) -> tensor<*xf32> loc(#loc432)
    %422 = "top.Mul"(%420, %421) {do_relu = false, is_scalar = false, relu_limit = -1.000000e+00 : f64} : (tensor<*xf32>, tensor<*xf32>) -> tensor<*xf32> loc(#loc433)
    %423 = "top.Weight"() : () -> tensor<128x128x3x3xf32> loc(#loc434)
    %424 = "top.Weight"() : () -> tensor<128xf32> loc(#loc435)
    %425 = "top.Conv"(%422, %423, %424) {auto_pad = "NOTSET", dilations = [1, 1], do_relu = false, dynweight_reorderd = false, group = 1 : i64, kernel_shape = [3, 3], pads = [1, 1, 1, 1], relu_limit = -1.000000e+00 : f64, strides = [1, 1], weight_is_coeff = 1 : i64} : (tensor<*xf32>, tensor<128x128x3x3xf32>, tensor<128xf32>) -> tensor<*xf32> loc(#loc436)
    %426 = "top.Sigmoid"(%425) {bias = 0.000000e+00 : f64, log = false, round_mode = "HalfAwayFromZero", scale = 1.000000e+00 : f64} : (tensor<*xf32>) -> tensor<*xf32> loc(#loc437)
    %427 = "top.Mul"(%425, %426) {do_relu = false, is_scalar = false, relu_limit = -1.000000e+00 : f64} : (tensor<*xf32>, tensor<*xf32>) -> tensor<*xf32> loc(#loc438)
    %428 = "top.Add"(%417, %427) {do_relu = false, is_scalar = false, relu_limit = -1.000000e+00 : f64} : (tensor<*xf32>, tensor<*xf32>) -> tensor<*xf32> loc(#loc439)
    %429 = "top.Concat"(%428, %399) {axis = 1 : si32, do_relu = false, relu_limit = -1.000000e+00 : f64, round_mode = "HalfAwayFromZero"} : (tensor<*xf32>, tensor<*xf32>) -> tensor<*xf32> loc(#loc440)
    %430 = "top.Weight"() : () -> tensor<256x256x1x1xf32> loc(#loc441)
    %431 = "top.Weight"() : () -> tensor<256xf32> loc(#loc442)
    %432 = "top.Conv"(%429, %430, %431) {auto_pad = "NOTSET", dilations = [1, 1], do_relu = false, dynweight_reorderd = false, group = 1 : i64, kernel_shape = [1, 1], pads = [0, 0, 0, 0], relu_limit = -1.000000e+00 : f64, strides = [1, 1], weight_is_coeff = 1 : i64} : (tensor<*xf32>, tensor<256x256x1x1xf32>, tensor<256xf32>) -> tensor<*xf32> loc(#loc443)
    %433 = "top.Sigmoid"(%432) {bias = 0.000000e+00 : f64, log = false, round_mode = "HalfAwayFromZero", scale = 1.000000e+00 : f64} : (tensor<*xf32>) -> tensor<*xf32> loc(#loc444)
    %434 = "top.Mul"(%432, %433) {do_relu = false, is_scalar = false, relu_limit = -1.000000e+00 : f64} : (tensor<*xf32>, tensor<*xf32>) -> tensor<*xf32> loc(#loc445)
    %435 = "top.Concat"(%384#0, %384#1, %434) {axis = 1 : si32, do_relu = false, relu_limit = -1.000000e+00 : f64, round_mode = "HalfAwayFromZero"} : (tensor<*xf32>, tensor<*xf32>, tensor<*xf32>) -> tensor<*xf32> loc(#loc446)
    %436 = "top.Weight"() : () -> tensor<512x768x1x1xf32> loc(#loc447)
    %437 = "top.Weight"() : () -> tensor<512xf32> loc(#loc448)
    %438 = "top.Conv"(%435, %436, %437) {auto_pad = "NOTSET", dilations = [1, 1], do_relu = false, dynweight_reorderd = false, group = 1 : i64, kernel_shape = [1, 1], pads = [0, 0, 0, 0], relu_limit = -1.000000e+00 : f64, strides = [1, 1], weight_is_coeff = 1 : i64} : (tensor<*xf32>, tensor<512x768x1x1xf32>, tensor<512xf32>) -> tensor<*xf32> loc(#loc449)
    %439 = "top.Sigmoid"(%438) {bias = 0.000000e+00 : f64, log = false, round_mode = "HalfAwayFromZero", scale = 1.000000e+00 : f64} : (tensor<*xf32>) -> tensor<*xf32> loc(#loc450)
    %440 = "top.Mul"(%438, %439) {do_relu = false, is_scalar = false, relu_limit = -1.000000e+00 : f64} : (tensor<*xf32>, tensor<*xf32>) -> tensor<*xf32> loc(#loc451)
    %441 = "top.Weight"() : () -> tensor<64x512x3x3xf32> loc(#loc452)
    %442 = "top.Weight"() : () -> tensor<64xf32> loc(#loc453)
    %443 = "top.Conv"(%440, %441, %442) {auto_pad = "NOTSET", dilations = [1, 1], do_relu = false, dynweight_reorderd = false, group = 1 : i64, kernel_shape = [3, 3], pads = [1, 1, 1, 1], relu_limit = -1.000000e+00 : f64, strides = [1, 1], weight_is_coeff = 1 : i64} : (tensor<*xf32>, tensor<64x512x3x3xf32>, tensor<64xf32>) -> tensor<*xf32> loc(#loc454)
    %444 = "top.Weight"() : () -> tensor<512x1x3x3xf32> loc(#loc455)
    %445 = "top.Weight"() : () -> tensor<512xf32> loc(#loc456)
    %446 = "top.Conv"(%440, %444, %445) {auto_pad = "NOTSET", dilations = [1, 1], do_relu = false, dynweight_reorderd = false, group = 512 : i64, kernel_shape = [3, 3], pads = [1, 1, 1, 1], relu_limit = -1.000000e+00 : f64, strides = [1, 1], weight_is_coeff = 1 : i64} : (tensor<*xf32>, tensor<512x1x3x3xf32>, tensor<512xf32>) -> tensor<*xf32> loc(#loc457)
    %447 = "top.Sigmoid"(%443) {bias = 0.000000e+00 : f64, log = false, round_mode = "HalfAwayFromZero", scale = 1.000000e+00 : f64} : (tensor<*xf32>) -> tensor<*xf32> loc(#loc458)
    %448 = "top.Sigmoid"(%446) {bias = 0.000000e+00 : f64, log = false, round_mode = "HalfAwayFromZero", scale = 1.000000e+00 : f64} : (tensor<*xf32>) -> tensor<*xf32> loc(#loc459)
    %449 = "top.Mul"(%443, %447) {do_relu = false, is_scalar = false, relu_limit = -1.000000e+00 : f64} : (tensor<*xf32>, tensor<*xf32>) -> tensor<*xf32> loc(#loc460)
    %450 = "top.Mul"(%446, %448) {do_relu = false, is_scalar = false, relu_limit = -1.000000e+00 : f64} : (tensor<*xf32>, tensor<*xf32>) -> tensor<*xf32> loc(#loc461)
    %451 = "top.Weight"() : () -> tensor<64x64x3x3xf32> loc(#loc462)
    %452 = "top.Weight"() : () -> tensor<64xf32> loc(#loc463)
    %453 = "top.Conv"(%449, %451, %452) {auto_pad = "NOTSET", dilations = [1, 1], do_relu = false, dynweight_reorderd = false, group = 1 : i64, kernel_shape = [3, 3], pads = [1, 1, 1, 1], relu_limit = -1.000000e+00 : f64, strides = [1, 1], weight_is_coeff = 1 : i64} : (tensor<*xf32>, tensor<64x64x3x3xf32>, tensor<64xf32>) -> tensor<*xf32> loc(#loc464)
    %454 = "top.Weight"() : () -> tensor<128x512x1x1xf32> loc(#loc465)
    %455 = "top.Weight"() : () -> tensor<128xf32> loc(#loc466)
    %456 = "top.Conv"(%450, %454, %455) {auto_pad = "NOTSET", dilations = [1, 1], do_relu = false, dynweight_reorderd = false, group = 1 : i64, kernel_shape = [1, 1], pads = [0, 0, 0, 0], relu_limit = -1.000000e+00 : f64, strides = [1, 1], weight_is_coeff = 1 : i64} : (tensor<*xf32>, tensor<128x512x1x1xf32>, tensor<128xf32>) -> tensor<*xf32> loc(#loc467)
    %457 = "top.Sigmoid"(%453) {bias = 0.000000e+00 : f64, log = false, round_mode = "HalfAwayFromZero", scale = 1.000000e+00 : f64} : (tensor<*xf32>) -> tensor<*xf32> loc(#loc468)
    %458 = "top.Sigmoid"(%456) {bias = 0.000000e+00 : f64, log = false, round_mode = "HalfAwayFromZero", scale = 1.000000e+00 : f64} : (tensor<*xf32>) -> tensor<*xf32> loc(#loc469)
    %459 = "top.Mul"(%453, %457) {do_relu = false, is_scalar = false, relu_limit = -1.000000e+00 : f64} : (tensor<*xf32>, tensor<*xf32>) -> tensor<*xf32> loc(#loc470)
    %460 = "top.Mul"(%456, %458) {do_relu = false, is_scalar = false, relu_limit = -1.000000e+00 : f64} : (tensor<*xf32>, tensor<*xf32>) -> tensor<*xf32> loc(#loc471)
    %461 = "top.Weight"() : () -> tensor<64x64x1x1xf32> loc(#loc472)
    %462 = "top.Weight"() : () -> tensor<64xf32> loc(#loc473)
    %463 = "top.Conv"(%459, %461, %462) {auto_pad = "NOTSET", dilations = [1, 1], do_relu = false, dynweight_reorderd = false, group = 1 : i64, kernel_shape = [1, 1], pads = [0, 0, 0, 0], relu_limit = -1.000000e+00 : f64, strides = [1, 1], weight_is_coeff = 1 : i64} : (tensor<*xf32>, tensor<64x64x1x1xf32>, tensor<64xf32>) -> tensor<*xf32> loc(#loc474)
    %464 = "top.Weight"() : () -> tensor<128x1x3x3xf32> loc(#loc475)
    %465 = "top.Weight"() : () -> tensor<128xf32> loc(#loc476)
    %466 = "top.Conv"(%460, %464, %465) {auto_pad = "NOTSET", dilations = [1, 1], do_relu = false, dynweight_reorderd = false, group = 128 : i64, kernel_shape = [3, 3], pads = [1, 1, 1, 1], relu_limit = -1.000000e+00 : f64, strides = [1, 1], weight_is_coeff = 1 : i64} : (tensor<*xf32>, tensor<128x1x3x3xf32>, tensor<128xf32>) -> tensor<*xf32> loc(#loc477)
    %467 = "top.Sigmoid"(%466) {bias = 0.000000e+00 : f64, log = false, round_mode = "HalfAwayFromZero", scale = 1.000000e+00 : f64} : (tensor<*xf32>) -> tensor<*xf32> loc(#loc478)
    %468 = "top.Mul"(%466, %467) {do_relu = false, is_scalar = false, relu_limit = -1.000000e+00 : f64} : (tensor<*xf32>, tensor<*xf32>) -> tensor<*xf32> loc(#loc479)
    %469 = "top.Weight"() : () -> tensor<128x128x1x1xf32> loc(#loc480)
    %470 = "top.Weight"() : () -> tensor<128xf32> loc(#loc481)
    %471 = "top.Conv"(%468, %469, %470) {auto_pad = "NOTSET", dilations = [1, 1], do_relu = false, dynweight_reorderd = false, group = 1 : i64, kernel_shape = [1, 1], pads = [0, 0, 0, 0], relu_limit = -1.000000e+00 : f64, strides = [1, 1], weight_is_coeff = 1 : i64} : (tensor<*xf32>, tensor<128x128x1x1xf32>, tensor<128xf32>) -> tensor<*xf32> loc(#loc482)
    %472 = "top.Sigmoid"(%471) {bias = 0.000000e+00 : f64, log = false, round_mode = "HalfAwayFromZero", scale = 1.000000e+00 : f64} : (tensor<*xf32>) -> tensor<*xf32> loc(#loc483)
    %473 = "top.Mul"(%471, %472) {do_relu = false, is_scalar = false, relu_limit = -1.000000e+00 : f64} : (tensor<*xf32>, tensor<*xf32>) -> tensor<*xf32> loc(#loc484)
    %474 = "top.Weight"() : () -> tensor<4x128x1x1xf32> loc(#loc485)
    %475 = "top.Weight"() : () -> tensor<4xf32> loc(#loc486)
    %476 = "top.Conv"(%473, %474, %475) {auto_pad = "NOTSET", dilations = [1, 1], do_relu = false, dynweight_reorderd = false, group = 1 : i64, kernel_shape = [1, 1], pads = [0, 0, 0, 0], relu_limit = -1.000000e+00 : f64, strides = [1, 1], weight_is_coeff = 1 : i64} : (tensor<*xf32>, tensor<4x128x1x1xf32>, tensor<4xf32>) -> tensor<*xf32> loc(#loc487)
    %477 = "top.Concat"(%463, %476) {axis = 1 : si32, do_relu = false, relu_limit = -1.000000e+00 : f64, round_mode = "HalfAwayFromZero"} : (tensor<*xf32>, tensor<*xf32>) -> tensor<*xf32> loc(#loc488)
    %478 = "top.Reshape"(%477) {flatten_start_dim = -1 : i64, shape = [1, 68, -1]} : (tensor<*xf32>) -> tensor<*xf32> loc(#loc489)
    %479 = "top.Concat"(%340, %414, %478) {axis = 2 : si32, do_relu = false, relu_limit = -1.000000e+00 : f64, round_mode = "HalfAwayFromZero"} : (tensor<*xf32>, tensor<*xf32>, tensor<*xf32>) -> tensor<*xf32> loc(#loc490)
    %480:2 = "top.Split"(%479) {axis = 1 : si32, num = 2 : i64, split_size = [64, 4]} : (tensor<*xf32>) -> (tensor<*xf32>, tensor<*xf32>) loc(#loc509)
    %481 = "top.Reshape"(%480#0) {flatten_start_dim = -1 : i64, shape = [1, 4, 16, 1470]} : (tensor<*xf32>) -> tensor<*xf32> loc(#loc493)
    %482 = "top.Sigmoid"(%480#1) {bias = 0.000000e+00 : f64, log = false, round_mode = "HalfAwayFromZero", scale = 1.000000e+00 : f64} : (tensor<*xf32>) -> tensor<*xf32> loc(#loc494)
    %483 = "top.Permute"(%481) {order = [0, 2, 1, 3]} : (tensor<*xf32>) -> tensor<*xf32> loc(#loc495)
    %484 = "top.Softmax"(%483) {axis = 1 : si32, beta = 1.000000e+00 : f64, log = false, round_mode = "HalfAwayFromZero"} : (tensor<*xf32>) -> tensor<*xf32> loc(#loc496)
    %485 = "top.Weight"() : () -> tensor<1x16x1x1xf32> loc(#loc497)
    %486 = "top.Conv"(%484, %485, %0) {auto_pad = "NOTSET", dilations = [1, 1], do_relu = false, dynweight_reorderd = false, group = 1 : i64, kernel_shape = [1, 1], pads = [0, 0, 0, 0], relu_limit = -1.000000e+00 : f64, strides = [1, 1], weight_is_coeff = 1 : i64} : (tensor<*xf32>, tensor<1x16x1x1xf32>, none) -> tensor<*xf32> loc(#loc498)
    return %486, %482 : tensor<*xf32>, tensor<*xf32> loc(#loc)
  } loc(#loc)
} loc(#loc)
#loc1 = loc("images")
#loc2 = loc("model.0.conv.weight")
#loc3 = loc("model.0.conv.bias")
#loc4 = loc("/model.0/conv/Conv_output_0_Conv")
#loc5 = loc("/model.0/act/Sigmoid_output_0_Sigmoid")
#loc6 = loc("/model.0/act/Mul_output_0_Mul")
#loc7 = loc("model.1.conv.weight")
#loc8 = loc("model.1.conv.bias")
#loc9 = loc("/model.1/conv/Conv_output_0_Conv")
#loc10 = loc("/model.1/act/Sigmoid_output_0_Sigmoid")
#loc11 = loc("/model.1/act/Mul_output_0_Mul")
#loc12 = loc("model.2.cv1.conv.weight")
#loc13 = loc("model.2.cv1.conv.bias")
#loc14 = loc("/model.2/cv1/conv/Conv_output_0_Conv")
#loc15 = loc("/model.2/cv1/act/Sigmoid_output_0_Sigmoid")
#loc16 = loc("/model.2/cv1/act/Mul_output_0_Mul")
#loc17 = loc("/model.2/Split_output_0_Split")
#loc18 = loc("/model.2/Split_output_1_Split")
#loc19 = loc("model.2.m.0.cv1.conv.weight")
#loc20 = loc("model.2.m.0.cv1.conv.bias")
#loc21 = loc("/model.2/m.0/cv1/conv/Conv_output_0_Conv")
#loc22 = loc("/model.2/m.0/cv1/act/Sigmoid_output_0_Sigmoid")
#loc23 = loc("/model.2/m.0/cv1/act/Mul_output_0_Mul")
#loc24 = loc("model.2.m.0.cv2.conv.weight")
#loc25 = loc("model.2.m.0.cv2.conv.bias")
#loc26 = loc("/model.2/m.0/cv2/conv/Conv_output_0_Conv")
#loc27 = loc("/model.2/m.0/cv2/act/Sigmoid_output_0_Sigmoid")
#loc28 = loc("/model.2/m.0/cv2/act/Mul_output_0_Mul")
#loc29 = loc("/model.2/m.0/Add_output_0_Add")
#loc30 = loc("/model.2/Concat_output_0_Concat")
#loc31 = loc("model.2.cv2.conv.weight")
#loc32 = loc("model.2.cv2.conv.bias")
#loc33 = loc("/model.2/cv2/conv/Conv_output_0_Conv")
#loc34 = loc("/model.2/cv2/act/Sigmoid_output_0_Sigmoid")
#loc35 = loc("/model.2/cv2/act/Mul_output_0_Mul")
#loc36 = loc("model.3.conv.weight")
#loc37 = loc("model.3.conv.bias")
#loc38 = loc("/model.3/conv/Conv_output_0_Conv")
#loc39 = loc("/model.3/act/Sigmoid_output_0_Sigmoid")
#loc40 = loc("/model.3/act/Mul_output_0_Mul")
#loc41 = loc("model.4.cv1.conv.weight")
#loc42 = loc("model.4.cv1.conv.bias")
#loc43 = loc("/model.4/cv1/conv/Conv_output_0_Conv")
#loc44 = loc("/model.4/cv1/act/Sigmoid_output_0_Sigmoid")
#loc45 = loc("/model.4/cv1/act/Mul_output_0_Mul")
#loc46 = loc("/model.4/Split_output_0_Split")
#loc47 = loc("/model.4/Split_output_1_Split")
#loc48 = loc("model.4.m.0.cv1.conv.weight")
#loc49 = loc("model.4.m.0.cv1.conv.bias")
#loc50 = loc("/model.4/m.0/cv1/conv/Conv_output_0_Conv")
#loc51 = loc("/model.4/m.0/cv1/act/Sigmoid_output_0_Sigmoid")
#loc52 = loc("/model.4/m.0/cv1/act/Mul_output_0_Mul")
#loc53 = loc("model.4.m.0.cv2.conv.weight")
#loc54 = loc("model.4.m.0.cv2.conv.bias")
#loc55 = loc("/model.4/m.0/cv2/conv/Conv_output_0_Conv")
#loc56 = loc("/model.4/m.0/cv2/act/Sigmoid_output_0_Sigmoid")
#loc57 = loc("/model.4/m.0/cv2/act/Mul_output_0_Mul")
#loc58 = loc("/model.4/m.0/Add_output_0_Add")
#loc59 = loc("/model.4/Concat_output_0_Concat")
#loc60 = loc("model.4.cv2.conv.weight")
#loc61 = loc("model.4.cv2.conv.bias")
#loc62 = loc("/model.4/cv2/conv/Conv_output_0_Conv")
#loc63 = loc("/model.4/cv2/act/Sigmoid_output_0_Sigmoid")
#loc64 = loc("/model.4/cv2/act/Mul_output_0_Mul")
#loc65 = loc("model.5.conv.weight")
#loc66 = loc("model.5.conv.bias")
#loc67 = loc("/model.5/conv/Conv_output_0_Conv")
#loc68 = loc("/model.5/act/Sigmoid_output_0_Sigmoid")
#loc69 = loc("/model.5/act/Mul_output_0_Mul")
#loc70 = loc("model.6.cv1.conv.weight")
#loc71 = loc("model.6.cv1.conv.bias")
#loc72 = loc("/model.6/cv1/conv/Conv_output_0_Conv")
#loc73 = loc("/model.6/cv1/act/Sigmoid_output_0_Sigmoid")
#loc74 = loc("/model.6/cv1/act/Mul_output_0_Mul")
#loc75 = loc("/model.6/Split_output_0_Split")
#loc76 = loc("/model.6/Split_output_1_Split")
#loc77 = loc("model.6.m.0.cv1.conv.weight")
#loc78 = loc("model.6.m.0.cv1.conv.bias")
#loc79 = loc("/model.6/m.0/cv1/conv/Conv_output_0_Conv")
#loc80 = loc("model.6.m.0.cv2.conv.weight")
#loc81 = loc("model.6.m.0.cv2.conv.bias")
#loc82 = loc("/model.6/m.0/cv2/conv/Conv_output_0_Conv")
#loc83 = loc("/model.6/m.0/cv1/act/Sigmoid_output_0_Sigmoid")
#loc84 = loc("/model.6/m.0/cv2/act/Sigmoid_output_0_Sigmoid")
#loc85 = loc("/model.6/m.0/cv1/act/Mul_output_0_Mul")
#loc86 = loc("/model.6/m.0/cv2/act/Mul_output_0_Mul")
#loc87 = loc("model.6.m.0.m.0.cv1.conv.weight")
#loc88 = loc("model.6.m.0.m.0.cv1.conv.bias")
#loc89 = loc("/model.6/m.0/m/m.0/cv1/conv/Conv_output_0_Conv")
#loc90 = loc("/model.6/m.0/m/m.0/cv1/act/Sigmoid_output_0_Sigmoid")
#loc91 = loc("/model.6/m.0/m/m.0/cv1/act/Mul_output_0_Mul")
#loc92 = loc("model.6.m.0.m.0.cv2.conv.weight")
#loc93 = loc("model.6.m.0.m.0.cv2.conv.bias")
#loc94 = loc("/model.6/m.0/m/m.0/cv2/conv/Conv_output_0_Conv")
#loc95 = loc("/model.6/m.0/m/m.0/cv2/act/Sigmoid_output_0_Sigmoid")
#loc96 = loc("/model.6/m.0/m/m.0/cv2/act/Mul_output_0_Mul")
#loc97 = loc("/model.6/m.0/m/m.0/Add_output_0_Add")
#loc98 = loc("model.6.m.0.m.1.cv1.conv.weight")
#loc99 = loc("model.6.m.0.m.1.cv1.conv.bias")
#loc100 = loc("/model.6/m.0/m/m.1/cv1/conv/Conv_output_0_Conv")
#loc101 = loc("/model.6/m.0/m/m.1/cv1/act/Sigmoid_output_0_Sigmoid")
#loc102 = loc("/model.6/m.0/m/m.1/cv1/act/Mul_output_0_Mul")
#loc103 = loc("model.6.m.0.m.1.cv2.conv.weight")
#loc104 = loc("model.6.m.0.m.1.cv2.conv.bias")
#loc105 = loc("/model.6/m.0/m/m.1/cv2/conv/Conv_output_0_Conv")
#loc106 = loc("/model.6/m.0/m/m.1/cv2/act/Sigmoid_output_0_Sigmoid")
#loc107 = loc("/model.6/m.0/m/m.1/cv2/act/Mul_output_0_Mul")
#loc108 = loc("/model.6/m.0/m/m.1/Add_output_0_Add")
#loc109 = loc("/model.6/m.0/Concat_output_0_Concat")
#loc110 = loc("model.6.m.0.cv3.conv.weight")
#loc111 = loc("model.6.m.0.cv3.conv.bias")
#loc112 = loc("/model.6/m.0/cv3/conv/Conv_output_0_Conv")
#loc113 = loc("/model.6/m.0/cv3/act/Sigmoid_output_0_Sigmoid")
#loc114 = loc("/model.6/m.0/cv3/act/Mul_output_0_Mul")
#loc115 = loc("/model.6/Concat_output_0_Concat")
#loc116 = loc("model.6.cv2.conv.weight")
#loc117 = loc("model.6.cv2.conv.bias")
#loc118 = loc("/model.6/cv2/conv/Conv_output_0_Conv")
#loc119 = loc("/model.6/cv2/act/Sigmoid_output_0_Sigmoid")
#loc120 = loc("/model.6/cv2/act/Mul_output_0_Mul")
#loc121 = loc("model.7.conv.weight")
#loc122 = loc("model.7.conv.bias")
#loc123 = loc("/model.7/conv/Conv_output_0_Conv")
#loc124 = loc("/model.7/act/Sigmoid_output_0_Sigmoid")
#loc125 = loc("/model.7/act/Mul_output_0_Mul")
#loc126 = loc("model.8.cv1.conv.weight")
#loc127 = loc("model.8.cv1.conv.bias")
#loc128 = loc("/model.8/cv1/conv/Conv_output_0_Conv")
#loc129 = loc("/model.8/cv1/act/Sigmoid_output_0_Sigmoid")
#loc130 = loc("/model.8/cv1/act/Mul_output_0_Mul")
#loc131 = loc("/model.8/Split_output_0_Split")
#loc132 = loc("/model.8/Split_output_1_Split")
#loc133 = loc("model.8.m.0.cv1.conv.weight")
#loc134 = loc("model.8.m.0.cv1.conv.bias")
#loc135 = loc("/model.8/m.0/cv1/conv/Conv_output_0_Conv")
#loc136 = loc("model.8.m.0.cv2.conv.weight")
#loc137 = loc("model.8.m.0.cv2.conv.bias")
#loc138 = loc("/model.8/m.0/cv2/conv/Conv_output_0_Conv")
#loc139 = loc("/model.8/m.0/cv1/act/Sigmoid_output_0_Sigmoid")
#loc140 = loc("/model.8/m.0/cv2/act/Sigmoid_output_0_Sigmoid")
#loc141 = loc("/model.8/m.0/cv1/act/Mul_output_0_Mul")
#loc142 = loc("/model.8/m.0/cv2/act/Mul_output_0_Mul")
#loc143 = loc("model.8.m.0.m.0.cv1.conv.weight")
#loc144 = loc("model.8.m.0.m.0.cv1.conv.bias")
#loc145 = loc("/model.8/m.0/m/m.0/cv1/conv/Conv_output_0_Conv")
#loc146 = loc("/model.8/m.0/m/m.0/cv1/act/Sigmoid_output_0_Sigmoid")
#loc147 = loc("/model.8/m.0/m/m.0/cv1/act/Mul_output_0_Mul")
#loc148 = loc("model.8.m.0.m.0.cv2.conv.weight")
#loc149 = loc("model.8.m.0.m.0.cv2.conv.bias")
#loc150 = loc("/model.8/m.0/m/m.0/cv2/conv/Conv_output_0_Conv")
#loc151 = loc("/model.8/m.0/m/m.0/cv2/act/Sigmoid_output_0_Sigmoid")
#loc152 = loc("/model.8/m.0/m/m.0/cv2/act/Mul_output_0_Mul")
#loc153 = loc("/model.8/m.0/m/m.0/Add_output_0_Add")
#loc154 = loc("model.8.m.0.m.1.cv1.conv.weight")
#loc155 = loc("model.8.m.0.m.1.cv1.conv.bias")
#loc156 = loc("/model.8/m.0/m/m.1/cv1/conv/Conv_output_0_Conv")
#loc157 = loc("/model.8/m.0/m/m.1/cv1/act/Sigmoid_output_0_Sigmoid")
#loc158 = loc("/model.8/m.0/m/m.1/cv1/act/Mul_output_0_Mul")
#loc159 = loc("model.8.m.0.m.1.cv2.conv.weight")
#loc160 = loc("model.8.m.0.m.1.cv2.conv.bias")
#loc161 = loc("/model.8/m.0/m/m.1/cv2/conv/Conv_output_0_Conv")
#loc162 = loc("/model.8/m.0/m/m.1/cv2/act/Sigmoid_output_0_Sigmoid")
#loc163 = loc("/model.8/m.0/m/m.1/cv2/act/Mul_output_0_Mul")
#loc164 = loc("/model.8/m.0/m/m.1/Add_output_0_Add")
#loc165 = loc("/model.8/m.0/Concat_output_0_Concat")
#loc166 = loc("model.8.m.0.cv3.conv.weight")
#loc167 = loc("model.8.m.0.cv3.conv.bias")
#loc168 = loc("/model.8/m.0/cv3/conv/Conv_output_0_Conv")
#loc169 = loc("/model.8/m.0/cv3/act/Sigmoid_output_0_Sigmoid")
#loc170 = loc("/model.8/m.0/cv3/act/Mul_output_0_Mul")
#loc171 = loc("/model.8/Concat_output_0_Concat")
#loc172 = loc("model.8.cv2.conv.weight")
#loc173 = loc("model.8.cv2.conv.bias")
#loc174 = loc("/model.8/cv2/conv/Conv_output_0_Conv")
#loc175 = loc("/model.8/cv2/act/Sigmoid_output_0_Sigmoid")
#loc176 = loc("/model.8/cv2/act/Mul_output_0_Mul")
#loc177 = loc("model.9.cv1.conv.weight")
#loc178 = loc("model.9.cv1.conv.bias")
#loc179 = loc("/model.9/cv1/conv/Conv_output_0_Conv")
#loc180 = loc("/model.9/cv1/act/Sigmoid_output_0_Sigmoid")
#loc181 = loc("/model.9/cv1/act/Mul_output_0_Mul")
#loc182 = loc("/model.9/m/MaxPool_output_0_MaxPool")
#loc183 = loc("/model.9/m_1/MaxPool_output_0_MaxPool")
#loc184 = loc("/model.9/m_2/MaxPool_output_0_MaxPool")
#loc185 = loc("/model.9/Concat_output_0_Concat")
#loc186 = loc("model.9.cv2.conv.weight")
#loc187 = loc("model.9.cv2.conv.bias")
#loc188 = loc("/model.9/cv2/conv/Conv_output_0_Conv")
#loc189 = loc("/model.9/cv2/act/Sigmoid_output_0_Sigmoid")
#loc190 = loc("/model.9/cv2/act/Mul_output_0_Mul")
#loc191 = loc("model.10.cv1.conv.weight")
#loc192 = loc("model.10.cv1.conv.bias")
#loc193 = loc("/model.10/cv1/conv/Conv_output_0_Conv")
#loc194 = loc("/model.10/cv1/act/Sigmoid_output_0_Sigmoid")
#loc195 = loc("/model.10/cv1/act/Mul_output_0_Mul")
#loc196 = loc("/model.10/Split_output_0_Split")
#loc197 = loc("/model.10/Split_output_1_Split")
#loc198 = loc("model.10.m.0.attn.qkv.conv.weight")
#loc199 = loc("model.10.m.0.attn.qkv.conv.bias")
#loc200 = loc("/model.10/m/m.0/attn/qkv/conv/Conv_output_0_Conv")
#loc201 = loc("/model.10/m/m.0/attn/Reshape_output_0_Reshape")
#loc202 = loc("/model.10/m/m.0/attn/Split_output_0_Split")
#loc203 = loc("/model.10/m/m.0/attn/Split_output_1_Split")
#loc204 = loc("/model.10/m/m.0/attn/Split_output_2_Split")
#loc205 = loc("/model.10/m/m.0/attn/Transpose_output_0_Transpose")
#loc206 = loc("/model.10/m/m.0/attn/Reshape_2_output_0_Reshape")
#loc207 = loc("/model.10/m/m.0/attn/MatMul_output_0_MatMul")
#loc208 = loc("model.10.m.0.attn.pe.conv.weight")
#loc209 = loc("model.10.m.0.attn.pe.conv.bias")
#loc210 = loc("/model.10/m/m.0/attn/pe/conv/Conv_output_0_Conv")
#loc211 = loc("/model.10/m/m.0/attn/Constant_1_output_0")
#loc212 = loc("/model.10/m/m.0/attn/Mul_output_0_Mul")
#loc213 = loc("/model.10/m/m.0/attn/Softmax_output_0_Softmax")
#loc214 = loc("/model.10/m/m.0/attn/Transpose_1_output_0_Transpose")
#loc215 = loc("/model.10/m/m.0/attn/MatMul_1_output_0_MatMul")
#loc216 = loc("/model.10/m/m.0/attn/Reshape_1_output_0_Reshape")
#loc217 = loc("/model.10/m/m.0/attn/Add_output_0_Add")
#loc218 = loc("model.10.m.0.attn.proj.conv.weight")
#loc219 = loc("model.10.m.0.attn.proj.conv.bias")
#loc220 = loc("/model.10/m/m.0/attn/proj/conv/Conv_output_0_Conv")
#loc221 = loc("/model.10/m/m.0/Add_output_0_Add")
#loc222 = loc("model.10.m.0.ffn.0.conv.weight")
#loc223 = loc("model.10.m.0.ffn.0.conv.bias")
#loc224 = loc("/model.10/m/m.0/ffn/ffn.0/conv/Conv_output_0_Conv")
#loc225 = loc("/model.10/m/m.0/ffn/ffn.0/act/Sigmoid_output_0_Sigmoid")
#loc226 = loc("/model.10/m/m.0/ffn/ffn.0/act/Mul_output_0_Mul")
#loc227 = loc("model.10.m.0.ffn.1.conv.weight")
#loc228 = loc("model.10.m.0.ffn.1.conv.bias")
#loc229 = loc("/model.10/m/m.0/ffn/ffn.1/conv/Conv_output_0_Conv")
#loc230 = loc("/model.10/m/m.0/Add_1_output_0_Add")
#loc231 = loc("/model.10/Concat_output_0_Concat")
#loc232 = loc("model.10.cv2.conv.weight")
#loc233 = loc("model.10.cv2.conv.bias")
#loc234 = loc("/model.10/cv2/conv/Conv_output_0_Conv")
#loc235 = loc("/model.10/cv2/act/Sigmoid_output_0_Sigmoid")
#loc236 = loc("/model.10/cv2/act/Mul_output_0_Mul")
#loc237 = loc("/model.11/Resize_output_0_Resize")
#loc238 = loc("/model.12/Concat_output_0_Concat")
#loc239 = loc("model.13.cv1.conv.weight")
#loc240 = loc("model.13.cv1.conv.bias")
#loc241 = loc("/model.13/cv1/conv/Conv_output_0_Conv")
#loc242 = loc("/model.13/cv1/act/Sigmoid_output_0_Sigmoid")
#loc243 = loc("/model.13/cv1/act/Mul_output_0_Mul")
#loc244 = loc("/model.13/Split_output_0_Split")
#loc245 = loc("/model.13/Split_output_1_Split")
#loc246 = loc("model.13.m.0.cv1.conv.weight")
#loc247 = loc("model.13.m.0.cv1.conv.bias")
#loc248 = loc("/model.13/m.0/cv1/conv/Conv_output_0_Conv")
#loc249 = loc("/model.13/m.0/cv1/act/Sigmoid_output_0_Sigmoid")
#loc250 = loc("/model.13/m.0/cv1/act/Mul_output_0_Mul")
#loc251 = loc("model.13.m.0.cv2.conv.weight")
#loc252 = loc("model.13.m.0.cv2.conv.bias")
#loc253 = loc("/model.13/m.0/cv2/conv/Conv_output_0_Conv")
#loc254 = loc("/model.13/m.0/cv2/act/Sigmoid_output_0_Sigmoid")
#loc255 = loc("/model.13/m.0/cv2/act/Mul_output_0_Mul")
#loc256 = loc("/model.13/m.0/Add_output_0_Add")
#loc257 = loc("/model.13/Concat_output_0_Concat")
#loc258 = loc("model.13.cv2.conv.weight")
#loc259 = loc("model.13.cv2.conv.bias")
#loc260 = loc("/model.13/cv2/conv/Conv_output_0_Conv")
#loc261 = loc("/model.13/cv2/act/Sigmoid_output_0_Sigmoid")
#loc262 = loc("/model.13/cv2/act/Mul_output_0_Mul")
#loc263 = loc("/model.14/Resize_output_0_Resize")
#loc264 = loc("/model.15/Concat_output_0_Concat")
#loc265 = loc("model.16.cv1.conv.weight")
#loc266 = loc("model.16.cv1.conv.bias")
#loc267 = loc("/model.16/cv1/conv/Conv_output_0_Conv")
#loc268 = loc("/model.16/cv1/act/Sigmoid_output_0_Sigmoid")
#loc269 = loc("/model.16/cv1/act/Mul_output_0_Mul")
#loc270 = loc("/model.16/Split_output_0_Split")
#loc271 = loc("/model.16/Split_output_1_Split")
#loc272 = loc("model.16.m.0.cv1.conv.weight")
#loc273 = loc("model.16.m.0.cv1.conv.bias")
#loc274 = loc("/model.16/m.0/cv1/conv/Conv_output_0_Conv")
#loc275 = loc("/model.16/m.0/cv1/act/Sigmoid_output_0_Sigmoid")
#loc276 = loc("/model.16/m.0/cv1/act/Mul_output_0_Mul")
#loc277 = loc("model.16.m.0.cv2.conv.weight")
#loc278 = loc("model.16.m.0.cv2.conv.bias")
#loc279 = loc("/model.16/m.0/cv2/conv/Conv_output_0_Conv")
#loc280 = loc("/model.16/m.0/cv2/act/Sigmoid_output_0_Sigmoid")
#loc281 = loc("/model.16/m.0/cv2/act/Mul_output_0_Mul")
#loc282 = loc("/model.16/m.0/Add_output_0_Add")
#loc283 = loc("/model.16/Concat_output_0_Concat")
#loc284 = loc("model.16.cv2.conv.weight")
#loc285 = loc("model.16.cv2.conv.bias")
#loc286 = loc("/model.16/cv2/conv/Conv_output_0_Conv")
#loc287 = loc("/model.16/cv2/act/Sigmoid_output_0_Sigmoid")
#loc288 = loc("/model.16/cv2/act/Mul_output_0_Mul")
#loc289 = loc("model.17.conv.weight")
#loc290 = loc("model.17.conv.bias")
#loc291 = loc("/model.17/conv/Conv_output_0_Conv")
#loc292 = loc("model.23.cv2.0.0.conv.weight")
#loc293 = loc("model.23.cv2.0.0.conv.bias")
#loc294 = loc("/model.23/cv2.0/cv2.0.0/conv/Conv_output_0_Conv")
#loc295 = loc("model.23.cv3.0.0.0.conv.weight")
#loc296 = loc("model.23.cv3.0.0.0.conv.bias")
#loc297 = loc("/model.23/cv3.0/cv3.0.0/cv3.0.0.0/conv/Conv_output_0_Conv")
#loc298 = loc("/model.17/act/Sigmoid_output_0_Sigmoid")
#loc299 = loc("/model.23/cv2.0/cv2.0.0/act/Sigmoid_output_0_Sigmoid")
#loc300 = loc("/model.23/cv3.0/cv3.0.0/cv3.0.0.0/act/Sigmoid_output_0_Sigmoid")
#loc301 = loc("/model.17/act/Mul_output_0_Mul")
#loc302 = loc("/model.23/cv2.0/cv2.0.0/act/Mul_output_0_Mul")
#loc303 = loc("/model.23/cv3.0/cv3.0.0/cv3.0.0.0/act/Mul_output_0_Mul")
#loc304 = loc("/model.18/Concat_output_0_Concat")
#loc305 = loc("model.23.cv2.0.1.conv.weight")
#loc306 = loc("model.23.cv2.0.1.conv.bias")
#loc307 = loc("/model.23/cv2.0/cv2.0.1/conv/Conv_output_0_Conv")
#loc308 = loc("model.23.cv3.0.0.1.conv.weight")
#loc309 = loc("model.23.cv3.0.0.1.conv.bias")
#loc310 = loc("/model.23/cv3.0/cv3.0.0/cv3.0.0.1/conv/Conv_output_0_Conv")
#loc311 = loc("model.19.cv1.conv.weight")
#loc312 = loc("model.19.cv1.conv.bias")
#loc313 = loc("/model.19/cv1/conv/Conv_output_0_Conv")
#loc314 = loc("/model.23/cv2.0/cv2.0.1/act/Sigmoid_output_0_Sigmoid")
#loc315 = loc("/model.23/cv3.0/cv3.0.0/cv3.0.0.1/act/Sigmoid_output_0_Sigmoid")
#loc316 = loc("/model.19/cv1/act/Sigmoid_output_0_Sigmoid")
#loc317 = loc("/model.23/cv2.0/cv2.0.1/act/Mul_output_0_Mul")
#loc318 = loc("/model.23/cv3.0/cv3.0.0/cv3.0.0.1/act/Mul_output_0_Mul")
#loc319 = loc("/model.19/cv1/act/Mul_output_0_Mul")
#loc320 = loc("model.23.cv2.0.2.weight")
#loc321 = loc("model.23.cv2.0.2.bias")
#loc322 = loc("/model.23/cv2.0/cv2.0.2/Conv_output_0_Conv")
#loc323 = loc("model.23.cv3.0.1.0.conv.weight")
#loc324 = loc("model.23.cv3.0.1.0.conv.bias")
#loc325 = loc("/model.23/cv3.0/cv3.0.1/cv3.0.1.0/conv/Conv_output_0_Conv")
#loc326 = loc("/model.19/Split_output_0_Split")
#loc327 = loc("/model.19/Split_output_1_Split")
#loc328 = loc("/model.23/cv3.0/cv3.0.1/cv3.0.1.0/act/Sigmoid_output_0_Sigmoid")
#loc329 = loc("model.19.m.0.cv1.conv.weight")
#loc330 = loc("model.19.m.0.cv1.conv.bias")
#loc331 = loc("/model.19/m.0/cv1/conv/Conv_output_0_Conv")
#loc332 = loc("/model.23/cv3.0/cv3.0.1/cv3.0.1.0/act/Mul_output_0_Mul")
#loc333 = loc("/model.19/m.0/cv1/act/Sigmoid_output_0_Sigmoid")
#loc334 = loc("model.23.cv3.0.1.1.conv.weight")
#loc335 = loc("model.23.cv3.0.1.1.conv.bias")
#loc336 = loc("/model.23/cv3.0/cv3.0.1/cv3.0.1.1/conv/Conv_output_0_Conv")
#loc337 = loc("/model.19/m.0/cv1/act/Mul_output_0_Mul")
#loc338 = loc("/model.23/cv3.0/cv3.0.1/cv3.0.1.1/act/Sigmoid_output_0_Sigmoid")
#loc339 = loc("model.19.m.0.cv2.conv.weight")
#loc340 = loc("model.19.m.0.cv2.conv.bias")
#loc341 = loc("/model.19/m.0/cv2/conv/Conv_output_0_Conv")
#loc342 = loc("/model.23/cv3.0/cv3.0.1/cv3.0.1.1/act/Mul_output_0_Mul")
#loc343 = loc("/model.19/m.0/cv2/act/Sigmoid_output_0_Sigmoid")
#loc344 = loc("model.23.cv3.0.2.weight")
#loc345 = loc("model.23.cv3.0.2.bias")
#loc346 = loc("/model.23/cv3.0/cv3.0.2/Conv_output_0_Conv")
#loc347 = loc("/model.19/m.0/cv2/act/Mul_output_0_Mul")
#loc348 = loc("/model.23/Concat_output_0_Concat")
#loc349 = loc("/model.19/m.0/Add_output_0_Add")
#loc350 = loc("/model.23/Reshape_output_0_Reshape")
#loc351 = loc("/model.19/Concat_output_0_Concat")
#loc352 = loc("model.19.cv2.conv.weight")
#loc353 = loc("model.19.cv2.conv.bias")
#loc354 = loc("/model.19/cv2/conv/Conv_output_0_Conv")
#loc355 = loc("/model.19/cv2/act/Sigmoid_output_0_Sigmoid")
#loc356 = loc("/model.19/cv2/act/Mul_output_0_Mul")
#loc357 = loc("model.20.conv.weight")
#loc358 = loc("model.20.conv.bias")
#loc359 = loc("/model.20/conv/Conv_output_0_Conv")
#loc360 = loc("model.23.cv2.1.0.conv.weight")
#loc361 = loc("model.23.cv2.1.0.conv.bias")
#loc362 = loc("/model.23/cv2.1/cv2.1.0/conv/Conv_output_0_Conv")
#loc363 = loc("model.23.cv3.1.0.0.conv.weight")
#loc364 = loc("model.23.cv3.1.0.0.conv.bias")
#loc365 = loc("/model.23/cv3.1/cv3.1.0/cv3.1.0.0/conv/Conv_output_0_Conv")
#loc366 = loc("/model.20/act/Sigmoid_output_0_Sigmoid")
#loc367 = loc("/model.23/cv2.1/cv2.1.0/act/Sigmoid_output_0_Sigmoid")
#loc368 = loc("/model.23/cv3.1/cv3.1.0/cv3.1.0.0/act/Sigmoid_output_0_Sigmoid")
#loc369 = loc("/model.20/act/Mul_output_0_Mul")
#loc370 = loc("/model.23/cv2.1/cv2.1.0/act/Mul_output_0_Mul")
#loc371 = loc("/model.23/cv3.1/cv3.1.0/cv3.1.0.0/act/Mul_output_0_Mul")
#loc372 = loc("/model.21/Concat_output_0_Concat")
#loc373 = loc("model.23.cv2.1.1.conv.weight")
#loc374 = loc("model.23.cv2.1.1.conv.bias")
#loc375 = loc("/model.23/cv2.1/cv2.1.1/conv/Conv_output_0_Conv")
#loc376 = loc("model.23.cv3.1.0.1.conv.weight")
#loc377 = loc("model.23.cv3.1.0.1.conv.bias")
#loc378 = loc("/model.23/cv3.1/cv3.1.0/cv3.1.0.1/conv/Conv_output_0_Conv")
#loc379 = loc("model.22.cv1.conv.weight")
#loc380 = loc("model.22.cv1.conv.bias")
#loc381 = loc("/model.22/cv1/conv/Conv_output_0_Conv")
#loc382 = loc("/model.23/cv2.1/cv2.1.1/act/Sigmoid_output_0_Sigmoid")
#loc383 = loc("/model.23/cv3.1/cv3.1.0/cv3.1.0.1/act/Sigmoid_output_0_Sigmoid")
#loc384 = loc("/model.22/cv1/act/Sigmoid_output_0_Sigmoid")
#loc385 = loc("/model.23/cv2.1/cv2.1.1/act/Mul_output_0_Mul")
#loc386 = loc("/model.23/cv3.1/cv3.1.0/cv3.1.0.1/act/Mul_output_0_Mul")
#loc387 = loc("/model.22/cv1/act/Mul_output_0_Mul")
#loc388 = loc("model.23.cv2.1.2.weight")
#loc389 = loc("model.23.cv2.1.2.bias")
#loc390 = loc("/model.23/cv2.1/cv2.1.2/Conv_output_0_Conv")
#loc391 = loc("model.23.cv3.1.1.0.conv.weight")
#loc392 = loc("model.23.cv3.1.1.0.conv.bias")
#loc393 = loc("/model.23/cv3.1/cv3.1.1/cv3.1.1.0/conv/Conv_output_0_Conv")
#loc394 = loc("/model.22/Split_output_0_Split")
#loc395 = loc("/model.22/Split_output_1_Split")
#loc396 = loc("/model.23/cv3.1/cv3.1.1/cv3.1.1.0/act/Sigmoid_output_0_Sigmoid")
#loc397 = loc("model.22.m.0.cv1.conv.weight")
#loc398 = loc("model.22.m.0.cv1.conv.bias")
#loc399 = loc("/model.22/m.0/cv1/conv/Conv_output_0_Conv")
#loc400 = loc("model.22.m.0.cv2.conv.weight")
#loc401 = loc("model.22.m.0.cv2.conv.bias")
#loc402 = loc("/model.22/m.0/cv2/conv/Conv_output_0_Conv")
#loc403 = loc("/model.23/cv3.1/cv3.1.1/cv3.1.1.0/act/Mul_output_0_Mul")
#loc404 = loc("/model.22/m.0/cv1/act/Sigmoid_output_0_Sigmoid")
#loc405 = loc("/model.22/m.0/cv2/act/Sigmoid_output_0_Sigmoid")
#loc406 = loc("model.23.cv3.1.1.1.conv.weight")
#loc407 = loc("model.23.cv3.1.1.1.conv.bias")
#loc408 = loc("/model.23/cv3.1/cv3.1.1/cv3.1.1.1/conv/Conv_output_0_Conv")
#loc409 = loc("/model.22/m.0/cv1/act/Mul_output_0_Mul")
#loc410 = loc("/model.22/m.0/cv2/act/Mul_output_0_Mul")
#loc411 = loc("/model.23/cv3.1/cv3.1.1/cv3.1.1.1/act/Sigmoid_output_0_Sigmoid")
#loc412 = loc("model.22.m.0.m.0.cv1.conv.weight")
#loc413 = loc("model.22.m.0.m.0.cv1.conv.bias")
#loc414 = loc("/model.22/m.0/m/m.0/cv1/conv/Conv_output_0_Conv")
#loc415 = loc("/model.23/cv3.1/cv3.1.1/cv3.1.1.1/act/Mul_output_0_Mul")
#loc416 = loc("/model.22/m.0/m/m.0/cv1/act/Sigmoid_output_0_Sigmoid")
#loc417 = loc("model.23.cv3.1.2.weight")
#loc418 = loc("model.23.cv3.1.2.bias")
#loc419 = loc("/model.23/cv3.1/cv3.1.2/Conv_output_0_Conv")
#loc420 = loc("/model.22/m.0/m/m.0/cv1/act/Mul_output_0_Mul")
#loc421 = loc("/model.23/Concat_1_output_0_Concat")
#loc422 = loc("model.22.m.0.m.0.cv2.conv.weight")
#loc423 = loc("model.22.m.0.m.0.cv2.conv.bias")
#loc424 = loc("/model.22/m.0/m/m.0/cv2/conv/Conv_output_0_Conv")
#loc425 = loc("/model.23/Reshape_1_output_0_Reshape")
#loc426 = loc("/model.22/m.0/m/m.0/cv2/act/Sigmoid_output_0_Sigmoid")
#loc427 = loc("/model.22/m.0/m/m.0/cv2/act/Mul_output_0_Mul")
#loc428 = loc("/model.22/m.0/m/m.0/Add_output_0_Add")
#loc429 = loc("model.22.m.0.m.1.cv1.conv.weight")
#loc430 = loc("model.22.m.0.m.1.cv1.conv.bias")
#loc431 = loc("/model.22/m.0/m/m.1/cv1/conv/Conv_output_0_Conv")
#loc432 = loc("/model.22/m.0/m/m.1/cv1/act/Sigmoid_output_0_Sigmoid")
#loc433 = loc("/model.22/m.0/m/m.1/cv1/act/Mul_output_0_Mul")
#loc434 = loc("model.22.m.0.m.1.cv2.conv.weight")
#loc435 = loc("model.22.m.0.m.1.cv2.conv.bias")
#loc436 = loc("/model.22/m.0/m/m.1/cv2/conv/Conv_output_0_Conv")
#loc437 = loc("/model.22/m.0/m/m.1/cv2/act/Sigmoid_output_0_Sigmoid")
#loc438 = loc("/model.22/m.0/m/m.1/cv2/act/Mul_output_0_Mul")
#loc439 = loc("/model.22/m.0/m/m.1/Add_output_0_Add")
#loc440 = loc("/model.22/m.0/Concat_output_0_Concat")
#loc441 = loc("model.22.m.0.cv3.conv.weight")
#loc442 = loc("model.22.m.0.cv3.conv.bias")
#loc443 = loc("/model.22/m.0/cv3/conv/Conv_output_0_Conv")
#loc444 = loc("/model.22/m.0/cv3/act/Sigmoid_output_0_Sigmoid")
#loc445 = loc("/model.22/m.0/cv3/act/Mul_output_0_Mul")
#loc446 = loc("/model.22/Concat_output_0_Concat")
#loc447 = loc("model.22.cv2.conv.weight")
#loc448 = loc("model.22.cv2.conv.bias")
#loc449 = loc("/model.22/cv2/conv/Conv_output_0_Conv")
#loc450 = loc("/model.22/cv2/act/Sigmoid_output_0_Sigmoid")
#loc451 = loc("/model.22/cv2/act/Mul_output_0_Mul")
#loc452 = loc("model.23.cv2.2.0.conv.weight")
#loc453 = loc("model.23.cv2.2.0.conv.bias")
#loc454 = loc("/model.23/cv2.2/cv2.2.0/conv/Conv_output_0_Conv")
#loc455 = loc("model.23.cv3.2.0.0.conv.weight")
#loc456 = loc("model.23.cv3.2.0.0.conv.bias")
#loc457 = loc("/model.23/cv3.2/cv3.2.0/cv3.2.0.0/conv/Conv_output_0_Conv")
#loc458 = loc("/model.23/cv2.2/cv2.2.0/act/Sigmoid_output_0_Sigmoid")
#loc459 = loc("/model.23/cv3.2/cv3.2.0/cv3.2.0.0/act/Sigmoid_output_0_Sigmoid")
#loc460 = loc("/model.23/cv2.2/cv2.2.0/act/Mul_output_0_Mul")
#loc461 = loc("/model.23/cv3.2/cv3.2.0/cv3.2.0.0/act/Mul_output_0_Mul")
#loc462 = loc("model.23.cv2.2.1.conv.weight")
#loc463 = loc("model.23.cv2.2.1.conv.bias")
#loc464 = loc("/model.23/cv2.2/cv2.2.1/conv/Conv_output_0_Conv")
#loc465 = loc("model.23.cv3.2.0.1.conv.weight")
#loc466 = loc("model.23.cv3.2.0.1.conv.bias")
#loc467 = loc("/model.23/cv3.2/cv3.2.0/cv3.2.0.1/conv/Conv_output_0_Conv")
#loc468 = loc("/model.23/cv2.2/cv2.2.1/act/Sigmoid_output_0_Sigmoid")
#loc469 = loc("/model.23/cv3.2/cv3.2.0/cv3.2.0.1/act/Sigmoid_output_0_Sigmoid")
#loc470 = loc("/model.23/cv2.2/cv2.2.1/act/Mul_output_0_Mul")
#loc471 = loc("/model.23/cv3.2/cv3.2.0/cv3.2.0.1/act/Mul_output_0_Mul")
#loc472 = loc("model.23.cv2.2.2.weight")
#loc473 = loc("model.23.cv2.2.2.bias")
#loc474 = loc("/model.23/cv2.2/cv2.2.2/Conv_output_0_Conv")
#loc475 = loc("model.23.cv3.2.1.0.conv.weight")
#loc476 = loc("model.23.cv3.2.1.0.conv.bias")
#loc477 = loc("/model.23/cv3.2/cv3.2.1/cv3.2.1.0/conv/Conv_output_0_Conv")
#loc478 = loc("/model.23/cv3.2/cv3.2.1/cv3.2.1.0/act/Sigmoid_output_0_Sigmoid")
#loc479 = loc("/model.23/cv3.2/cv3.2.1/cv3.2.1.0/act/Mul_output_0_Mul")
#loc480 = loc("model.23.cv3.2.1.1.conv.weight")
#loc481 = loc("model.23.cv3.2.1.1.conv.bias")
#loc482 = loc("/model.23/cv3.2/cv3.2.1/cv3.2.1.1/conv/Conv_output_0_Conv")
#loc483 = loc("/model.23/cv3.2/cv3.2.1/cv3.2.1.1/act/Sigmoid_output_0_Sigmoid")
#loc484 = loc("/model.23/cv3.2/cv3.2.1/cv3.2.1.1/act/Mul_output_0_Mul")
#loc485 = loc("model.23.cv3.2.2.weight")
#loc486 = loc("model.23.cv3.2.2.bias")
#loc487 = loc("/model.23/cv3.2/cv3.2.2/Conv_output_0_Conv")
#loc488 = loc("/model.23/Concat_2_output_0_Concat")
#loc489 = loc("/model.23/Reshape_2_output_0_Reshape")
#loc490 = loc("/model.23/Concat_3_output_0_Concat")
#loc491 = loc("/model.23/Split_output_0_Split")
#loc492 = loc("/model.23/Split_output_1_Split")
#loc493 = loc("/model.23/dfl/Reshape_output_0_Reshape")
#loc494 = loc("/model.23/Sigmoid_output_0_Sigmoid")
#loc495 = loc("/model.23/dfl/Transpose_output_0_Transpose")
#loc496 = loc("/model.23/dfl/Softmax_output_0_Softmax")
#loc497 = loc("model.23.dfl.conv.weight")
#loc498 = loc("/model.23/dfl/conv/Conv_output_0_Conv")
#loc499 = loc(fused[#loc17, #loc18])
#loc500 = loc(fused[#loc46, #loc47])
#loc501 = loc(fused[#loc75, #loc76])
#loc502 = loc(fused[#loc131, #loc132])
#loc503 = loc(fused[#loc196, #loc197])
#loc504 = loc(fused[#loc202, #loc203, #loc204])
#loc505 = loc(fused[#loc244, #loc245])
#loc506 = loc(fused[#loc270, #loc271])
#loc507 = loc(fused[#loc326, #loc327])
#loc508 = loc(fused[#loc394, #loc395])
#loc509 = loc(fused[#loc491, #loc492])
