#loc = loc(unknown)
module @yolo11s attributes {module.FLOPs = 3787969080 : i64, module.addr_mode = "basic", module.asymmetric = false, module.chip = "cv181x", module.cores = 1 : i64, module.devices = 1 : i64, module.high_precision = false, module.mode = "BF16", module.platform = "ONNX", module.q_group_size = 0 : i64, module.state = "TPU_LOWERED", module.top_run_mode = "STATIC", module.weight_file = "yolo11s_tpu_lowered_cv181x_bf16_weight.npz"} {
  func.func @main(%arg0: tensor<1x3x224x320xf32> loc(unknown)) -> (tensor<1x1x4x1470xf32>, tensor<1x4x1470xf32>) {
    %0 = "top.None"() : () -> none loc(#loc)
    %1 = "top.Input"(%arg0) {channel_format = "nchw", do_preprocess = true, keep_aspect_ratio = true, keep_ratio_mode = "letterbox", mean = [0.000000e+00, 0.000000e+00, 0.000000e+00], pad_type = "center", pad_value = 0 : i64, pixel_format = "rgb", resize_dims = [224, 320], scale = [0.0039215688593685627, 0.0039215688593685627, 0.0039215688593685627]} : (tensor<1x3x224x320xf32>) -> tensor<1x3x224x320xf32> loc(#loc1)
    %2 = "tpu.Cast"(%1) {round_mode = #tpu<round_mode HalfAwayFromZero>, with_scale = true} : (tensor<1x3x224x320xf32>) -> tensor<1x3x224x320xbf16> loc(#loc2)
    %3 = "top.Weight"() : () -> tensor<32xf32> loc(#loc3)
    %4 = "top.Weight"() : () -> tensor<32x3x3x3xbf16> loc(#loc4)
    %5 = "tpu.Conv2D"(%2, %4, %3) {coeff_merged = false, dilations = [1, 1], do_relu = false, dynweight_reorderd = false, group = 1 : i64, kernel_shape = [3, 3], kernel_zp = 0 : i64, pads = [1, 1, 1, 1], quant_mode = #tpu<rq_mode MultiplierShift>, relu_limit = -1.000000e+00 : f64, round_mode = #tpu<round_mode HalfUp>, strides = [2, 2], support_compress = true, use_3ic_optimize = 0 : i64, weight_is_coeff = 1 : i64, with_bias = true} : (tensor<1x3x224x320xbf16>, tensor<32x3x3x3xbf16>, tensor<32xf32>) -> tensor<1x32x112x160xbf16> loc(#loc5)
    %6 = "top.Weight"() : () -> tensor<1x1x32x8xbf16> loc(#loc6)
    %7 = "top.Weight"() : () -> tensor<1x1x32x8xbf16> loc(#loc7)
    %8 = "tpu.LutBF16"(%5, %6, %7) {lut_mode = #tpu<lut_mode Slope>, max_range = 1.200000e+01 : f64, min_range = -1.200000e+01 : f64} : (tensor<1x32x112x160xbf16>, tensor<1x1x32x8xbf16>, tensor<1x1x32x8xbf16>) -> tensor<1x32x112x160xbf16> loc(#loc8)
    %9 = "top.Weight"() : () -> tensor<64xf32> loc(#loc9)
    %10 = "top.Weight"() : () -> tensor<64x32x3x3xbf16> loc(#loc10)
    %11 = "tpu.Conv2D"(%8, %10, %9) {coeff_merged = false, dilations = [1, 1], do_relu = false, dynweight_reorderd = false, group = 1 : i64, kernel_shape = [3, 3], kernel_zp = 0 : i64, pads = [1, 1, 1, 1], quant_mode = #tpu<rq_mode MultiplierShift>, relu_limit = -1.000000e+00 : f64, round_mode = #tpu<round_mode HalfUp>, strides = [2, 2], support_compress = true, use_3ic_optimize = 0 : i64, weight_is_coeff = 1 : i64, with_bias = true} : (tensor<1x32x112x160xbf16>, tensor<64x32x3x3xbf16>, tensor<64xf32>) -> tensor<1x64x56x80xbf16> loc(#loc11)
    %12 = "top.Weight"() : () -> tensor<1x1x32x8xbf16> loc(#loc12)
    %13 = "top.Weight"() : () -> tensor<1x1x32x8xbf16> loc(#loc13)
    %14 = "tpu.LutBF16"(%11, %12, %13) {lut_mode = #tpu<lut_mode Slope>, max_range = 1.200000e+01 : f64, min_range = -1.200000e+01 : f64} : (tensor<1x64x56x80xbf16>, tensor<1x1x32x8xbf16>, tensor<1x1x32x8xbf16>) -> tensor<1x64x56x80xbf16> loc(#loc14)
    %15 = "top.Weight"() : () -> tensor<64xf32> loc(#loc15)
    %16 = "top.Weight"() : () -> tensor<64x64x1x1xbf16> loc(#loc16)
    %17 = "tpu.Conv2D"(%14, %16, %15) {coeff_merged = false, dilations = [1, 1], do_relu = false, dynweight_reorderd = false, group = 1 : i64, kernel_shape = [1, 1], kernel_zp = 0 : i64, pads = [0, 0, 0, 0], quant_mode = #tpu<rq_mode MultiplierShift>, relu_limit = -1.000000e+00 : f64, round_mode = #tpu<round_mode HalfUp>, strides = [1, 1], support_compress = true, use_3ic_optimize = 0 : i64, weight_is_coeff = 1 : i64, with_bias = true} : (tensor<1x64x56x80xbf16>, tensor<64x64x1x1xbf16>, tensor<64xf32>) -> tensor<1x64x56x80xbf16> loc(#loc17)
    %18 = "top.Weight"() : () -> tensor<1x1x32x8xbf16> loc(#loc18)
    %19 = "top.Weight"() : () -> tensor<1x1x32x8xbf16> loc(#loc19)
    %20 = "tpu.LutBF16"(%17, %18, %19) {lut_mode = #tpu<lut_mode Slope>, max_range = 1.200000e+01 : f64, min_range = -1.200000e+01 : f64} : (tensor<1x64x56x80xbf16>, tensor<1x1x32x8xbf16>, tensor<1x1x32x8xbf16>) -> tensor<1x64x56x80xbf16> loc(#loc20)
    %21 = "tpu.Slice"(%20, %0, %0, %0, %0) {axes = [], ends = [9223372036854775807, 32, 9223372036854775807, 9223372036854775807], hasparamConvert_axes = [1], offset = [0, 0, 0, 0], steps = [1, 1, 1, 1]} : (tensor<1x64x56x80xbf16>, none, none, none, none) -> tensor<1x32x56x80xbf16> loc(#loc21)
    %22 = "tpu.Slice"(%20, %0, %0, %0, %0) {axes = [], ends = [9223372036854775807, 64, 9223372036854775807, 9223372036854775807], hasparamConvert_axes = [1], offset = [0, 32, 0, 0], steps = [1, 1, 1, 1]} : (tensor<1x64x56x80xbf16>, none, none, none, none) -> tensor<1x32x56x80xbf16> loc(#loc22)
    %23 = "top.Weight"() : () -> tensor<16xf32> loc(#loc23)
    %24 = "top.Weight"() : () -> tensor<16x32x3x3xbf16> loc(#loc24)
    %25 = "tpu.Conv2D"(%22, %24, %23) {coeff_merged = false, dilations = [1, 1], do_relu = false, dynweight_reorderd = false, group = 1 : i64, kernel_shape = [3, 3], kernel_zp = 0 : i64, pads = [1, 1, 1, 1], quant_mode = #tpu<rq_mode MultiplierShift>, relu_limit = -1.000000e+00 : f64, round_mode = #tpu<round_mode HalfUp>, strides = [1, 1], support_compress = true, use_3ic_optimize = 0 : i64, weight_is_coeff = 1 : i64, with_bias = true} : (tensor<1x32x56x80xbf16>, tensor<16x32x3x3xbf16>, tensor<16xf32>) -> tensor<1x16x56x80xbf16> loc(#loc25)
    %26 = "top.Weight"() : () -> tensor<1x1x32x8xbf16> loc(#loc26)
    %27 = "top.Weight"() : () -> tensor<1x1x32x8xbf16> loc(#loc27)
    %28 = "tpu.LutBF16"(%25, %26, %27) {lut_mode = #tpu<lut_mode Slope>, max_range = 1.200000e+01 : f64, min_range = -1.200000e+01 : f64} : (tensor<1x16x56x80xbf16>, tensor<1x1x32x8xbf16>, tensor<1x1x32x8xbf16>) -> tensor<1x16x56x80xbf16> loc(#loc28)
    %29 = "top.Weight"() : () -> tensor<32xf32> loc(#loc29)
    %30 = "top.Weight"() : () -> tensor<32x16x3x3xbf16> loc(#loc30)
    %31 = "tpu.Conv2D"(%28, %30, %29) {coeff_merged = false, dilations = [1, 1], do_relu = false, dynweight_reorderd = false, group = 1 : i64, kernel_shape = [3, 3], kernel_zp = 0 : i64, pads = [1, 1, 1, 1], quant_mode = #tpu<rq_mode MultiplierShift>, relu_limit = -1.000000e+00 : f64, round_mode = #tpu<round_mode HalfUp>, strides = [1, 1], support_compress = true, use_3ic_optimize = 0 : i64, weight_is_coeff = 1 : i64, with_bias = true} : (tensor<1x16x56x80xbf16>, tensor<32x16x3x3xbf16>, tensor<32xf32>) -> tensor<1x32x56x80xbf16> loc(#loc31)
    %32 = "top.Weight"() : () -> tensor<1x1x32x8xbf16> loc(#loc32)
    %33 = "top.Weight"() : () -> tensor<1x1x32x8xbf16> loc(#loc33)
    %34 = "tpu.LutBF16"(%31, %32, %33) {lut_mode = #tpu<lut_mode Slope>, max_range = 1.200000e+01 : f64, min_range = -1.200000e+01 : f64} : (tensor<1x32x56x80xbf16>, tensor<1x1x32x8xbf16>, tensor<1x1x32x8xbf16>) -> tensor<1x32x56x80xbf16> loc(#loc34)
    %35 = "tpu.Add"(%22, %34) {do_relu = false, is_scalar = false, relu_limit = -1.000000e+00 : f64} : (tensor<1x32x56x80xbf16>, tensor<1x32x56x80xbf16>) -> tensor<1x32x56x80xbf16> loc(#loc35)
    %36 = "tpu.Concat"(%21, %22, %35) {axis = 1 : si32, do_relu = false, only_merge = false, relu_limit = -1.000000e+00 : f64} : (tensor<1x32x56x80xbf16>, tensor<1x32x56x80xbf16>, tensor<1x32x56x80xbf16>) -> tensor<1x96x56x80xbf16> loc(#loc36)
    %37 = "top.Weight"() : () -> tensor<128xf32> loc(#loc37)
    %38 = "top.Weight"() : () -> tensor<128x96x1x1xbf16> loc(#loc38)
    %39 = "tpu.Conv2D"(%36, %38, %37) {coeff_merged = false, dilations = [1, 1], do_relu = false, dynweight_reorderd = false, group = 1 : i64, kernel_shape = [1, 1], kernel_zp = 0 : i64, pads = [0, 0, 0, 0], quant_mode = #tpu<rq_mode MultiplierShift>, relu_limit = -1.000000e+00 : f64, round_mode = #tpu<round_mode HalfUp>, strides = [1, 1], support_compress = true, use_3ic_optimize = 0 : i64, weight_is_coeff = 1 : i64, with_bias = true} : (tensor<1x96x56x80xbf16>, tensor<128x96x1x1xbf16>, tensor<128xf32>) -> tensor<1x128x56x80xbf16> loc(#loc39)
    %40 = "top.Weight"() : () -> tensor<1x1x32x8xbf16> loc(#loc40)
    %41 = "top.Weight"() : () -> tensor<1x1x32x8xbf16> loc(#loc41)
    %42 = "tpu.LutBF16"(%39, %40, %41) {lut_mode = #tpu<lut_mode Slope>, max_range = 1.200000e+01 : f64, min_range = -1.200000e+01 : f64} : (tensor<1x128x56x80xbf16>, tensor<1x1x32x8xbf16>, tensor<1x1x32x8xbf16>) -> tensor<1x128x56x80xbf16> loc(#loc42)
    %43 = "top.Weight"() : () -> tensor<128xf32> loc(#loc43)
    %44 = "top.Weight"() : () -> tensor<128x128x3x3xbf16> loc(#loc44)
    %45 = "tpu.Conv2D"(%42, %44, %43) {coeff_merged = false, dilations = [1, 1], do_relu = false, dynweight_reorderd = false, group = 1 : i64, kernel_shape = [3, 3], kernel_zp = 0 : i64, pads = [1, 1, 1, 1], quant_mode = #tpu<rq_mode MultiplierShift>, relu_limit = -1.000000e+00 : f64, round_mode = #tpu<round_mode HalfUp>, strides = [2, 2], support_compress = true, use_3ic_optimize = 0 : i64, weight_is_coeff = 1 : i64, with_bias = true} : (tensor<1x128x56x80xbf16>, tensor<128x128x3x3xbf16>, tensor<128xf32>) -> tensor<1x128x28x40xbf16> loc(#loc45)
    %46 = "top.Weight"() : () -> tensor<1x1x32x8xbf16> loc(#loc46)
    %47 = "top.Weight"() : () -> tensor<1x1x32x8xbf16> loc(#loc47)
    %48 = "tpu.LutBF16"(%45, %46, %47) {lut_mode = #tpu<lut_mode Slope>, max_range = 1.200000e+01 : f64, min_range = -1.200000e+01 : f64} : (tensor<1x128x28x40xbf16>, tensor<1x1x32x8xbf16>, tensor<1x1x32x8xbf16>) -> tensor<1x128x28x40xbf16> loc(#loc48)
    %49 = "top.Weight"() : () -> tensor<128xf32> loc(#loc49)
    %50 = "top.Weight"() : () -> tensor<128x128x1x1xbf16> loc(#loc50)
    %51 = "tpu.Conv2D"(%48, %50, %49) {coeff_merged = false, dilations = [1, 1], do_relu = false, dynweight_reorderd = false, group = 1 : i64, kernel_shape = [1, 1], kernel_zp = 0 : i64, pads = [0, 0, 0, 0], quant_mode = #tpu<rq_mode MultiplierShift>, relu_limit = -1.000000e+00 : f64, round_mode = #tpu<round_mode HalfUp>, strides = [1, 1], support_compress = true, use_3ic_optimize = 0 : i64, weight_is_coeff = 1 : i64, with_bias = true} : (tensor<1x128x28x40xbf16>, tensor<128x128x1x1xbf16>, tensor<128xf32>) -> tensor<1x128x28x40xbf16> loc(#loc51)
    %52 = "top.Weight"() : () -> tensor<1x1x32x8xbf16> loc(#loc52)
    %53 = "top.Weight"() : () -> tensor<1x1x32x8xbf16> loc(#loc53)
    %54 = "tpu.LutBF16"(%51, %52, %53) {lut_mode = #tpu<lut_mode Slope>, max_range = 1.200000e+01 : f64, min_range = -1.200000e+01 : f64} : (tensor<1x128x28x40xbf16>, tensor<1x1x32x8xbf16>, tensor<1x1x32x8xbf16>) -> tensor<1x128x28x40xbf16> loc(#loc54)
    %55 = "tpu.Slice"(%54, %0, %0, %0, %0) {axes = [], ends = [9223372036854775807, 64, 9223372036854775807, 9223372036854775807], hasparamConvert_axes = [1], offset = [0, 0, 0, 0], steps = [1, 1, 1, 1]} : (tensor<1x128x28x40xbf16>, none, none, none, none) -> tensor<1x64x28x40xbf16> loc(#loc55)
    %56 = "tpu.Slice"(%54, %0, %0, %0, %0) {axes = [], ends = [9223372036854775807, 128, 9223372036854775807, 9223372036854775807], hasparamConvert_axes = [1], offset = [0, 64, 0, 0], steps = [1, 1, 1, 1]} : (tensor<1x128x28x40xbf16>, none, none, none, none) -> tensor<1x64x28x40xbf16> loc(#loc56)
    %57 = "top.Weight"() : () -> tensor<32xf32> loc(#loc57)
    %58 = "top.Weight"() : () -> tensor<32x64x3x3xbf16> loc(#loc58)
    %59 = "tpu.Conv2D"(%56, %58, %57) {coeff_merged = false, dilations = [1, 1], do_relu = false, dynweight_reorderd = false, group = 1 : i64, kernel_shape = [3, 3], kernel_zp = 0 : i64, pads = [1, 1, 1, 1], quant_mode = #tpu<rq_mode MultiplierShift>, relu_limit = -1.000000e+00 : f64, round_mode = #tpu<round_mode HalfUp>, strides = [1, 1], support_compress = true, use_3ic_optimize = 0 : i64, weight_is_coeff = 1 : i64, with_bias = true} : (tensor<1x64x28x40xbf16>, tensor<32x64x3x3xbf16>, tensor<32xf32>) -> tensor<1x32x28x40xbf16> loc(#loc59)
    %60 = "top.Weight"() : () -> tensor<1x1x32x8xbf16> loc(#loc60)
    %61 = "top.Weight"() : () -> tensor<1x1x32x8xbf16> loc(#loc61)
    %62 = "tpu.LutBF16"(%59, %60, %61) {lut_mode = #tpu<lut_mode Slope>, max_range = 1.200000e+01 : f64, min_range = -1.200000e+01 : f64} : (tensor<1x32x28x40xbf16>, tensor<1x1x32x8xbf16>, tensor<1x1x32x8xbf16>) -> tensor<1x32x28x40xbf16> loc(#loc62)
    %63 = "top.Weight"() : () -> tensor<64xf32> loc(#loc63)
    %64 = "top.Weight"() : () -> tensor<64x32x3x3xbf16> loc(#loc64)
    %65 = "tpu.Conv2D"(%62, %64, %63) {coeff_merged = false, dilations = [1, 1], do_relu = false, dynweight_reorderd = false, group = 1 : i64, kernel_shape = [3, 3], kernel_zp = 0 : i64, pads = [1, 1, 1, 1], quant_mode = #tpu<rq_mode MultiplierShift>, relu_limit = -1.000000e+00 : f64, round_mode = #tpu<round_mode HalfUp>, strides = [1, 1], support_compress = true, use_3ic_optimize = 0 : i64, weight_is_coeff = 1 : i64, with_bias = true} : (tensor<1x32x28x40xbf16>, tensor<64x32x3x3xbf16>, tensor<64xf32>) -> tensor<1x64x28x40xbf16> loc(#loc65)
    %66 = "top.Weight"() : () -> tensor<1x1x32x8xbf16> loc(#loc66)
    %67 = "top.Weight"() : () -> tensor<1x1x32x8xbf16> loc(#loc67)
    %68 = "tpu.LutBF16"(%65, %66, %67) {lut_mode = #tpu<lut_mode Slope>, max_range = 1.200000e+01 : f64, min_range = -1.200000e+01 : f64} : (tensor<1x64x28x40xbf16>, tensor<1x1x32x8xbf16>, tensor<1x1x32x8xbf16>) -> tensor<1x64x28x40xbf16> loc(#loc68)
    %69 = "tpu.Add"(%56, %68) {do_relu = false, is_scalar = false, relu_limit = -1.000000e+00 : f64} : (tensor<1x64x28x40xbf16>, tensor<1x64x28x40xbf16>) -> tensor<1x64x28x40xbf16> loc(#loc69)
    %70 = "tpu.Concat"(%55, %56, %69) {axis = 1 : si32, do_relu = false, only_merge = false, relu_limit = -1.000000e+00 : f64} : (tensor<1x64x28x40xbf16>, tensor<1x64x28x40xbf16>, tensor<1x64x28x40xbf16>) -> tensor<1x192x28x40xbf16> loc(#loc70)
    %71 = "top.Weight"() : () -> tensor<256xf32> loc(#loc71)
    %72 = "top.Weight"() : () -> tensor<256x192x1x1xbf16> loc(#loc72)
    %73 = "tpu.Conv2D"(%70, %72, %71) {coeff_merged = false, dilations = [1, 1], do_relu = false, dynweight_reorderd = false, group = 1 : i64, kernel_shape = [1, 1], kernel_zp = 0 : i64, pads = [0, 0, 0, 0], quant_mode = #tpu<rq_mode MultiplierShift>, relu_limit = -1.000000e+00 : f64, round_mode = #tpu<round_mode HalfUp>, strides = [1, 1], support_compress = true, use_3ic_optimize = 0 : i64, weight_is_coeff = 1 : i64, with_bias = true} : (tensor<1x192x28x40xbf16>, tensor<256x192x1x1xbf16>, tensor<256xf32>) -> tensor<1x256x28x40xbf16> loc(#loc73)
    %74 = "top.Weight"() : () -> tensor<1x1x32x8xbf16> loc(#loc74)
    %75 = "top.Weight"() : () -> tensor<1x1x32x8xbf16> loc(#loc75)
    %76 = "tpu.LutBF16"(%73, %74, %75) {lut_mode = #tpu<lut_mode Slope>, max_range = 1.200000e+01 : f64, min_range = -1.200000e+01 : f64} : (tensor<1x256x28x40xbf16>, tensor<1x1x32x8xbf16>, tensor<1x1x32x8xbf16>) -> tensor<1x256x28x40xbf16> loc(#loc76)
    %77 = "top.Weight"() : () -> tensor<256xf32> loc(#loc77)
    %78 = "top.Weight"() : () -> tensor<256x256x3x3xbf16> loc(#loc78)
    %79 = "tpu.Conv2D"(%76, %78, %77) {coeff_merged = false, dilations = [1, 1], do_relu = false, dynweight_reorderd = false, group = 1 : i64, kernel_shape = [3, 3], kernel_zp = 0 : i64, pads = [1, 1, 1, 1], quant_mode = #tpu<rq_mode MultiplierShift>, relu_limit = -1.000000e+00 : f64, round_mode = #tpu<round_mode HalfUp>, strides = [2, 2], support_compress = true, use_3ic_optimize = 0 : i64, weight_is_coeff = 1 : i64, with_bias = true} : (tensor<1x256x28x40xbf16>, tensor<256x256x3x3xbf16>, tensor<256xf32>) -> tensor<1x256x14x20xbf16> loc(#loc79)
    %80 = "top.Weight"() : () -> tensor<1x1x32x8xbf16> loc(#loc80)
    %81 = "top.Weight"() : () -> tensor<1x1x32x8xbf16> loc(#loc81)
    %82 = "tpu.LutBF16"(%79, %80, %81) {lut_mode = #tpu<lut_mode Slope>, max_range = 1.200000e+01 : f64, min_range = -1.200000e+01 : f64} : (tensor<1x256x14x20xbf16>, tensor<1x1x32x8xbf16>, tensor<1x1x32x8xbf16>) -> tensor<1x256x14x20xbf16> loc(#loc82)
    %83 = "top.Weight"() : () -> tensor<256xf32> loc(#loc83)
    %84 = "top.Weight"() : () -> tensor<256x256x1x1xbf16> loc(#loc84)
    %85 = "tpu.Conv2D"(%82, %84, %83) {coeff_merged = false, dilations = [1, 1], do_relu = false, dynweight_reorderd = false, group = 1 : i64, kernel_shape = [1, 1], kernel_zp = 0 : i64, pads = [0, 0, 0, 0], quant_mode = #tpu<rq_mode MultiplierShift>, relu_limit = -1.000000e+00 : f64, round_mode = #tpu<round_mode HalfUp>, strides = [1, 1], support_compress = true, use_3ic_optimize = 0 : i64, weight_is_coeff = 1 : i64, with_bias = true} : (tensor<1x256x14x20xbf16>, tensor<256x256x1x1xbf16>, tensor<256xf32>) -> tensor<1x256x14x20xbf16> loc(#loc85)
    %86 = "top.Weight"() : () -> tensor<1x1x32x8xbf16> loc(#loc86)
    %87 = "top.Weight"() : () -> tensor<1x1x32x8xbf16> loc(#loc87)
    %88 = "tpu.LutBF16"(%85, %86, %87) {lut_mode = #tpu<lut_mode Slope>, max_range = 1.200000e+01 : f64, min_range = -1.200000e+01 : f64} : (tensor<1x256x14x20xbf16>, tensor<1x1x32x8xbf16>, tensor<1x1x32x8xbf16>) -> tensor<1x256x14x20xbf16> loc(#loc88)
    %89 = "tpu.Slice"(%88, %0, %0, %0, %0) {axes = [], ends = [9223372036854775807, 128, 9223372036854775807, 9223372036854775807], hasparamConvert_axes = [1], offset = [0, 0, 0, 0], steps = [1, 1, 1, 1]} : (tensor<1x256x14x20xbf16>, none, none, none, none) -> tensor<1x128x14x20xbf16> loc(#loc89)
    %90 = "tpu.Slice"(%88, %0, %0, %0, %0) {axes = [], ends = [9223372036854775807, 256, 9223372036854775807, 9223372036854775807], hasparamConvert_axes = [1], offset = [0, 128, 0, 0], steps = [1, 1, 1, 1]} : (tensor<1x256x14x20xbf16>, none, none, none, none) -> tensor<1x128x14x20xbf16> loc(#loc90)
    %91 = "top.Weight"() : () -> tensor<64xf32> loc(#loc91)
    %92 = "top.Weight"() : () -> tensor<64x128x1x1xbf16> loc(#loc92)
    %93 = "tpu.Conv2D"(%90, %92, %91) {coeff_merged = false, dilations = [1, 1], do_relu = false, dynweight_reorderd = false, group = 1 : i64, kernel_shape = [1, 1], kernel_zp = 0 : i64, pads = [0, 0, 0, 0], quant_mode = #tpu<rq_mode MultiplierShift>, relu_limit = -1.000000e+00 : f64, round_mode = #tpu<round_mode HalfUp>, strides = [1, 1], support_compress = true, use_3ic_optimize = 0 : i64, weight_is_coeff = 1 : i64, with_bias = true} : (tensor<1x128x14x20xbf16>, tensor<64x128x1x1xbf16>, tensor<64xf32>) -> tensor<1x64x14x20xbf16> loc(#loc93)
    %94 = "top.Weight"() : () -> tensor<64xf32> loc(#loc94)
    %95 = "top.Weight"() : () -> tensor<64x128x1x1xbf16> loc(#loc95)
    %96 = "tpu.Conv2D"(%90, %95, %94) {coeff_merged = false, dilations = [1, 1], do_relu = false, dynweight_reorderd = false, group = 1 : i64, kernel_shape = [1, 1], kernel_zp = 0 : i64, pads = [0, 0, 0, 0], quant_mode = #tpu<rq_mode MultiplierShift>, relu_limit = -1.000000e+00 : f64, round_mode = #tpu<round_mode HalfUp>, strides = [1, 1], support_compress = true, use_3ic_optimize = 0 : i64, weight_is_coeff = 1 : i64, with_bias = true} : (tensor<1x128x14x20xbf16>, tensor<64x128x1x1xbf16>, tensor<64xf32>) -> tensor<1x64x14x20xbf16> loc(#loc96)
    %97 = "top.Weight"() : () -> tensor<1x1x32x8xbf16> loc(#loc97)
    %98 = "top.Weight"() : () -> tensor<1x1x32x8xbf16> loc(#loc98)
    %99 = "tpu.LutBF16"(%93, %97, %98) {lut_mode = #tpu<lut_mode Slope>, max_range = 1.200000e+01 : f64, min_range = -1.200000e+01 : f64} : (tensor<1x64x14x20xbf16>, tensor<1x1x32x8xbf16>, tensor<1x1x32x8xbf16>) -> tensor<1x64x14x20xbf16> loc(#loc99)
    %100 = "top.Weight"() : () -> tensor<1x1x32x8xbf16> loc(#loc100)
    %101 = "top.Weight"() : () -> tensor<1x1x32x8xbf16> loc(#loc101)
    %102 = "tpu.LutBF16"(%96, %100, %101) {lut_mode = #tpu<lut_mode Slope>, max_range = 1.200000e+01 : f64, min_range = -1.200000e+01 : f64} : (tensor<1x64x14x20xbf16>, tensor<1x1x32x8xbf16>, tensor<1x1x32x8xbf16>) -> tensor<1x64x14x20xbf16> loc(#loc102)
    %103 = "top.Weight"() : () -> tensor<64xf32> loc(#loc103)
    %104 = "top.Weight"() : () -> tensor<64x64x3x3xbf16> loc(#loc104)
    %105 = "tpu.Conv2D"(%99, %104, %103) {coeff_merged = false, dilations = [1, 1], do_relu = false, dynweight_reorderd = false, group = 1 : i64, kernel_shape = [3, 3], kernel_zp = 0 : i64, pads = [1, 1, 1, 1], quant_mode = #tpu<rq_mode MultiplierShift>, relu_limit = -1.000000e+00 : f64, round_mode = #tpu<round_mode HalfUp>, strides = [1, 1], support_compress = true, use_3ic_optimize = 0 : i64, weight_is_coeff = 1 : i64, with_bias = true} : (tensor<1x64x14x20xbf16>, tensor<64x64x3x3xbf16>, tensor<64xf32>) -> tensor<1x64x14x20xbf16> loc(#loc105)
    %106 = "top.Weight"() : () -> tensor<1x1x32x8xbf16> loc(#loc106)
    %107 = "top.Weight"() : () -> tensor<1x1x32x8xbf16> loc(#loc107)
    %108 = "tpu.LutBF16"(%105, %106, %107) {lut_mode = #tpu<lut_mode Slope>, max_range = 1.200000e+01 : f64, min_range = -1.200000e+01 : f64} : (tensor<1x64x14x20xbf16>, tensor<1x1x32x8xbf16>, tensor<1x1x32x8xbf16>) -> tensor<1x64x14x20xbf16> loc(#loc108)
    %109 = "top.Weight"() : () -> tensor<64xf32> loc(#loc109)
    %110 = "top.Weight"() : () -> tensor<64x64x3x3xbf16> loc(#loc110)
    %111 = "tpu.Conv2D"(%108, %110, %109) {coeff_merged = false, dilations = [1, 1], do_relu = false, dynweight_reorderd = false, group = 1 : i64, kernel_shape = [3, 3], kernel_zp = 0 : i64, pads = [1, 1, 1, 1], quant_mode = #tpu<rq_mode MultiplierShift>, relu_limit = -1.000000e+00 : f64, round_mode = #tpu<round_mode HalfUp>, strides = [1, 1], support_compress = true, use_3ic_optimize = 0 : i64, weight_is_coeff = 1 : i64, with_bias = true} : (tensor<1x64x14x20xbf16>, tensor<64x64x3x3xbf16>, tensor<64xf32>) -> tensor<1x64x14x20xbf16> loc(#loc111)
    %112 = "top.Weight"() : () -> tensor<1x1x32x8xbf16> loc(#loc112)
    %113 = "top.Weight"() : () -> tensor<1x1x32x8xbf16> loc(#loc113)
    %114 = "tpu.LutBF16"(%111, %112, %113) {lut_mode = #tpu<lut_mode Slope>, max_range = 1.200000e+01 : f64, min_range = -1.200000e+01 : f64} : (tensor<1x64x14x20xbf16>, tensor<1x1x32x8xbf16>, tensor<1x1x32x8xbf16>) -> tensor<1x64x14x20xbf16> loc(#loc114)
    %115 = "tpu.Add"(%99, %114) {do_relu = false, is_scalar = false, relu_limit = -1.000000e+00 : f64} : (tensor<1x64x14x20xbf16>, tensor<1x64x14x20xbf16>) -> tensor<1x64x14x20xbf16> loc(#loc115)
    %116 = "top.Weight"() : () -> tensor<64xf32> loc(#loc116)
    %117 = "top.Weight"() : () -> tensor<64x64x3x3xbf16> loc(#loc117)
    %118 = "tpu.Conv2D"(%115, %117, %116) {coeff_merged = false, dilations = [1, 1], do_relu = false, dynweight_reorderd = false, group = 1 : i64, kernel_shape = [3, 3], kernel_zp = 0 : i64, pads = [1, 1, 1, 1], quant_mode = #tpu<rq_mode MultiplierShift>, relu_limit = -1.000000e+00 : f64, round_mode = #tpu<round_mode HalfUp>, strides = [1, 1], support_compress = true, use_3ic_optimize = 0 : i64, weight_is_coeff = 1 : i64, with_bias = true} : (tensor<1x64x14x20xbf16>, tensor<64x64x3x3xbf16>, tensor<64xf32>) -> tensor<1x64x14x20xbf16> loc(#loc118)
    %119 = "top.Weight"() : () -> tensor<1x1x32x8xbf16> loc(#loc119)
    %120 = "top.Weight"() : () -> tensor<1x1x32x8xbf16> loc(#loc120)
    %121 = "tpu.LutBF16"(%118, %119, %120) {lut_mode = #tpu<lut_mode Slope>, max_range = 1.200000e+01 : f64, min_range = -1.200000e+01 : f64} : (tensor<1x64x14x20xbf16>, tensor<1x1x32x8xbf16>, tensor<1x1x32x8xbf16>) -> tensor<1x64x14x20xbf16> loc(#loc121)
    %122 = "top.Weight"() : () -> tensor<64xf32> loc(#loc122)
    %123 = "top.Weight"() : () -> tensor<64x64x3x3xbf16> loc(#loc123)
    %124 = "tpu.Conv2D"(%121, %123, %122) {coeff_merged = false, dilations = [1, 1], do_relu = false, dynweight_reorderd = false, group = 1 : i64, kernel_shape = [3, 3], kernel_zp = 0 : i64, pads = [1, 1, 1, 1], quant_mode = #tpu<rq_mode MultiplierShift>, relu_limit = -1.000000e+00 : f64, round_mode = #tpu<round_mode HalfUp>, strides = [1, 1], support_compress = true, use_3ic_optimize = 0 : i64, weight_is_coeff = 1 : i64, with_bias = true} : (tensor<1x64x14x20xbf16>, tensor<64x64x3x3xbf16>, tensor<64xf32>) -> tensor<1x64x14x20xbf16> loc(#loc124)
    %125 = "top.Weight"() : () -> tensor<1x1x32x8xbf16> loc(#loc125)
    %126 = "top.Weight"() : () -> tensor<1x1x32x8xbf16> loc(#loc126)
    %127 = "tpu.LutBF16"(%124, %125, %126) {lut_mode = #tpu<lut_mode Slope>, max_range = 1.200000e+01 : f64, min_range = -1.200000e+01 : f64} : (tensor<1x64x14x20xbf16>, tensor<1x1x32x8xbf16>, tensor<1x1x32x8xbf16>) -> tensor<1x64x14x20xbf16> loc(#loc127)
    %128 = "tpu.Add"(%115, %127) {do_relu = false, is_scalar = false, relu_limit = -1.000000e+00 : f64} : (tensor<1x64x14x20xbf16>, tensor<1x64x14x20xbf16>) -> tensor<1x64x14x20xbf16> loc(#loc128)
    %129 = "tpu.Concat"(%128, %102) {axis = 1 : si32, do_relu = false, only_merge = true, relu_limit = -1.000000e+00 : f64} : (tensor<1x64x14x20xbf16>, tensor<1x64x14x20xbf16>) -> tensor<1x128x14x20xbf16> loc(#loc129)
    %130 = "top.Weight"() : () -> tensor<128xf32> loc(#loc130)
    %131 = "top.Weight"() : () -> tensor<128x128x1x1xbf16> loc(#loc131)
    %132 = "tpu.Conv2D"(%129, %131, %130) {coeff_merged = false, dilations = [1, 1], do_relu = false, dynweight_reorderd = false, group = 1 : i64, kernel_shape = [1, 1], kernel_zp = 0 : i64, pads = [0, 0, 0, 0], quant_mode = #tpu<rq_mode MultiplierShift>, relu_limit = -1.000000e+00 : f64, round_mode = #tpu<round_mode HalfUp>, strides = [1, 1], support_compress = true, use_3ic_optimize = 0 : i64, weight_is_coeff = 1 : i64, with_bias = true} : (tensor<1x128x14x20xbf16>, tensor<128x128x1x1xbf16>, tensor<128xf32>) -> tensor<1x128x14x20xbf16> loc(#loc132)
    %133 = "top.Weight"() : () -> tensor<1x1x32x8xbf16> loc(#loc133)
    %134 = "top.Weight"() : () -> tensor<1x1x32x8xbf16> loc(#loc134)
    %135 = "tpu.LutBF16"(%132, %133, %134) {lut_mode = #tpu<lut_mode Slope>, max_range = 1.200000e+01 : f64, min_range = -1.200000e+01 : f64} : (tensor<1x128x14x20xbf16>, tensor<1x1x32x8xbf16>, tensor<1x1x32x8xbf16>) -> tensor<1x128x14x20xbf16> loc(#loc135)
    %136 = "tpu.Concat"(%89, %90, %135) {axis = 1 : si32, do_relu = false, only_merge = false, relu_limit = -1.000000e+00 : f64} : (tensor<1x128x14x20xbf16>, tensor<1x128x14x20xbf16>, tensor<1x128x14x20xbf16>) -> tensor<1x384x14x20xbf16> loc(#loc136)
    %137 = "top.Weight"() : () -> tensor<256xf32> loc(#loc137)
    %138 = "top.Weight"() : () -> tensor<256x384x1x1xbf16> loc(#loc138)
    %139 = "tpu.Conv2D"(%136, %138, %137) {coeff_merged = false, dilations = [1, 1], do_relu = false, dynweight_reorderd = false, group = 1 : i64, kernel_shape = [1, 1], kernel_zp = 0 : i64, pads = [0, 0, 0, 0], quant_mode = #tpu<rq_mode MultiplierShift>, relu_limit = -1.000000e+00 : f64, round_mode = #tpu<round_mode HalfUp>, strides = [1, 1], support_compress = true, use_3ic_optimize = 0 : i64, weight_is_coeff = 1 : i64, with_bias = true} : (tensor<1x384x14x20xbf16>, tensor<256x384x1x1xbf16>, tensor<256xf32>) -> tensor<1x256x14x20xbf16> loc(#loc139)
    %140 = "top.Weight"() : () -> tensor<1x1x32x8xbf16> loc(#loc140)
    %141 = "top.Weight"() : () -> tensor<1x1x32x8xbf16> loc(#loc141)
    %142 = "tpu.LutBF16"(%139, %140, %141) {lut_mode = #tpu<lut_mode Slope>, max_range = 1.200000e+01 : f64, min_range = -1.200000e+01 : f64} : (tensor<1x256x14x20xbf16>, tensor<1x1x32x8xbf16>, tensor<1x1x32x8xbf16>) -> tensor<1x256x14x20xbf16> loc(#loc142)
    %143 = "top.Weight"() : () -> tensor<512xf32> loc(#loc143)
    %144 = "top.Weight"() : () -> tensor<512x256x3x3xbf16> loc(#loc144)
    %145 = "tpu.Conv2D"(%142, %144, %143) {coeff_merged = false, dilations = [1, 1], do_relu = false, dynweight_reorderd = false, group = 1 : i64, kernel_shape = [3, 3], kernel_zp = 0 : i64, pads = [1, 1, 1, 1], quant_mode = #tpu<rq_mode MultiplierShift>, relu_limit = -1.000000e+00 : f64, round_mode = #tpu<round_mode HalfUp>, strides = [2, 2], support_compress = true, use_3ic_optimize = 0 : i64, weight_is_coeff = 1 : i64, with_bias = true} : (tensor<1x256x14x20xbf16>, tensor<512x256x3x3xbf16>, tensor<512xf32>) -> tensor<1x512x7x10xbf16> loc(#loc145)
    %146 = "top.Weight"() : () -> tensor<1x1x32x8xbf16> loc(#loc146)
    %147 = "top.Weight"() : () -> tensor<1x1x32x8xbf16> loc(#loc147)
    %148 = "tpu.LutBF16"(%145, %146, %147) {lut_mode = #tpu<lut_mode Slope>, max_range = 1.200000e+01 : f64, min_range = -1.200000e+01 : f64} : (tensor<1x512x7x10xbf16>, tensor<1x1x32x8xbf16>, tensor<1x1x32x8xbf16>) -> tensor<1x512x7x10xbf16> loc(#loc148)
    %149 = "top.Weight"() : () -> tensor<512xf32> loc(#loc149)
    %150 = "top.Weight"() : () -> tensor<512x512x1x1xbf16> loc(#loc150)
    %151 = "tpu.Conv2D"(%148, %150, %149) {coeff_merged = false, dilations = [1, 1], do_relu = false, dynweight_reorderd = false, group = 1 : i64, kernel_shape = [1, 1], kernel_zp = 0 : i64, pads = [0, 0, 0, 0], quant_mode = #tpu<rq_mode MultiplierShift>, relu_limit = -1.000000e+00 : f64, round_mode = #tpu<round_mode HalfUp>, strides = [1, 1], support_compress = true, use_3ic_optimize = 0 : i64, weight_is_coeff = 1 : i64, with_bias = true} : (tensor<1x512x7x10xbf16>, tensor<512x512x1x1xbf16>, tensor<512xf32>) -> tensor<1x512x7x10xbf16> loc(#loc151)
    %152 = "top.Weight"() : () -> tensor<1x1x32x8xbf16> loc(#loc152)
    %153 = "top.Weight"() : () -> tensor<1x1x32x8xbf16> loc(#loc153)
    %154 = "tpu.LutBF16"(%151, %152, %153) {lut_mode = #tpu<lut_mode Slope>, max_range = 1.200000e+01 : f64, min_range = -1.200000e+01 : f64} : (tensor<1x512x7x10xbf16>, tensor<1x1x32x8xbf16>, tensor<1x1x32x8xbf16>) -> tensor<1x512x7x10xbf16> loc(#loc154)
    %155 = "tpu.Slice"(%154, %0, %0, %0, %0) {axes = [], ends = [9223372036854775807, 256, 9223372036854775807, 9223372036854775807], hasparamConvert_axes = [1], offset = [0, 0, 0, 0], steps = [1, 1, 1, 1]} : (tensor<1x512x7x10xbf16>, none, none, none, none) -> tensor<1x256x7x10xbf16> loc(#loc155)
    %156 = "tpu.Slice"(%154, %0, %0, %0, %0) {axes = [], ends = [9223372036854775807, 512, 9223372036854775807, 9223372036854775807], hasparamConvert_axes = [1], offset = [0, 256, 0, 0], steps = [1, 1, 1, 1]} : (tensor<1x512x7x10xbf16>, none, none, none, none) -> tensor<1x256x7x10xbf16> loc(#loc156)
    %157 = "top.Weight"() : () -> tensor<128xf32> loc(#loc157)
    %158 = "top.Weight"() : () -> tensor<128x256x1x1xbf16> loc(#loc158)
    %159 = "tpu.Conv2D"(%156, %158, %157) {coeff_merged = false, dilations = [1, 1], do_relu = false, dynweight_reorderd = false, group = 1 : i64, kernel_shape = [1, 1], kernel_zp = 0 : i64, pads = [0, 0, 0, 0], quant_mode = #tpu<rq_mode MultiplierShift>, relu_limit = -1.000000e+00 : f64, round_mode = #tpu<round_mode HalfUp>, strides = [1, 1], support_compress = true, use_3ic_optimize = 0 : i64, weight_is_coeff = 1 : i64, with_bias = true} : (tensor<1x256x7x10xbf16>, tensor<128x256x1x1xbf16>, tensor<128xf32>) -> tensor<1x128x7x10xbf16> loc(#loc159)
    %160 = "top.Weight"() : () -> tensor<128xf32> loc(#loc160)
    %161 = "top.Weight"() : () -> tensor<128x256x1x1xbf16> loc(#loc161)
    %162 = "tpu.Conv2D"(%156, %161, %160) {coeff_merged = false, dilations = [1, 1], do_relu = false, dynweight_reorderd = false, group = 1 : i64, kernel_shape = [1, 1], kernel_zp = 0 : i64, pads = [0, 0, 0, 0], quant_mode = #tpu<rq_mode MultiplierShift>, relu_limit = -1.000000e+00 : f64, round_mode = #tpu<round_mode HalfUp>, strides = [1, 1], support_compress = true, use_3ic_optimize = 0 : i64, weight_is_coeff = 1 : i64, with_bias = true} : (tensor<1x256x7x10xbf16>, tensor<128x256x1x1xbf16>, tensor<128xf32>) -> tensor<1x128x7x10xbf16> loc(#loc162)
    %163 = "top.Weight"() : () -> tensor<1x1x32x8xbf16> loc(#loc163)
    %164 = "top.Weight"() : () -> tensor<1x1x32x8xbf16> loc(#loc164)
    %165 = "tpu.LutBF16"(%159, %163, %164) {lut_mode = #tpu<lut_mode Slope>, max_range = 1.200000e+01 : f64, min_range = -1.200000e+01 : f64} : (tensor<1x128x7x10xbf16>, tensor<1x1x32x8xbf16>, tensor<1x1x32x8xbf16>) -> tensor<1x128x7x10xbf16> loc(#loc165)
    %166 = "top.Weight"() : () -> tensor<1x1x32x8xbf16> loc(#loc166)
    %167 = "top.Weight"() : () -> tensor<1x1x32x8xbf16> loc(#loc167)
    %168 = "tpu.LutBF16"(%162, %166, %167) {lut_mode = #tpu<lut_mode Slope>, max_range = 1.200000e+01 : f64, min_range = -1.200000e+01 : f64} : (tensor<1x128x7x10xbf16>, tensor<1x1x32x8xbf16>, tensor<1x1x32x8xbf16>) -> tensor<1x128x7x10xbf16> loc(#loc168)
    %169 = "top.Weight"() : () -> tensor<128xf32> loc(#loc169)
    %170 = "top.Weight"() : () -> tensor<128x128x3x3xbf16> loc(#loc170)
    %171 = "tpu.Conv2D"(%165, %170, %169) {coeff_merged = false, dilations = [1, 1], do_relu = false, dynweight_reorderd = false, group = 1 : i64, kernel_shape = [3, 3], kernel_zp = 0 : i64, pads = [1, 1, 1, 1], quant_mode = #tpu<rq_mode MultiplierShift>, relu_limit = -1.000000e+00 : f64, round_mode = #tpu<round_mode HalfUp>, strides = [1, 1], support_compress = true, use_3ic_optimize = 0 : i64, weight_is_coeff = 1 : i64, with_bias = true} : (tensor<1x128x7x10xbf16>, tensor<128x128x3x3xbf16>, tensor<128xf32>) -> tensor<1x128x7x10xbf16> loc(#loc171)
    %172 = "top.Weight"() : () -> tensor<1x1x32x8xbf16> loc(#loc172)
    %173 = "top.Weight"() : () -> tensor<1x1x32x8xbf16> loc(#loc173)
    %174 = "tpu.LutBF16"(%171, %172, %173) {lut_mode = #tpu<lut_mode Slope>, max_range = 1.200000e+01 : f64, min_range = -1.200000e+01 : f64} : (tensor<1x128x7x10xbf16>, tensor<1x1x32x8xbf16>, tensor<1x1x32x8xbf16>) -> tensor<1x128x7x10xbf16> loc(#loc174)
    %175 = "top.Weight"() : () -> tensor<128xf32> loc(#loc175)
    %176 = "top.Weight"() : () -> tensor<128x128x3x3xbf16> loc(#loc176)
    %177 = "tpu.Conv2D"(%174, %176, %175) {coeff_merged = false, dilations = [1, 1], do_relu = false, dynweight_reorderd = false, group = 1 : i64, kernel_shape = [3, 3], kernel_zp = 0 : i64, pads = [1, 1, 1, 1], quant_mode = #tpu<rq_mode MultiplierShift>, relu_limit = -1.000000e+00 : f64, round_mode = #tpu<round_mode HalfUp>, strides = [1, 1], support_compress = true, use_3ic_optimize = 0 : i64, weight_is_coeff = 1 : i64, with_bias = true} : (tensor<1x128x7x10xbf16>, tensor<128x128x3x3xbf16>, tensor<128xf32>) -> tensor<1x128x7x10xbf16> loc(#loc177)
    %178 = "top.Weight"() : () -> tensor<1x1x32x8xbf16> loc(#loc178)
    %179 = "top.Weight"() : () -> tensor<1x1x32x8xbf16> loc(#loc179)
    %180 = "tpu.LutBF16"(%177, %178, %179) {lut_mode = #tpu<lut_mode Slope>, max_range = 1.200000e+01 : f64, min_range = -1.200000e+01 : f64} : (tensor<1x128x7x10xbf16>, tensor<1x1x32x8xbf16>, tensor<1x1x32x8xbf16>) -> tensor<1x128x7x10xbf16> loc(#loc180)
    %181 = "tpu.Add"(%165, %180) {do_relu = false, is_scalar = false, relu_limit = -1.000000e+00 : f64} : (tensor<1x128x7x10xbf16>, tensor<1x128x7x10xbf16>) -> tensor<1x128x7x10xbf16> loc(#loc181)
    %182 = "top.Weight"() : () -> tensor<128xf32> loc(#loc182)
    %183 = "top.Weight"() : () -> tensor<128x128x3x3xbf16> loc(#loc183)
    %184 = "tpu.Conv2D"(%181, %183, %182) {coeff_merged = false, dilations = [1, 1], do_relu = false, dynweight_reorderd = false, group = 1 : i64, kernel_shape = [3, 3], kernel_zp = 0 : i64, pads = [1, 1, 1, 1], quant_mode = #tpu<rq_mode MultiplierShift>, relu_limit = -1.000000e+00 : f64, round_mode = #tpu<round_mode HalfUp>, strides = [1, 1], support_compress = true, use_3ic_optimize = 0 : i64, weight_is_coeff = 1 : i64, with_bias = true} : (tensor<1x128x7x10xbf16>, tensor<128x128x3x3xbf16>, tensor<128xf32>) -> tensor<1x128x7x10xbf16> loc(#loc184)
    %185 = "top.Weight"() : () -> tensor<1x1x32x8xbf16> loc(#loc185)
    %186 = "top.Weight"() : () -> tensor<1x1x32x8xbf16> loc(#loc186)
    %187 = "tpu.LutBF16"(%184, %185, %186) {lut_mode = #tpu<lut_mode Slope>, max_range = 1.200000e+01 : f64, min_range = -1.200000e+01 : f64} : (tensor<1x128x7x10xbf16>, tensor<1x1x32x8xbf16>, tensor<1x1x32x8xbf16>) -> tensor<1x128x7x10xbf16> loc(#loc187)
    %188 = "top.Weight"() : () -> tensor<128xf32> loc(#loc188)
    %189 = "top.Weight"() : () -> tensor<128x128x3x3xbf16> loc(#loc189)
    %190 = "tpu.Conv2D"(%187, %189, %188) {coeff_merged = false, dilations = [1, 1], do_relu = false, dynweight_reorderd = false, group = 1 : i64, kernel_shape = [3, 3], kernel_zp = 0 : i64, pads = [1, 1, 1, 1], quant_mode = #tpu<rq_mode MultiplierShift>, relu_limit = -1.000000e+00 : f64, round_mode = #tpu<round_mode HalfUp>, strides = [1, 1], support_compress = true, use_3ic_optimize = 0 : i64, weight_is_coeff = 1 : i64, with_bias = true} : (tensor<1x128x7x10xbf16>, tensor<128x128x3x3xbf16>, tensor<128xf32>) -> tensor<1x128x7x10xbf16> loc(#loc190)
    %191 = "top.Weight"() : () -> tensor<1x1x32x8xbf16> loc(#loc191)
    %192 = "top.Weight"() : () -> tensor<1x1x32x8xbf16> loc(#loc192)
    %193 = "tpu.LutBF16"(%190, %191, %192) {lut_mode = #tpu<lut_mode Slope>, max_range = 1.200000e+01 : f64, min_range = -1.200000e+01 : f64} : (tensor<1x128x7x10xbf16>, tensor<1x1x32x8xbf16>, tensor<1x1x32x8xbf16>) -> tensor<1x128x7x10xbf16> loc(#loc193)
    %194 = "tpu.Add"(%181, %193) {do_relu = false, is_scalar = false, relu_limit = -1.000000e+00 : f64} : (tensor<1x128x7x10xbf16>, tensor<1x128x7x10xbf16>) -> tensor<1x128x7x10xbf16> loc(#loc194)
    %195 = "tpu.Concat"(%194, %168) {axis = 1 : si32, do_relu = false, only_merge = true, relu_limit = -1.000000e+00 : f64} : (tensor<1x128x7x10xbf16>, tensor<1x128x7x10xbf16>) -> tensor<1x256x7x10xbf16> loc(#loc195)
    %196 = "top.Weight"() : () -> tensor<256xf32> loc(#loc196)
    %197 = "top.Weight"() : () -> tensor<256x256x1x1xbf16> loc(#loc197)
    %198 = "tpu.Conv2D"(%195, %197, %196) {coeff_merged = false, dilations = [1, 1], do_relu = false, dynweight_reorderd = false, group = 1 : i64, kernel_shape = [1, 1], kernel_zp = 0 : i64, pads = [0, 0, 0, 0], quant_mode = #tpu<rq_mode MultiplierShift>, relu_limit = -1.000000e+00 : f64, round_mode = #tpu<round_mode HalfUp>, strides = [1, 1], support_compress = true, use_3ic_optimize = 0 : i64, weight_is_coeff = 1 : i64, with_bias = true} : (tensor<1x256x7x10xbf16>, tensor<256x256x1x1xbf16>, tensor<256xf32>) -> tensor<1x256x7x10xbf16> loc(#loc198)
    %199 = "top.Weight"() : () -> tensor<1x1x32x8xbf16> loc(#loc199)
    %200 = "top.Weight"() : () -> tensor<1x1x32x8xbf16> loc(#loc200)
    %201 = "tpu.LutBF16"(%198, %199, %200) {lut_mode = #tpu<lut_mode Slope>, max_range = 1.200000e+01 : f64, min_range = -1.200000e+01 : f64} : (tensor<1x256x7x10xbf16>, tensor<1x1x32x8xbf16>, tensor<1x1x32x8xbf16>) -> tensor<1x256x7x10xbf16> loc(#loc201)
    %202 = "tpu.Concat"(%155, %156, %201) {axis = 1 : si32, do_relu = false, only_merge = false, relu_limit = -1.000000e+00 : f64} : (tensor<1x256x7x10xbf16>, tensor<1x256x7x10xbf16>, tensor<1x256x7x10xbf16>) -> tensor<1x768x7x10xbf16> loc(#loc202)
    %203 = "top.Weight"() : () -> tensor<512xf32> loc(#loc203)
    %204 = "top.Weight"() : () -> tensor<512x768x1x1xbf16> loc(#loc204)
    %205 = "tpu.Conv2D"(%202, %204, %203) {coeff_merged = false, dilations = [1, 1], do_relu = false, dynweight_reorderd = false, group = 1 : i64, kernel_shape = [1, 1], kernel_zp = 0 : i64, pads = [0, 0, 0, 0], quant_mode = #tpu<rq_mode MultiplierShift>, relu_limit = -1.000000e+00 : f64, round_mode = #tpu<round_mode HalfUp>, strides = [1, 1], support_compress = true, use_3ic_optimize = 0 : i64, weight_is_coeff = 1 : i64, with_bias = true} : (tensor<1x768x7x10xbf16>, tensor<512x768x1x1xbf16>, tensor<512xf32>) -> tensor<1x512x7x10xbf16> loc(#loc205)
    %206 = "top.Weight"() : () -> tensor<1x1x32x8xbf16> loc(#loc206)
    %207 = "top.Weight"() : () -> tensor<1x1x32x8xbf16> loc(#loc207)
    %208 = "tpu.LutBF16"(%205, %206, %207) {lut_mode = #tpu<lut_mode Slope>, max_range = 1.200000e+01 : f64, min_range = -1.200000e+01 : f64} : (tensor<1x512x7x10xbf16>, tensor<1x1x32x8xbf16>, tensor<1x1x32x8xbf16>) -> tensor<1x512x7x10xbf16> loc(#loc208)
    %209 = "top.Weight"() : () -> tensor<256xf32> loc(#loc209)
    %210 = "top.Weight"() : () -> tensor<256x512x1x1xbf16> loc(#loc210)
    %211 = "tpu.Conv2D"(%208, %210, %209) {coeff_merged = false, dilations = [1, 1], do_relu = false, dynweight_reorderd = false, group = 1 : i64, kernel_shape = [1, 1], kernel_zp = 0 : i64, pads = [0, 0, 0, 0], quant_mode = #tpu<rq_mode MultiplierShift>, relu_limit = -1.000000e+00 : f64, round_mode = #tpu<round_mode HalfUp>, strides = [1, 1], support_compress = true, use_3ic_optimize = 0 : i64, weight_is_coeff = 1 : i64, with_bias = true} : (tensor<1x512x7x10xbf16>, tensor<256x512x1x1xbf16>, tensor<256xf32>) -> tensor<1x256x7x10xbf16> loc(#loc211)
    %212 = "top.Weight"() : () -> tensor<1x1x32x8xbf16> loc(#loc212)
    %213 = "top.Weight"() : () -> tensor<1x1x32x8xbf16> loc(#loc213)
    %214 = "tpu.LutBF16"(%211, %212, %213) {lut_mode = #tpu<lut_mode Slope>, max_range = 1.200000e+01 : f64, min_range = -1.200000e+01 : f64} : (tensor<1x256x7x10xbf16>, tensor<1x1x32x8xbf16>, tensor<1x1x32x8xbf16>) -> tensor<1x256x7x10xbf16> loc(#loc214)
    %215 = "tpu.Pool2D"(%214) {count_include_pad = false, do_relu = false, first_round_mode = #tpu<round_mode HalfAwayFromZero>, is_adaptive = false, keepdims = true, kernel_shape = [5, 5], pad_value = 0 : i64, pads = [2, 2, 2, 2], pool_mode = #tpu<pool_mode Max>, relu_limit = -1.000000e+00 : f64, round_mode = #tpu<round_mode HalfAwayFromZero>, strides = [1, 1]} : (tensor<1x256x7x10xbf16>) -> tensor<1x256x7x10xbf16> loc(#loc215)
    %216 = "tpu.Pool2D"(%215) {count_include_pad = false, do_relu = false, first_round_mode = #tpu<round_mode HalfAwayFromZero>, is_adaptive = false, keepdims = true, kernel_shape = [5, 5], pad_value = 0 : i64, pads = [2, 2, 2, 2], pool_mode = #tpu<pool_mode Max>, relu_limit = -1.000000e+00 : f64, round_mode = #tpu<round_mode HalfAwayFromZero>, strides = [1, 1]} : (tensor<1x256x7x10xbf16>) -> tensor<1x256x7x10xbf16> loc(#loc216)
    %217 = "tpu.Pool2D"(%216) {count_include_pad = false, do_relu = false, first_round_mode = #tpu<round_mode HalfAwayFromZero>, is_adaptive = false, keepdims = true, kernel_shape = [5, 5], pad_value = 0 : i64, pads = [2, 2, 2, 2], pool_mode = #tpu<pool_mode Max>, relu_limit = -1.000000e+00 : f64, round_mode = #tpu<round_mode HalfAwayFromZero>, strides = [1, 1]} : (tensor<1x256x7x10xbf16>) -> tensor<1x256x7x10xbf16> loc(#loc217)
    %218 = "tpu.Concat"(%214, %215, %216, %217) {axis = 1 : si32, do_relu = false, only_merge = true, relu_limit = -1.000000e+00 : f64} : (tensor<1x256x7x10xbf16>, tensor<1x256x7x10xbf16>, tensor<1x256x7x10xbf16>, tensor<1x256x7x10xbf16>) -> tensor<1x1024x7x10xbf16> loc(#loc218)
    %219 = "top.Weight"() : () -> tensor<512xf32> loc(#loc219)
    %220 = "top.Weight"() : () -> tensor<512x1024x1x1xbf16> loc(#loc220)
    %221 = "tpu.Conv2D"(%218, %220, %219) {coeff_merged = false, dilations = [1, 1], do_relu = false, dynweight_reorderd = false, group = 1 : i64, kernel_shape = [1, 1], kernel_zp = 0 : i64, pads = [0, 0, 0, 0], quant_mode = #tpu<rq_mode MultiplierShift>, relu_limit = -1.000000e+00 : f64, round_mode = #tpu<round_mode HalfUp>, strides = [1, 1], support_compress = true, use_3ic_optimize = 0 : i64, weight_is_coeff = 1 : i64, with_bias = true} : (tensor<1x1024x7x10xbf16>, tensor<512x1024x1x1xbf16>, tensor<512xf32>) -> tensor<1x512x7x10xbf16> loc(#loc221)
    %222 = "top.Weight"() : () -> tensor<1x1x32x8xbf16> loc(#loc222)
    %223 = "top.Weight"() : () -> tensor<1x1x32x8xbf16> loc(#loc223)
    %224 = "tpu.LutBF16"(%221, %222, %223) {lut_mode = #tpu<lut_mode Slope>, max_range = 1.200000e+01 : f64, min_range = -1.200000e+01 : f64} : (tensor<1x512x7x10xbf16>, tensor<1x1x32x8xbf16>, tensor<1x1x32x8xbf16>) -> tensor<1x512x7x10xbf16> loc(#loc224)
    %225 = "top.Weight"() : () -> tensor<512xf32> loc(#loc225)
    %226 = "top.Weight"() : () -> tensor<512x512x1x1xbf16> loc(#loc226)
    %227 = "tpu.Conv2D"(%224, %226, %225) {coeff_merged = false, dilations = [1, 1], do_relu = false, dynweight_reorderd = false, group = 1 : i64, kernel_shape = [1, 1], kernel_zp = 0 : i64, pads = [0, 0, 0, 0], quant_mode = #tpu<rq_mode MultiplierShift>, relu_limit = -1.000000e+00 : f64, round_mode = #tpu<round_mode HalfUp>, strides = [1, 1], support_compress = true, use_3ic_optimize = 0 : i64, weight_is_coeff = 1 : i64, with_bias = true} : (tensor<1x512x7x10xbf16>, tensor<512x512x1x1xbf16>, tensor<512xf32>) -> tensor<1x512x7x10xbf16> loc(#loc227)
    %228 = "top.Weight"() : () -> tensor<1x1x32x8xbf16> loc(#loc228)
    %229 = "top.Weight"() : () -> tensor<1x1x32x8xbf16> loc(#loc229)
    %230 = "tpu.LutBF16"(%227, %228, %229) {lut_mode = #tpu<lut_mode Slope>, max_range = 1.200000e+01 : f64, min_range = -1.200000e+01 : f64} : (tensor<1x512x7x10xbf16>, tensor<1x1x32x8xbf16>, tensor<1x1x32x8xbf16>) -> tensor<1x512x7x10xbf16> loc(#loc230)
    %231 = "tpu.Slice"(%230, %0, %0, %0, %0) {axes = [], ends = [9223372036854775807, 256, 9223372036854775807, 9223372036854775807], hasparamConvert_axes = [1], offset = [0, 0, 0, 0], steps = [1, 1, 1, 1]} : (tensor<1x512x7x10xbf16>, none, none, none, none) -> tensor<1x256x7x10xbf16> loc(#loc231)
    %232 = "tpu.Slice"(%230, %0, %0, %0, %0) {axes = [], ends = [9223372036854775807, 512, 9223372036854775807, 9223372036854775807], hasparamConvert_axes = [1], offset = [0, 256, 0, 0], steps = [1, 1, 1, 1]} : (tensor<1x512x7x10xbf16>, none, none, none, none) -> tensor<1x256x7x10xbf16> loc(#loc232)
    %233 = "top.Weight"() : () -> tensor<512xf32> loc(#loc233)
    %234 = "top.Weight"() : () -> tensor<512x256x1x1xbf16> loc(#loc234)
    %235 = "tpu.Conv2D"(%232, %234, %233) {coeff_merged = false, dilations = [1, 1], do_relu = false, dynweight_reorderd = false, group = 1 : i64, kernel_shape = [1, 1], kernel_zp = 0 : i64, pads = [0, 0, 0, 0], quant_mode = #tpu<rq_mode MultiplierShift>, relu_limit = -1.000000e+00 : f64, round_mode = #tpu<round_mode HalfUp>, strides = [1, 1], support_compress = true, use_3ic_optimize = 0 : i64, weight_is_coeff = 1 : i64, with_bias = true} : (tensor<1x256x7x10xbf16>, tensor<512x256x1x1xbf16>, tensor<512xf32>) -> tensor<1x512x7x10xbf16> loc(#loc235)
    %236 = "tpu.Reshape"(%235) {flatten_start_dim = -1 : i64, shape = [1, 4, 128, 70]} : (tensor<1x512x7x10xbf16>) -> tensor<1x4x128x70xbf16> loc(#loc236)
    %237 = "tpu.Slice"(%236, %0, %0, %0, %0) {axes = [], ends = [9223372036854775807, 9223372036854775807, 32, 9223372036854775807], hasparamConvert_axes = [2], offset = [0, 0, 0, 0], steps = [1, 1, 1, 1]} : (tensor<1x4x128x70xbf16>, none, none, none, none) -> tensor<1x4x32x70xbf16> loc(#loc237)
    %238 = "tpu.Slice"(%236, %0, %0, %0, %0) {axes = [], ends = [9223372036854775807, 9223372036854775807, 64, 9223372036854775807], hasparamConvert_axes = [2], offset = [0, 0, 32, 0], steps = [1, 1, 1, 1]} : (tensor<1x4x128x70xbf16>, none, none, none, none) -> tensor<1x4x32x70xbf16> loc(#loc238)
    %239 = "tpu.Slice"(%236, %0, %0, %0, %0) {axes = [], ends = [9223372036854775807, 9223372036854775807, 128, 9223372036854775807], hasparamConvert_axes = [2], offset = [0, 0, 64, 0], steps = [1, 1, 1, 1]} : (tensor<1x4x128x70xbf16>, none, none, none, none) -> tensor<1x4x64x70xbf16> loc(#loc239)
    %240 = "tpu.Permute"(%237, %0) {order = [0, 1, 3, 2]} : (tensor<1x4x32x70xbf16>, none) -> tensor<1x4x70x32xbf16> loc(#loc240)
    %241 = "tpu.Reshape"(%239) {flatten_start_dim = -1 : i64, shape = [1, 256, 7, 10]} : (tensor<1x4x64x70xbf16>) -> tensor<1x256x7x10xbf16> loc(#loc241)
    %242 = "tpu.MatMul"(%240, %238, %0, %0, %0) {do_relu = false, fuse_rq = false, hdim_is_batch = false, input_zp = 0 : i64, keep_dims = true, left_reuse = 1 : i64, left_transpose = false, multipliers = [1], output_transpose = false, quant_mode = #tpu<rq_mode MultiplierShift>, relu_limit = -1.000000e+00 : f64, right_transpose = false, right_zp = 0 : i64, round_mode = #tpu<round_mode HalfAwayFromZero>, rshifts = [0]} : (tensor<1x4x70x32xbf16>, tensor<1x4x32x70xbf16>, none, none, none) -> tensor<1x4x70x70xbf16> loc(#loc242)
    %243 = "top.Weight"() : () -> tensor<256xf32> loc(#loc243)
    %244 = "top.Weight"() : () -> tensor<256x1x3x3xbf16> loc(#loc244)
    %245 = "tpu.Conv2D"(%241, %244, %243) {coeff_merged = false, dilations = [1, 1], do_relu = false, dynweight_reorderd = false, group = 256 : i64, kernel_shape = [3, 3], kernel_zp = 0 : i64, pads = [1, 1, 1, 1], quant_mode = #tpu<rq_mode MultiplierShift>, relu_limit = -1.000000e+00 : f64, round_mode = #tpu<round_mode HalfUp>, strides = [1, 1], support_compress = true, use_3ic_optimize = 0 : i64, weight_is_coeff = 1 : i64, with_bias = true} : (tensor<1x256x7x10xbf16>, tensor<256x1x3x3xbf16>, tensor<256xf32>) -> tensor<1x256x7x10xbf16> loc(#loc245)
    %246 = "top.Weight"() : () -> tensor<1x1x32x8xbf16> loc(#loc246)
    %247 = "top.Weight"() : () -> tensor<1x1x32x8xbf16> loc(#loc247)
    %248 = "tpu.LutBF16"(%242, %246, %247) {const_val = 0.1767766922712326 : f64, do_relu = false, is_scalar = false, lut_mode = #tpu<lut_mode Slope>, max_range = 1.500000e+01 : f64, min_range = -1.500000e+01 : f64, relu_limit = -1.000000e+00 : f64} : (tensor<1x4x70x70xbf16>, tensor<1x1x32x8xbf16>, tensor<1x1x32x8xbf16>) -> tensor<1x4x70x70xbf16> loc(#loc248)
    %249 = "top.Weight"() : () -> tensor<1x1x32x8xbf16> loc(#loc249)
    %250 = "top.Weight"() : () -> tensor<1x1x32x8xbf16> loc(#loc250)
    %251 = "top.Weight"() : () -> tensor<1x1x32x8xbf16> loc(#loc251)
    %252 = "top.Weight"() : () -> tensor<1x1x32x8xbf16> loc(#loc252)
    %253 = "tpu.Softmax"(%248, %249, %250, %251, %252, %0) {axis = 3 : si32, beta = 1.000000e+00 : f64, log = false, round_mode = #tpu<round_mode HalfAwayFromZero>} : (tensor<1x4x70x70xbf16>, tensor<1x1x32x8xbf16>, tensor<1x1x32x8xbf16>, tensor<1x1x32x8xbf16>, tensor<1x1x32x8xbf16>, none) -> tensor<1x4x70x70xbf16> loc(#loc253)
    %254 = "tpu.Permute"(%253, %0) {order = [0, 1, 3, 2]} : (tensor<1x4x70x70xbf16>, none) -> tensor<1x4x70x70xbf16> loc(#loc254)
    %255 = "tpu.MatMul"(%239, %254, %0, %0, %0) {do_relu = false, fuse_rq = false, hdim_is_batch = false, input_zp = 0 : i64, keep_dims = true, left_reuse = 1 : i64, left_transpose = false, multipliers = [1], output_transpose = false, quant_mode = #tpu<rq_mode MultiplierShift>, relu_limit = -1.000000e+00 : f64, right_transpose = false, right_zp = 0 : i64, round_mode = #tpu<round_mode HalfAwayFromZero>, rshifts = [0]} : (tensor<1x4x64x70xbf16>, tensor<1x4x70x70xbf16>, none, none, none) -> tensor<1x4x64x70xbf16> loc(#loc255)
    %256 = "tpu.Reshape"(%255) {flatten_start_dim = -1 : i64, shape = [1, 256, 7, 10]} : (tensor<1x4x64x70xbf16>) -> tensor<1x256x7x10xbf16> loc(#loc256)
    %257 = "tpu.Add"(%256, %245) {do_relu = false, is_scalar = false, relu_limit = -1.000000e+00 : f64} : (tensor<1x256x7x10xbf16>, tensor<1x256x7x10xbf16>) -> tensor<1x256x7x10xbf16> loc(#loc257)
    %258 = "top.Weight"() : () -> tensor<256xf32> loc(#loc258)
    %259 = "top.Weight"() : () -> tensor<256x256x1x1xbf16> loc(#loc259)
    %260 = "tpu.Conv2D"(%257, %259, %258) {coeff_merged = false, dilations = [1, 1], do_relu = false, dynweight_reorderd = false, group = 1 : i64, kernel_shape = [1, 1], kernel_zp = 0 : i64, pads = [0, 0, 0, 0], quant_mode = #tpu<rq_mode MultiplierShift>, relu_limit = -1.000000e+00 : f64, round_mode = #tpu<round_mode HalfUp>, strides = [1, 1], support_compress = true, use_3ic_optimize = 0 : i64, weight_is_coeff = 1 : i64, with_bias = true} : (tensor<1x256x7x10xbf16>, tensor<256x256x1x1xbf16>, tensor<256xf32>) -> tensor<1x256x7x10xbf16> loc(#loc260)
    %261 = "tpu.Add"(%232, %260) {do_relu = false, is_scalar = false, relu_limit = -1.000000e+00 : f64} : (tensor<1x256x7x10xbf16>, tensor<1x256x7x10xbf16>) -> tensor<1x256x7x10xbf16> loc(#loc261)
    %262 = "top.Weight"() : () -> tensor<512xf32> loc(#loc262)
    %263 = "top.Weight"() : () -> tensor<512x256x1x1xbf16> loc(#loc263)
    %264 = "tpu.Conv2D"(%261, %263, %262) {coeff_merged = false, dilations = [1, 1], do_relu = false, dynweight_reorderd = false, group = 1 : i64, kernel_shape = [1, 1], kernel_zp = 0 : i64, pads = [0, 0, 0, 0], quant_mode = #tpu<rq_mode MultiplierShift>, relu_limit = -1.000000e+00 : f64, round_mode = #tpu<round_mode HalfUp>, strides = [1, 1], support_compress = true, use_3ic_optimize = 0 : i64, weight_is_coeff = 1 : i64, with_bias = true} : (tensor<1x256x7x10xbf16>, tensor<512x256x1x1xbf16>, tensor<512xf32>) -> tensor<1x512x7x10xbf16> loc(#loc264)
    %265 = "top.Weight"() : () -> tensor<1x1x32x8xbf16> loc(#loc265)
    %266 = "top.Weight"() : () -> tensor<1x1x32x8xbf16> loc(#loc266)
    %267 = "tpu.LutBF16"(%264, %265, %266) {lut_mode = #tpu<lut_mode Slope>, max_range = 1.200000e+01 : f64, min_range = -1.200000e+01 : f64} : (tensor<1x512x7x10xbf16>, tensor<1x1x32x8xbf16>, tensor<1x1x32x8xbf16>) -> tensor<1x512x7x10xbf16> loc(#loc267)
    %268 = "top.Weight"() : () -> tensor<256xf32> loc(#loc268)
    %269 = "top.Weight"() : () -> tensor<256x512x1x1xbf16> loc(#loc269)
    %270 = "tpu.Conv2D"(%267, %269, %268) {coeff_merged = false, dilations = [1, 1], do_relu = false, dynweight_reorderd = false, group = 1 : i64, kernel_shape = [1, 1], kernel_zp = 0 : i64, pads = [0, 0, 0, 0], quant_mode = #tpu<rq_mode MultiplierShift>, relu_limit = -1.000000e+00 : f64, round_mode = #tpu<round_mode HalfUp>, strides = [1, 1], support_compress = true, use_3ic_optimize = 0 : i64, weight_is_coeff = 1 : i64, with_bias = true} : (tensor<1x512x7x10xbf16>, tensor<256x512x1x1xbf16>, tensor<256xf32>) -> tensor<1x256x7x10xbf16> loc(#loc270)
    %271 = "tpu.Add"(%261, %270) {do_relu = false, is_scalar = false, relu_limit = -1.000000e+00 : f64} : (tensor<1x256x7x10xbf16>, tensor<1x256x7x10xbf16>) -> tensor<1x256x7x10xbf16> loc(#loc271)
    %272 = "tpu.Concat"(%231, %271) {axis = 1 : si32, do_relu = false, only_merge = false, relu_limit = -1.000000e+00 : f64} : (tensor<1x256x7x10xbf16>, tensor<1x256x7x10xbf16>) -> tensor<1x512x7x10xbf16> loc(#loc272)
    %273 = "top.Weight"() : () -> tensor<512xf32> loc(#loc273)
    %274 = "top.Weight"() : () -> tensor<512x512x1x1xbf16> loc(#loc274)
    %275 = "tpu.Conv2D"(%272, %274, %273) {coeff_merged = false, dilations = [1, 1], do_relu = false, dynweight_reorderd = false, group = 1 : i64, kernel_shape = [1, 1], kernel_zp = 0 : i64, pads = [0, 0, 0, 0], quant_mode = #tpu<rq_mode MultiplierShift>, relu_limit = -1.000000e+00 : f64, round_mode = #tpu<round_mode HalfUp>, strides = [1, 1], support_compress = true, use_3ic_optimize = 0 : i64, weight_is_coeff = 1 : i64, with_bias = true} : (tensor<1x512x7x10xbf16>, tensor<512x512x1x1xbf16>, tensor<512xf32>) -> tensor<1x512x7x10xbf16> loc(#loc275)
    %276 = "top.Weight"() : () -> tensor<1x1x32x8xbf16> loc(#loc276)
    %277 = "top.Weight"() : () -> tensor<1x1x32x8xbf16> loc(#loc277)
    %278 = "tpu.LutBF16"(%275, %276, %277) {lut_mode = #tpu<lut_mode Slope>, max_range = 1.200000e+01 : f64, min_range = -1.200000e+01 : f64} : (tensor<1x512x7x10xbf16>, tensor<1x1x32x8xbf16>, tensor<1x1x32x8xbf16>) -> tensor<1x512x7x10xbf16> loc(#loc278)
    %279 = "top.Weight"() : () -> tensor<512x1x1x2x2xbf16> loc(#loc279)
    %280 = "tpu.Deconv"(%278, %279, %0) {dilations = [1, 1], do_relu = false, dynweight_reorderd = false, group = 512 : i64, inserts = [0, 0], kernel_shape = [2, 2], pads = [0, 0, 0, 0], quant_mode = #tpu<rq_mode MultiplierShift>, relu_limit = -1.000000e+00 : f64, strides = [2, 2], with_bias = false} : (tensor<1x512x7x10xbf16>, tensor<512x1x1x2x2xbf16>, none) -> tensor<1x512x14x20xbf16> loc(#loc280)
    %281 = "tpu.Concat"(%280, %142) {axis = 1 : si32, do_relu = false, only_merge = true, relu_limit = -1.000000e+00 : f64} : (tensor<1x512x14x20xbf16>, tensor<1x256x14x20xbf16>) -> tensor<1x768x14x20xbf16> loc(#loc281)
    %282 = "top.Weight"() : () -> tensor<256xf32> loc(#loc282)
    %283 = "top.Weight"() : () -> tensor<256x768x1x1xbf16> loc(#loc283)
    %284 = "tpu.Conv2D"(%281, %283, %282) {coeff_merged = false, dilations = [1, 1], do_relu = false, dynweight_reorderd = false, group = 1 : i64, kernel_shape = [1, 1], kernel_zp = 0 : i64, pads = [0, 0, 0, 0], quant_mode = #tpu<rq_mode MultiplierShift>, relu_limit = -1.000000e+00 : f64, round_mode = #tpu<round_mode HalfUp>, strides = [1, 1], support_compress = true, use_3ic_optimize = 0 : i64, weight_is_coeff = 1 : i64, with_bias = true} : (tensor<1x768x14x20xbf16>, tensor<256x768x1x1xbf16>, tensor<256xf32>) -> tensor<1x256x14x20xbf16> loc(#loc284)
    %285 = "top.Weight"() : () -> tensor<1x1x32x8xbf16> loc(#loc285)
    %286 = "top.Weight"() : () -> tensor<1x1x32x8xbf16> loc(#loc286)
    %287 = "tpu.LutBF16"(%284, %285, %286) {lut_mode = #tpu<lut_mode Slope>, max_range = 1.200000e+01 : f64, min_range = -1.200000e+01 : f64} : (tensor<1x256x14x20xbf16>, tensor<1x1x32x8xbf16>, tensor<1x1x32x8xbf16>) -> tensor<1x256x14x20xbf16> loc(#loc287)
    %288 = "tpu.Slice"(%287, %0, %0, %0, %0) {axes = [], ends = [9223372036854775807, 128, 9223372036854775807, 9223372036854775807], hasparamConvert_axes = [1], offset = [0, 0, 0, 0], steps = [1, 1, 1, 1]} : (tensor<1x256x14x20xbf16>, none, none, none, none) -> tensor<1x128x14x20xbf16> loc(#loc288)
    %289 = "tpu.Slice"(%287, %0, %0, %0, %0) {axes = [], ends = [9223372036854775807, 256, 9223372036854775807, 9223372036854775807], hasparamConvert_axes = [1], offset = [0, 128, 0, 0], steps = [1, 1, 1, 1]} : (tensor<1x256x14x20xbf16>, none, none, none, none) -> tensor<1x128x14x20xbf16> loc(#loc289)
    %290 = "top.Weight"() : () -> tensor<64xf32> loc(#loc290)
    %291 = "top.Weight"() : () -> tensor<64x128x3x3xbf16> loc(#loc291)
    %292 = "tpu.Conv2D"(%289, %291, %290) {coeff_merged = false, dilations = [1, 1], do_relu = false, dynweight_reorderd = false, group = 1 : i64, kernel_shape = [3, 3], kernel_zp = 0 : i64, pads = [1, 1, 1, 1], quant_mode = #tpu<rq_mode MultiplierShift>, relu_limit = -1.000000e+00 : f64, round_mode = #tpu<round_mode HalfUp>, strides = [1, 1], support_compress = true, use_3ic_optimize = 0 : i64, weight_is_coeff = 1 : i64, with_bias = true} : (tensor<1x128x14x20xbf16>, tensor<64x128x3x3xbf16>, tensor<64xf32>) -> tensor<1x64x14x20xbf16> loc(#loc292)
    %293 = "top.Weight"() : () -> tensor<1x1x32x8xbf16> loc(#loc293)
    %294 = "top.Weight"() : () -> tensor<1x1x32x8xbf16> loc(#loc294)
    %295 = "tpu.LutBF16"(%292, %293, %294) {lut_mode = #tpu<lut_mode Slope>, max_range = 1.200000e+01 : f64, min_range = -1.200000e+01 : f64} : (tensor<1x64x14x20xbf16>, tensor<1x1x32x8xbf16>, tensor<1x1x32x8xbf16>) -> tensor<1x64x14x20xbf16> loc(#loc295)
    %296 = "top.Weight"() : () -> tensor<128xf32> loc(#loc296)
    %297 = "top.Weight"() : () -> tensor<128x64x3x3xbf16> loc(#loc297)
    %298 = "tpu.Conv2D"(%295, %297, %296) {coeff_merged = false, dilations = [1, 1], do_relu = false, dynweight_reorderd = false, group = 1 : i64, kernel_shape = [3, 3], kernel_zp = 0 : i64, pads = [1, 1, 1, 1], quant_mode = #tpu<rq_mode MultiplierShift>, relu_limit = -1.000000e+00 : f64, round_mode = #tpu<round_mode HalfUp>, strides = [1, 1], support_compress = true, use_3ic_optimize = 0 : i64, weight_is_coeff = 1 : i64, with_bias = true} : (tensor<1x64x14x20xbf16>, tensor<128x64x3x3xbf16>, tensor<128xf32>) -> tensor<1x128x14x20xbf16> loc(#loc298)
    %299 = "top.Weight"() : () -> tensor<1x1x32x8xbf16> loc(#loc299)
    %300 = "top.Weight"() : () -> tensor<1x1x32x8xbf16> loc(#loc300)
    %301 = "tpu.LutBF16"(%298, %299, %300) {lut_mode = #tpu<lut_mode Slope>, max_range = 1.200000e+01 : f64, min_range = -1.200000e+01 : f64} : (tensor<1x128x14x20xbf16>, tensor<1x1x32x8xbf16>, tensor<1x1x32x8xbf16>) -> tensor<1x128x14x20xbf16> loc(#loc301)
    %302 = "tpu.Add"(%289, %301) {do_relu = false, is_scalar = false, relu_limit = -1.000000e+00 : f64} : (tensor<1x128x14x20xbf16>, tensor<1x128x14x20xbf16>) -> tensor<1x128x14x20xbf16> loc(#loc302)
    %303 = "tpu.Concat"(%288, %289, %302) {axis = 1 : si32, do_relu = false, only_merge = false, relu_limit = -1.000000e+00 : f64} : (tensor<1x128x14x20xbf16>, tensor<1x128x14x20xbf16>, tensor<1x128x14x20xbf16>) -> tensor<1x384x14x20xbf16> loc(#loc303)
    %304 = "top.Weight"() : () -> tensor<256xf32> loc(#loc304)
    %305 = "top.Weight"() : () -> tensor<256x384x1x1xbf16> loc(#loc305)
    %306 = "tpu.Conv2D"(%303, %305, %304) {coeff_merged = false, dilations = [1, 1], do_relu = false, dynweight_reorderd = false, group = 1 : i64, kernel_shape = [1, 1], kernel_zp = 0 : i64, pads = [0, 0, 0, 0], quant_mode = #tpu<rq_mode MultiplierShift>, relu_limit = -1.000000e+00 : f64, round_mode = #tpu<round_mode HalfUp>, strides = [1, 1], support_compress = true, use_3ic_optimize = 0 : i64, weight_is_coeff = 1 : i64, with_bias = true} : (tensor<1x384x14x20xbf16>, tensor<256x384x1x1xbf16>, tensor<256xf32>) -> tensor<1x256x14x20xbf16> loc(#loc306)
    %307 = "top.Weight"() : () -> tensor<1x1x32x8xbf16> loc(#loc307)
    %308 = "top.Weight"() : () -> tensor<1x1x32x8xbf16> loc(#loc308)
    %309 = "tpu.LutBF16"(%306, %307, %308) {lut_mode = #tpu<lut_mode Slope>, max_range = 1.200000e+01 : f64, min_range = -1.200000e+01 : f64} : (tensor<1x256x14x20xbf16>, tensor<1x1x32x8xbf16>, tensor<1x1x32x8xbf16>) -> tensor<1x256x14x20xbf16> loc(#loc309)
    %310 = "top.Weight"() : () -> tensor<256x1x1x2x2xbf16> loc(#loc310)
    %311 = "tpu.Deconv"(%309, %310, %0) {dilations = [1, 1], do_relu = false, dynweight_reorderd = false, group = 256 : i64, inserts = [0, 0], kernel_shape = [2, 2], pads = [0, 0, 0, 0], quant_mode = #tpu<rq_mode MultiplierShift>, relu_limit = -1.000000e+00 : f64, strides = [2, 2], with_bias = false} : (tensor<1x256x14x20xbf16>, tensor<256x1x1x2x2xbf16>, none) -> tensor<1x256x28x40xbf16> loc(#loc311)
    %312 = "tpu.Concat"(%311, %76) {axis = 1 : si32, do_relu = false, only_merge = true, relu_limit = -1.000000e+00 : f64} : (tensor<1x256x28x40xbf16>, tensor<1x256x28x40xbf16>) -> tensor<1x512x28x40xbf16> loc(#loc312)
    %313 = "top.Weight"() : () -> tensor<128xf32> loc(#loc313)
    %314 = "top.Weight"() : () -> tensor<128x512x1x1xbf16> loc(#loc314)
    %315 = "tpu.Conv2D"(%312, %314, %313) {coeff_merged = false, dilations = [1, 1], do_relu = false, dynweight_reorderd = false, group = 1 : i64, kernel_shape = [1, 1], kernel_zp = 0 : i64, pads = [0, 0, 0, 0], quant_mode = #tpu<rq_mode MultiplierShift>, relu_limit = -1.000000e+00 : f64, round_mode = #tpu<round_mode HalfUp>, strides = [1, 1], support_compress = true, use_3ic_optimize = 0 : i64, weight_is_coeff = 1 : i64, with_bias = true} : (tensor<1x512x28x40xbf16>, tensor<128x512x1x1xbf16>, tensor<128xf32>) -> tensor<1x128x28x40xbf16> loc(#loc315)
    %316 = "top.Weight"() : () -> tensor<1x1x32x8xbf16> loc(#loc316)
    %317 = "top.Weight"() : () -> tensor<1x1x32x8xbf16> loc(#loc317)
    %318 = "tpu.LutBF16"(%315, %316, %317) {lut_mode = #tpu<lut_mode Slope>, max_range = 1.200000e+01 : f64, min_range = -1.200000e+01 : f64} : (tensor<1x128x28x40xbf16>, tensor<1x1x32x8xbf16>, tensor<1x1x32x8xbf16>) -> tensor<1x128x28x40xbf16> loc(#loc318)
    %319 = "tpu.Slice"(%318, %0, %0, %0, %0) {axes = [], ends = [9223372036854775807, 64, 9223372036854775807, 9223372036854775807], hasparamConvert_axes = [1], offset = [0, 0, 0, 0], steps = [1, 1, 1, 1]} : (tensor<1x128x28x40xbf16>, none, none, none, none) -> tensor<1x64x28x40xbf16> loc(#loc319)
    %320 = "tpu.Slice"(%318, %0, %0, %0, %0) {axes = [], ends = [9223372036854775807, 128, 9223372036854775807, 9223372036854775807], hasparamConvert_axes = [1], offset = [0, 64, 0, 0], steps = [1, 1, 1, 1]} : (tensor<1x128x28x40xbf16>, none, none, none, none) -> tensor<1x64x28x40xbf16> loc(#loc320)
    %321 = "top.Weight"() : () -> tensor<32xf32> loc(#loc321)
    %322 = "top.Weight"() : () -> tensor<32x64x3x3xbf16> loc(#loc322)
    %323 = "tpu.Conv2D"(%320, %322, %321) {coeff_merged = false, dilations = [1, 1], do_relu = false, dynweight_reorderd = false, group = 1 : i64, kernel_shape = [3, 3], kernel_zp = 0 : i64, pads = [1, 1, 1, 1], quant_mode = #tpu<rq_mode MultiplierShift>, relu_limit = -1.000000e+00 : f64, round_mode = #tpu<round_mode HalfUp>, strides = [1, 1], support_compress = true, use_3ic_optimize = 0 : i64, weight_is_coeff = 1 : i64, with_bias = true} : (tensor<1x64x28x40xbf16>, tensor<32x64x3x3xbf16>, tensor<32xf32>) -> tensor<1x32x28x40xbf16> loc(#loc323)
    %324 = "top.Weight"() : () -> tensor<1x1x32x8xbf16> loc(#loc324)
    %325 = "top.Weight"() : () -> tensor<1x1x32x8xbf16> loc(#loc325)
    %326 = "tpu.LutBF16"(%323, %324, %325) {lut_mode = #tpu<lut_mode Slope>, max_range = 1.200000e+01 : f64, min_range = -1.200000e+01 : f64} : (tensor<1x32x28x40xbf16>, tensor<1x1x32x8xbf16>, tensor<1x1x32x8xbf16>) -> tensor<1x32x28x40xbf16> loc(#loc326)
    %327 = "top.Weight"() : () -> tensor<64xf32> loc(#loc327)
    %328 = "top.Weight"() : () -> tensor<64x32x3x3xbf16> loc(#loc328)
    %329 = "tpu.Conv2D"(%326, %328, %327) {coeff_merged = false, dilations = [1, 1], do_relu = false, dynweight_reorderd = false, group = 1 : i64, kernel_shape = [3, 3], kernel_zp = 0 : i64, pads = [1, 1, 1, 1], quant_mode = #tpu<rq_mode MultiplierShift>, relu_limit = -1.000000e+00 : f64, round_mode = #tpu<round_mode HalfUp>, strides = [1, 1], support_compress = true, use_3ic_optimize = 0 : i64, weight_is_coeff = 1 : i64, with_bias = true} : (tensor<1x32x28x40xbf16>, tensor<64x32x3x3xbf16>, tensor<64xf32>) -> tensor<1x64x28x40xbf16> loc(#loc329)
    %330 = "top.Weight"() : () -> tensor<1x1x32x8xbf16> loc(#loc330)
    %331 = "top.Weight"() : () -> tensor<1x1x32x8xbf16> loc(#loc331)
    %332 = "tpu.LutBF16"(%329, %330, %331) {lut_mode = #tpu<lut_mode Slope>, max_range = 1.200000e+01 : f64, min_range = -1.200000e+01 : f64} : (tensor<1x64x28x40xbf16>, tensor<1x1x32x8xbf16>, tensor<1x1x32x8xbf16>) -> tensor<1x64x28x40xbf16> loc(#loc332)
    %333 = "tpu.Add"(%320, %332) {do_relu = false, is_scalar = false, relu_limit = -1.000000e+00 : f64} : (tensor<1x64x28x40xbf16>, tensor<1x64x28x40xbf16>) -> tensor<1x64x28x40xbf16> loc(#loc333)
    %334 = "tpu.Concat"(%319, %320, %333) {axis = 1 : si32, do_relu = false, only_merge = false, relu_limit = -1.000000e+00 : f64} : (tensor<1x64x28x40xbf16>, tensor<1x64x28x40xbf16>, tensor<1x64x28x40xbf16>) -> tensor<1x192x28x40xbf16> loc(#loc334)
    %335 = "top.Weight"() : () -> tensor<128xf32> loc(#loc335)
    %336 = "top.Weight"() : () -> tensor<128x192x1x1xbf16> loc(#loc336)
    %337 = "tpu.Conv2D"(%334, %336, %335) {coeff_merged = false, dilations = [1, 1], do_relu = false, dynweight_reorderd = false, group = 1 : i64, kernel_shape = [1, 1], kernel_zp = 0 : i64, pads = [0, 0, 0, 0], quant_mode = #tpu<rq_mode MultiplierShift>, relu_limit = -1.000000e+00 : f64, round_mode = #tpu<round_mode HalfUp>, strides = [1, 1], support_compress = true, use_3ic_optimize = 0 : i64, weight_is_coeff = 1 : i64, with_bias = true} : (tensor<1x192x28x40xbf16>, tensor<128x192x1x1xbf16>, tensor<128xf32>) -> tensor<1x128x28x40xbf16> loc(#loc337)
    %338 = "top.Weight"() : () -> tensor<1x1x32x8xbf16> loc(#loc338)
    %339 = "top.Weight"() : () -> tensor<1x1x32x8xbf16> loc(#loc339)
    %340 = "tpu.LutBF16"(%337, %338, %339) {lut_mode = #tpu<lut_mode Slope>, max_range = 1.200000e+01 : f64, min_range = -1.200000e+01 : f64} : (tensor<1x128x28x40xbf16>, tensor<1x1x32x8xbf16>, tensor<1x1x32x8xbf16>) -> tensor<1x128x28x40xbf16> loc(#loc340)
    %341 = "top.Weight"() : () -> tensor<128xf32> loc(#loc341)
    %342 = "top.Weight"() : () -> tensor<128x128x3x3xbf16> loc(#loc342)
    %343 = "tpu.Conv2D"(%340, %342, %341) {coeff_merged = false, dilations = [1, 1], do_relu = false, dynweight_reorderd = false, group = 1 : i64, kernel_shape = [3, 3], kernel_zp = 0 : i64, pads = [1, 1, 1, 1], quant_mode = #tpu<rq_mode MultiplierShift>, relu_limit = -1.000000e+00 : f64, round_mode = #tpu<round_mode HalfUp>, strides = [2, 2], support_compress = true, use_3ic_optimize = 0 : i64, weight_is_coeff = 1 : i64, with_bias = true} : (tensor<1x128x28x40xbf16>, tensor<128x128x3x3xbf16>, tensor<128xf32>) -> tensor<1x128x14x20xbf16> loc(#loc343)
    %344 = "top.Weight"() : () -> tensor<64xf32> loc(#loc344)
    %345 = "top.Weight"() : () -> tensor<64x128x3x3xbf16> loc(#loc345)
    %346 = "tpu.Conv2D"(%340, %345, %344) {coeff_merged = false, dilations = [1, 1], do_relu = false, dynweight_reorderd = false, group = 1 : i64, kernel_shape = [3, 3], kernel_zp = 0 : i64, pads = [1, 1, 1, 1], quant_mode = #tpu<rq_mode MultiplierShift>, relu_limit = -1.000000e+00 : f64, round_mode = #tpu<round_mode HalfUp>, strides = [1, 1], support_compress = true, use_3ic_optimize = 0 : i64, weight_is_coeff = 1 : i64, with_bias = true} : (tensor<1x128x28x40xbf16>, tensor<64x128x3x3xbf16>, tensor<64xf32>) -> tensor<1x64x28x40xbf16> loc(#loc346)
    %347 = "top.Weight"() : () -> tensor<128xf32> loc(#loc347)
    %348 = "top.Weight"() : () -> tensor<128x1x3x3xbf16> loc(#loc348)
    %349 = "tpu.Conv2D"(%340, %348, %347) {coeff_merged = false, dilations = [1, 1], do_relu = false, dynweight_reorderd = false, group = 128 : i64, kernel_shape = [3, 3], kernel_zp = 0 : i64, pads = [1, 1, 1, 1], quant_mode = #tpu<rq_mode MultiplierShift>, relu_limit = -1.000000e+00 : f64, round_mode = #tpu<round_mode HalfUp>, strides = [1, 1], support_compress = true, use_3ic_optimize = 0 : i64, weight_is_coeff = 1 : i64, with_bias = true} : (tensor<1x128x28x40xbf16>, tensor<128x1x3x3xbf16>, tensor<128xf32>) -> tensor<1x128x28x40xbf16> loc(#loc349)
    %350 = "top.Weight"() : () -> tensor<1x1x32x8xbf16> loc(#loc350)
    %351 = "top.Weight"() : () -> tensor<1x1x32x8xbf16> loc(#loc351)
    %352 = "tpu.LutBF16"(%343, %350, %351) {lut_mode = #tpu<lut_mode Slope>, max_range = 1.200000e+01 : f64, min_range = -1.200000e+01 : f64} : (tensor<1x128x14x20xbf16>, tensor<1x1x32x8xbf16>, tensor<1x1x32x8xbf16>) -> tensor<1x128x14x20xbf16> loc(#loc352)
    %353 = "top.Weight"() : () -> tensor<1x1x32x8xbf16> loc(#loc353)
    %354 = "top.Weight"() : () -> tensor<1x1x32x8xbf16> loc(#loc354)
    %355 = "tpu.LutBF16"(%346, %353, %354) {lut_mode = #tpu<lut_mode Slope>, max_range = 1.200000e+01 : f64, min_range = -1.200000e+01 : f64} : (tensor<1x64x28x40xbf16>, tensor<1x1x32x8xbf16>, tensor<1x1x32x8xbf16>) -> tensor<1x64x28x40xbf16> loc(#loc355)
    %356 = "top.Weight"() : () -> tensor<1x1x32x8xbf16> loc(#loc356)
    %357 = "top.Weight"() : () -> tensor<1x1x32x8xbf16> loc(#loc357)
    %358 = "tpu.LutBF16"(%349, %356, %357) {lut_mode = #tpu<lut_mode Slope>, max_range = 1.200000e+01 : f64, min_range = -1.200000e+01 : f64} : (tensor<1x128x28x40xbf16>, tensor<1x1x32x8xbf16>, tensor<1x1x32x8xbf16>) -> tensor<1x128x28x40xbf16> loc(#loc358)
    %359 = "tpu.Concat"(%352, %309) {axis = 1 : si32, do_relu = false, only_merge = true, relu_limit = -1.000000e+00 : f64} : (tensor<1x128x14x20xbf16>, tensor<1x256x14x20xbf16>) -> tensor<1x384x14x20xbf16> loc(#loc359)
    %360 = "top.Weight"() : () -> tensor<64xf32> loc(#loc360)
    %361 = "top.Weight"() : () -> tensor<64x64x3x3xbf16> loc(#loc361)
    %362 = "tpu.Conv2D"(%355, %361, %360) {coeff_merged = false, dilations = [1, 1], do_relu = false, dynweight_reorderd = false, group = 1 : i64, kernel_shape = [3, 3], kernel_zp = 0 : i64, pads = [1, 1, 1, 1], quant_mode = #tpu<rq_mode MultiplierShift>, relu_limit = -1.000000e+00 : f64, round_mode = #tpu<round_mode HalfUp>, strides = [1, 1], support_compress = true, use_3ic_optimize = 0 : i64, weight_is_coeff = 1 : i64, with_bias = true} : (tensor<1x64x28x40xbf16>, tensor<64x64x3x3xbf16>, tensor<64xf32>) -> tensor<1x64x28x40xbf16> loc(#loc362)
    %363 = "top.Weight"() : () -> tensor<128xf32> loc(#loc363)
    %364 = "top.Weight"() : () -> tensor<128x128x1x1xbf16> loc(#loc364)
    %365 = "tpu.Conv2D"(%358, %364, %363) {coeff_merged = false, dilations = [1, 1], do_relu = false, dynweight_reorderd = false, group = 1 : i64, kernel_shape = [1, 1], kernel_zp = 0 : i64, pads = [0, 0, 0, 0], quant_mode = #tpu<rq_mode MultiplierShift>, relu_limit = -1.000000e+00 : f64, round_mode = #tpu<round_mode HalfUp>, strides = [1, 1], support_compress = true, use_3ic_optimize = 0 : i64, weight_is_coeff = 1 : i64, with_bias = true} : (tensor<1x128x28x40xbf16>, tensor<128x128x1x1xbf16>, tensor<128xf32>) -> tensor<1x128x28x40xbf16> loc(#loc365)
    %366 = "top.Weight"() : () -> tensor<256xf32> loc(#loc366)
    %367 = "top.Weight"() : () -> tensor<256x384x1x1xbf16> loc(#loc367)
    %368 = "tpu.Conv2D"(%359, %367, %366) {coeff_merged = false, dilations = [1, 1], do_relu = false, dynweight_reorderd = false, group = 1 : i64, kernel_shape = [1, 1], kernel_zp = 0 : i64, pads = [0, 0, 0, 0], quant_mode = #tpu<rq_mode MultiplierShift>, relu_limit = -1.000000e+00 : f64, round_mode = #tpu<round_mode HalfUp>, strides = [1, 1], support_compress = true, use_3ic_optimize = 0 : i64, weight_is_coeff = 1 : i64, with_bias = true} : (tensor<1x384x14x20xbf16>, tensor<256x384x1x1xbf16>, tensor<256xf32>) -> tensor<1x256x14x20xbf16> loc(#loc368)
    %369 = "top.Weight"() : () -> tensor<1x1x32x8xbf16> loc(#loc369)
    %370 = "top.Weight"() : () -> tensor<1x1x32x8xbf16> loc(#loc370)
    %371 = "tpu.LutBF16"(%362, %369, %370) {lut_mode = #tpu<lut_mode Slope>, max_range = 1.200000e+01 : f64, min_range = -1.200000e+01 : f64} : (tensor<1x64x28x40xbf16>, tensor<1x1x32x8xbf16>, tensor<1x1x32x8xbf16>) -> tensor<1x64x28x40xbf16> loc(#loc371)
    %372 = "top.Weight"() : () -> tensor<1x1x32x8xbf16> loc(#loc372)
    %373 = "top.Weight"() : () -> tensor<1x1x32x8xbf16> loc(#loc373)
    %374 = "tpu.LutBF16"(%365, %372, %373) {lut_mode = #tpu<lut_mode Slope>, max_range = 1.200000e+01 : f64, min_range = -1.200000e+01 : f64} : (tensor<1x128x28x40xbf16>, tensor<1x1x32x8xbf16>, tensor<1x1x32x8xbf16>) -> tensor<1x128x28x40xbf16> loc(#loc374)
    %375 = "top.Weight"() : () -> tensor<1x1x32x8xbf16> loc(#loc375)
    %376 = "top.Weight"() : () -> tensor<1x1x32x8xbf16> loc(#loc376)
    %377 = "tpu.LutBF16"(%368, %375, %376) {lut_mode = #tpu<lut_mode Slope>, max_range = 1.200000e+01 : f64, min_range = -1.200000e+01 : f64} : (tensor<1x256x14x20xbf16>, tensor<1x1x32x8xbf16>, tensor<1x1x32x8xbf16>) -> tensor<1x256x14x20xbf16> loc(#loc377)
    %378 = "top.Weight"() : () -> tensor<64xf32> loc(#loc378)
    %379 = "top.Weight"() : () -> tensor<64x64x1x1xbf16> loc(#loc379)
    %380 = "tpu.Conv2D"(%371, %379, %378) {coeff_merged = false, dilations = [1, 1], do_relu = false, dynweight_reorderd = false, group = 1 : i64, kernel_shape = [1, 1], kernel_zp = 0 : i64, pads = [0, 0, 0, 0], quant_mode = #tpu<rq_mode MultiplierShift>, relu_limit = -1.000000e+00 : f64, round_mode = #tpu<round_mode HalfUp>, strides = [1, 1], support_compress = true, use_3ic_optimize = 0 : i64, weight_is_coeff = 1 : i64, with_bias = true} : (tensor<1x64x28x40xbf16>, tensor<64x64x1x1xbf16>, tensor<64xf32>) -> tensor<1x64x28x40xbf16> loc(#loc380)
    %381 = "top.Weight"() : () -> tensor<128xf32> loc(#loc381)
    %382 = "top.Weight"() : () -> tensor<128x1x3x3xbf16> loc(#loc382)
    %383 = "tpu.Conv2D"(%374, %382, %381) {coeff_merged = false, dilations = [1, 1], do_relu = false, dynweight_reorderd = false, group = 128 : i64, kernel_shape = [3, 3], kernel_zp = 0 : i64, pads = [1, 1, 1, 1], quant_mode = #tpu<rq_mode MultiplierShift>, relu_limit = -1.000000e+00 : f64, round_mode = #tpu<round_mode HalfUp>, strides = [1, 1], support_compress = true, use_3ic_optimize = 0 : i64, weight_is_coeff = 1 : i64, with_bias = true} : (tensor<1x128x28x40xbf16>, tensor<128x1x3x3xbf16>, tensor<128xf32>) -> tensor<1x128x28x40xbf16> loc(#loc383)
    %384 = "tpu.Slice"(%377, %0, %0, %0, %0) {axes = [], ends = [9223372036854775807, 128, 9223372036854775807, 9223372036854775807], hasparamConvert_axes = [1], offset = [0, 0, 0, 0], steps = [1, 1, 1, 1]} : (tensor<1x256x14x20xbf16>, none, none, none, none) -> tensor<1x128x14x20xbf16> loc(#loc384)
    %385 = "tpu.Slice"(%377, %0, %0, %0, %0) {axes = [], ends = [9223372036854775807, 256, 9223372036854775807, 9223372036854775807], hasparamConvert_axes = [1], offset = [0, 128, 0, 0], steps = [1, 1, 1, 1]} : (tensor<1x256x14x20xbf16>, none, none, none, none) -> tensor<1x128x14x20xbf16> loc(#loc385)
    %386 = "top.Weight"() : () -> tensor<64xf32> loc(#loc386)
    %387 = "top.Weight"() : () -> tensor<64x128x3x3xbf16> loc(#loc387)
    %388 = "tpu.Conv2D"(%385, %387, %386) {coeff_merged = false, dilations = [1, 1], do_relu = false, dynweight_reorderd = false, group = 1 : i64, kernel_shape = [3, 3], kernel_zp = 0 : i64, pads = [1, 1, 1, 1], quant_mode = #tpu<rq_mode MultiplierShift>, relu_limit = -1.000000e+00 : f64, round_mode = #tpu<round_mode HalfUp>, strides = [1, 1], support_compress = true, use_3ic_optimize = 0 : i64, weight_is_coeff = 1 : i64, with_bias = true} : (tensor<1x128x14x20xbf16>, tensor<64x128x3x3xbf16>, tensor<64xf32>) -> tensor<1x64x14x20xbf16> loc(#loc388)
    %389 = "top.Weight"() : () -> tensor<1x1x32x8xbf16> loc(#loc389)
    %390 = "top.Weight"() : () -> tensor<1x1x32x8xbf16> loc(#loc390)
    %391 = "tpu.LutBF16"(%383, %389, %390) {lut_mode = #tpu<lut_mode Slope>, max_range = 1.200000e+01 : f64, min_range = -1.200000e+01 : f64} : (tensor<1x128x28x40xbf16>, tensor<1x1x32x8xbf16>, tensor<1x1x32x8xbf16>) -> tensor<1x128x28x40xbf16> loc(#loc391)
    %392 = "top.Weight"() : () -> tensor<128xf32> loc(#loc392)
    %393 = "top.Weight"() : () -> tensor<128x128x1x1xbf16> loc(#loc393)
    %394 = "tpu.Conv2D"(%391, %393, %392) {coeff_merged = false, dilations = [1, 1], do_relu = false, dynweight_reorderd = false, group = 1 : i64, kernel_shape = [1, 1], kernel_zp = 0 : i64, pads = [0, 0, 0, 0], quant_mode = #tpu<rq_mode MultiplierShift>, relu_limit = -1.000000e+00 : f64, round_mode = #tpu<round_mode HalfUp>, strides = [1, 1], support_compress = true, use_3ic_optimize = 0 : i64, weight_is_coeff = 1 : i64, with_bias = true} : (tensor<1x128x28x40xbf16>, tensor<128x128x1x1xbf16>, tensor<128xf32>) -> tensor<1x128x28x40xbf16> loc(#loc394)
    %395 = "top.Weight"() : () -> tensor<1x1x32x8xbf16> loc(#loc395)
    %396 = "top.Weight"() : () -> tensor<1x1x32x8xbf16> loc(#loc396)
    %397 = "tpu.LutBF16"(%388, %395, %396) {lut_mode = #tpu<lut_mode Slope>, max_range = 1.200000e+01 : f64, min_range = -1.200000e+01 : f64} : (tensor<1x64x14x20xbf16>, tensor<1x1x32x8xbf16>, tensor<1x1x32x8xbf16>) -> tensor<1x64x14x20xbf16> loc(#loc397)
    %398 = "top.Weight"() : () -> tensor<128xf32> loc(#loc398)
    %399 = "top.Weight"() : () -> tensor<128x64x3x3xbf16> loc(#loc399)
    %400 = "tpu.Conv2D"(%397, %399, %398) {coeff_merged = false, dilations = [1, 1], do_relu = false, dynweight_reorderd = false, group = 1 : i64, kernel_shape = [3, 3], kernel_zp = 0 : i64, pads = [1, 1, 1, 1], quant_mode = #tpu<rq_mode MultiplierShift>, relu_limit = -1.000000e+00 : f64, round_mode = #tpu<round_mode HalfUp>, strides = [1, 1], support_compress = true, use_3ic_optimize = 0 : i64, weight_is_coeff = 1 : i64, with_bias = true} : (tensor<1x64x14x20xbf16>, tensor<128x64x3x3xbf16>, tensor<128xf32>) -> tensor<1x128x14x20xbf16> loc(#loc400)
    %401 = "top.Weight"() : () -> tensor<1x1x32x8xbf16> loc(#loc401)
    %402 = "top.Weight"() : () -> tensor<1x1x32x8xbf16> loc(#loc402)
    %403 = "tpu.LutBF16"(%394, %401, %402) {lut_mode = #tpu<lut_mode Slope>, max_range = 1.200000e+01 : f64, min_range = -1.200000e+01 : f64} : (tensor<1x128x28x40xbf16>, tensor<1x1x32x8xbf16>, tensor<1x1x32x8xbf16>) -> tensor<1x128x28x40xbf16> loc(#loc403)
    %404 = "top.Weight"() : () -> tensor<4xf32> loc(#loc404)
    %405 = "top.Weight"() : () -> tensor<4x128x1x1xbf16> loc(#loc405)
    %406 = "tpu.Conv2D"(%403, %405, %404) {coeff_merged = false, dilations = [1, 1], do_relu = false, dynweight_reorderd = false, group = 1 : i64, kernel_shape = [1, 1], kernel_zp = 0 : i64, pads = [0, 0, 0, 0], quant_mode = #tpu<rq_mode MultiplierShift>, relu_limit = -1.000000e+00 : f64, round_mode = #tpu<round_mode HalfUp>, strides = [1, 1], support_compress = true, use_3ic_optimize = 0 : i64, weight_is_coeff = 1 : i64, with_bias = true} : (tensor<1x128x28x40xbf16>, tensor<4x128x1x1xbf16>, tensor<4xf32>) -> tensor<1x4x28x40xbf16> loc(#loc406)
    %407 = "top.Weight"() : () -> tensor<1x1x32x8xbf16> loc(#loc407)
    %408 = "top.Weight"() : () -> tensor<1x1x32x8xbf16> loc(#loc408)
    %409 = "tpu.LutBF16"(%400, %407, %408) {lut_mode = #tpu<lut_mode Slope>, max_range = 1.200000e+01 : f64, min_range = -1.200000e+01 : f64} : (tensor<1x128x14x20xbf16>, tensor<1x1x32x8xbf16>, tensor<1x1x32x8xbf16>) -> tensor<1x128x14x20xbf16> loc(#loc409)
    %410 = "tpu.Concat"(%380, %406) {axis = 1 : si32, do_relu = false, only_merge = true, relu_limit = -1.000000e+00 : f64} : (tensor<1x64x28x40xbf16>, tensor<1x4x28x40xbf16>) -> tensor<1x68x28x40xbf16> loc(#loc410)
    %411 = "tpu.Add"(%385, %409) {do_relu = false, is_scalar = false, relu_limit = -1.000000e+00 : f64} : (tensor<1x128x14x20xbf16>, tensor<1x128x14x20xbf16>) -> tensor<1x128x14x20xbf16> loc(#loc411)
    %412 = "tpu.Reshape"(%410) {flatten_start_dim = -1 : i64, shape = [1, 68, -1]} : (tensor<1x68x28x40xbf16>) -> tensor<1x68x1120xbf16> loc(#loc412)
    %413 = "tpu.Concat"(%384, %385, %411) {axis = 1 : si32, do_relu = false, only_merge = false, relu_limit = -1.000000e+00 : f64} : (tensor<1x128x14x20xbf16>, tensor<1x128x14x20xbf16>, tensor<1x128x14x20xbf16>) -> tensor<1x384x14x20xbf16> loc(#loc413)
    %414 = "top.Weight"() : () -> tensor<256xf32> loc(#loc414)
    %415 = "top.Weight"() : () -> tensor<256x384x1x1xbf16> loc(#loc415)
    %416 = "tpu.Conv2D"(%413, %415, %414) {coeff_merged = false, dilations = [1, 1], do_relu = false, dynweight_reorderd = false, group = 1 : i64, kernel_shape = [1, 1], kernel_zp = 0 : i64, pads = [0, 0, 0, 0], quant_mode = #tpu<rq_mode MultiplierShift>, relu_limit = -1.000000e+00 : f64, round_mode = #tpu<round_mode HalfUp>, strides = [1, 1], support_compress = true, use_3ic_optimize = 0 : i64, weight_is_coeff = 1 : i64, with_bias = true} : (tensor<1x384x14x20xbf16>, tensor<256x384x1x1xbf16>, tensor<256xf32>) -> tensor<1x256x14x20xbf16> loc(#loc416)
    %417 = "top.Weight"() : () -> tensor<1x1x32x8xbf16> loc(#loc417)
    %418 = "top.Weight"() : () -> tensor<1x1x32x8xbf16> loc(#loc418)
    %419 = "tpu.LutBF16"(%416, %417, %418) {lut_mode = #tpu<lut_mode Slope>, max_range = 1.200000e+01 : f64, min_range = -1.200000e+01 : f64} : (tensor<1x256x14x20xbf16>, tensor<1x1x32x8xbf16>, tensor<1x1x32x8xbf16>) -> tensor<1x256x14x20xbf16> loc(#loc419)
    %420 = "top.Weight"() : () -> tensor<256xf32> loc(#loc420)
    %421 = "top.Weight"() : () -> tensor<256x256x3x3xbf16> loc(#loc421)
    %422 = "tpu.Conv2D"(%419, %421, %420) {coeff_merged = false, dilations = [1, 1], do_relu = false, dynweight_reorderd = false, group = 1 : i64, kernel_shape = [3, 3], kernel_zp = 0 : i64, pads = [1, 1, 1, 1], quant_mode = #tpu<rq_mode MultiplierShift>, relu_limit = -1.000000e+00 : f64, round_mode = #tpu<round_mode HalfUp>, strides = [2, 2], support_compress = true, use_3ic_optimize = 0 : i64, weight_is_coeff = 1 : i64, with_bias = true} : (tensor<1x256x14x20xbf16>, tensor<256x256x3x3xbf16>, tensor<256xf32>) -> tensor<1x256x7x10xbf16> loc(#loc422)
    %423 = "top.Weight"() : () -> tensor<64xf32> loc(#loc423)
    %424 = "top.Weight"() : () -> tensor<64x256x3x3xbf16> loc(#loc424)
    %425 = "tpu.Conv2D"(%419, %424, %423) {coeff_merged = false, dilations = [1, 1], do_relu = false, dynweight_reorderd = false, group = 1 : i64, kernel_shape = [3, 3], kernel_zp = 0 : i64, pads = [1, 1, 1, 1], quant_mode = #tpu<rq_mode MultiplierShift>, relu_limit = -1.000000e+00 : f64, round_mode = #tpu<round_mode HalfUp>, strides = [1, 1], support_compress = true, use_3ic_optimize = 0 : i64, weight_is_coeff = 1 : i64, with_bias = true} : (tensor<1x256x14x20xbf16>, tensor<64x256x3x3xbf16>, tensor<64xf32>) -> tensor<1x64x14x20xbf16> loc(#loc425)
    %426 = "top.Weight"() : () -> tensor<256xf32> loc(#loc426)
    %427 = "top.Weight"() : () -> tensor<256x1x3x3xbf16> loc(#loc427)
    %428 = "tpu.Conv2D"(%419, %427, %426) {coeff_merged = false, dilations = [1, 1], do_relu = false, dynweight_reorderd = false, group = 256 : i64, kernel_shape = [3, 3], kernel_zp = 0 : i64, pads = [1, 1, 1, 1], quant_mode = #tpu<rq_mode MultiplierShift>, relu_limit = -1.000000e+00 : f64, round_mode = #tpu<round_mode HalfUp>, strides = [1, 1], support_compress = true, use_3ic_optimize = 0 : i64, weight_is_coeff = 1 : i64, with_bias = true} : (tensor<1x256x14x20xbf16>, tensor<256x1x3x3xbf16>, tensor<256xf32>) -> tensor<1x256x14x20xbf16> loc(#loc428)
    %429 = "top.Weight"() : () -> tensor<1x1x32x8xbf16> loc(#loc429)
    %430 = "top.Weight"() : () -> tensor<1x1x32x8xbf16> loc(#loc430)
    %431 = "tpu.LutBF16"(%422, %429, %430) {lut_mode = #tpu<lut_mode Slope>, max_range = 1.200000e+01 : f64, min_range = -1.200000e+01 : f64} : (tensor<1x256x7x10xbf16>, tensor<1x1x32x8xbf16>, tensor<1x1x32x8xbf16>) -> tensor<1x256x7x10xbf16> loc(#loc431)
    %432 = "top.Weight"() : () -> tensor<1x1x32x8xbf16> loc(#loc432)
    %433 = "top.Weight"() : () -> tensor<1x1x32x8xbf16> loc(#loc433)
    %434 = "tpu.LutBF16"(%425, %432, %433) {lut_mode = #tpu<lut_mode Slope>, max_range = 1.200000e+01 : f64, min_range = -1.200000e+01 : f64} : (tensor<1x64x14x20xbf16>, tensor<1x1x32x8xbf16>, tensor<1x1x32x8xbf16>) -> tensor<1x64x14x20xbf16> loc(#loc434)
    %435 = "top.Weight"() : () -> tensor<1x1x32x8xbf16> loc(#loc435)
    %436 = "top.Weight"() : () -> tensor<1x1x32x8xbf16> loc(#loc436)
    %437 = "tpu.LutBF16"(%428, %435, %436) {lut_mode = #tpu<lut_mode Slope>, max_range = 1.200000e+01 : f64, min_range = -1.200000e+01 : f64} : (tensor<1x256x14x20xbf16>, tensor<1x1x32x8xbf16>, tensor<1x1x32x8xbf16>) -> tensor<1x256x14x20xbf16> loc(#loc437)
    %438 = "tpu.Concat"(%431, %278) {axis = 1 : si32, do_relu = false, only_merge = true, relu_limit = -1.000000e+00 : f64} : (tensor<1x256x7x10xbf16>, tensor<1x512x7x10xbf16>) -> tensor<1x768x7x10xbf16> loc(#loc438)
    %439 = "top.Weight"() : () -> tensor<64xf32> loc(#loc439)
    %440 = "top.Weight"() : () -> tensor<64x64x3x3xbf16> loc(#loc440)
    %441 = "tpu.Conv2D"(%434, %440, %439) {coeff_merged = false, dilations = [1, 1], do_relu = false, dynweight_reorderd = false, group = 1 : i64, kernel_shape = [3, 3], kernel_zp = 0 : i64, pads = [1, 1, 1, 1], quant_mode = #tpu<rq_mode MultiplierShift>, relu_limit = -1.000000e+00 : f64, round_mode = #tpu<round_mode HalfUp>, strides = [1, 1], support_compress = true, use_3ic_optimize = 0 : i64, weight_is_coeff = 1 : i64, with_bias = true} : (tensor<1x64x14x20xbf16>, tensor<64x64x3x3xbf16>, tensor<64xf32>) -> tensor<1x64x14x20xbf16> loc(#loc441)
    %442 = "top.Weight"() : () -> tensor<128xf32> loc(#loc442)
    %443 = "top.Weight"() : () -> tensor<128x256x1x1xbf16> loc(#loc443)
    %444 = "tpu.Conv2D"(%437, %443, %442) {coeff_merged = false, dilations = [1, 1], do_relu = false, dynweight_reorderd = false, group = 1 : i64, kernel_shape = [1, 1], kernel_zp = 0 : i64, pads = [0, 0, 0, 0], quant_mode = #tpu<rq_mode MultiplierShift>, relu_limit = -1.000000e+00 : f64, round_mode = #tpu<round_mode HalfUp>, strides = [1, 1], support_compress = true, use_3ic_optimize = 0 : i64, weight_is_coeff = 1 : i64, with_bias = true} : (tensor<1x256x14x20xbf16>, tensor<128x256x1x1xbf16>, tensor<128xf32>) -> tensor<1x128x14x20xbf16> loc(#loc444)
    %445 = "top.Weight"() : () -> tensor<512xf32> loc(#loc445)
    %446 = "top.Weight"() : () -> tensor<512x768x1x1xbf16> loc(#loc446)
    %447 = "tpu.Conv2D"(%438, %446, %445) {coeff_merged = false, dilations = [1, 1], do_relu = false, dynweight_reorderd = false, group = 1 : i64, kernel_shape = [1, 1], kernel_zp = 0 : i64, pads = [0, 0, 0, 0], quant_mode = #tpu<rq_mode MultiplierShift>, relu_limit = -1.000000e+00 : f64, round_mode = #tpu<round_mode HalfUp>, strides = [1, 1], support_compress = true, use_3ic_optimize = 0 : i64, weight_is_coeff = 1 : i64, with_bias = true} : (tensor<1x768x7x10xbf16>, tensor<512x768x1x1xbf16>, tensor<512xf32>) -> tensor<1x512x7x10xbf16> loc(#loc447)
    %448 = "top.Weight"() : () -> tensor<1x1x32x8xbf16> loc(#loc448)
    %449 = "top.Weight"() : () -> tensor<1x1x32x8xbf16> loc(#loc449)
    %450 = "tpu.LutBF16"(%441, %448, %449) {lut_mode = #tpu<lut_mode Slope>, max_range = 1.200000e+01 : f64, min_range = -1.200000e+01 : f64} : (tensor<1x64x14x20xbf16>, tensor<1x1x32x8xbf16>, tensor<1x1x32x8xbf16>) -> tensor<1x64x14x20xbf16> loc(#loc450)
    %451 = "top.Weight"() : () -> tensor<1x1x32x8xbf16> loc(#loc451)
    %452 = "top.Weight"() : () -> tensor<1x1x32x8xbf16> loc(#loc452)
    %453 = "tpu.LutBF16"(%444, %451, %452) {lut_mode = #tpu<lut_mode Slope>, max_range = 1.200000e+01 : f64, min_range = -1.200000e+01 : f64} : (tensor<1x128x14x20xbf16>, tensor<1x1x32x8xbf16>, tensor<1x1x32x8xbf16>) -> tensor<1x128x14x20xbf16> loc(#loc453)
    %454 = "top.Weight"() : () -> tensor<1x1x32x8xbf16> loc(#loc454)
    %455 = "top.Weight"() : () -> tensor<1x1x32x8xbf16> loc(#loc455)
    %456 = "tpu.LutBF16"(%447, %454, %455) {lut_mode = #tpu<lut_mode Slope>, max_range = 1.200000e+01 : f64, min_range = -1.200000e+01 : f64} : (tensor<1x512x7x10xbf16>, tensor<1x1x32x8xbf16>, tensor<1x1x32x8xbf16>) -> tensor<1x512x7x10xbf16> loc(#loc456)
    %457 = "top.Weight"() : () -> tensor<64xf32> loc(#loc457)
    %458 = "top.Weight"() : () -> tensor<64x64x1x1xbf16> loc(#loc458)
    %459 = "tpu.Conv2D"(%450, %458, %457) {coeff_merged = false, dilations = [1, 1], do_relu = false, dynweight_reorderd = false, group = 1 : i64, kernel_shape = [1, 1], kernel_zp = 0 : i64, pads = [0, 0, 0, 0], quant_mode = #tpu<rq_mode MultiplierShift>, relu_limit = -1.000000e+00 : f64, round_mode = #tpu<round_mode HalfUp>, strides = [1, 1], support_compress = true, use_3ic_optimize = 0 : i64, weight_is_coeff = 1 : i64, with_bias = true} : (tensor<1x64x14x20xbf16>, tensor<64x64x1x1xbf16>, tensor<64xf32>) -> tensor<1x64x14x20xbf16> loc(#loc459)
    %460 = "top.Weight"() : () -> tensor<128xf32> loc(#loc460)
    %461 = "top.Weight"() : () -> tensor<128x1x3x3xbf16> loc(#loc461)
    %462 = "tpu.Conv2D"(%453, %461, %460) {coeff_merged = false, dilations = [1, 1], do_relu = false, dynweight_reorderd = false, group = 128 : i64, kernel_shape = [3, 3], kernel_zp = 0 : i64, pads = [1, 1, 1, 1], quant_mode = #tpu<rq_mode MultiplierShift>, relu_limit = -1.000000e+00 : f64, round_mode = #tpu<round_mode HalfUp>, strides = [1, 1], support_compress = true, use_3ic_optimize = 0 : i64, weight_is_coeff = 1 : i64, with_bias = true} : (tensor<1x128x14x20xbf16>, tensor<128x1x3x3xbf16>, tensor<128xf32>) -> tensor<1x128x14x20xbf16> loc(#loc462)
    %463 = "tpu.Slice"(%456, %0, %0, %0, %0) {axes = [], ends = [9223372036854775807, 256, 9223372036854775807, 9223372036854775807], hasparamConvert_axes = [1], offset = [0, 0, 0, 0], steps = [1, 1, 1, 1]} : (tensor<1x512x7x10xbf16>, none, none, none, none) -> tensor<1x256x7x10xbf16> loc(#loc463)
    %464 = "tpu.Slice"(%456, %0, %0, %0, %0) {axes = [], ends = [9223372036854775807, 512, 9223372036854775807, 9223372036854775807], hasparamConvert_axes = [1], offset = [0, 256, 0, 0], steps = [1, 1, 1, 1]} : (tensor<1x512x7x10xbf16>, none, none, none, none) -> tensor<1x256x7x10xbf16> loc(#loc464)
    %465 = "top.Weight"() : () -> tensor<128xf32> loc(#loc465)
    %466 = "top.Weight"() : () -> tensor<128x256x1x1xbf16> loc(#loc466)
    %467 = "tpu.Conv2D"(%464, %466, %465) {coeff_merged = false, dilations = [1, 1], do_relu = false, dynweight_reorderd = false, group = 1 : i64, kernel_shape = [1, 1], kernel_zp = 0 : i64, pads = [0, 0, 0, 0], quant_mode = #tpu<rq_mode MultiplierShift>, relu_limit = -1.000000e+00 : f64, round_mode = #tpu<round_mode HalfUp>, strides = [1, 1], support_compress = true, use_3ic_optimize = 0 : i64, weight_is_coeff = 1 : i64, with_bias = true} : (tensor<1x256x7x10xbf16>, tensor<128x256x1x1xbf16>, tensor<128xf32>) -> tensor<1x128x7x10xbf16> loc(#loc467)
    %468 = "top.Weight"() : () -> tensor<128xf32> loc(#loc468)
    %469 = "top.Weight"() : () -> tensor<128x256x1x1xbf16> loc(#loc469)
    %470 = "tpu.Conv2D"(%464, %469, %468) {coeff_merged = false, dilations = [1, 1], do_relu = false, dynweight_reorderd = false, group = 1 : i64, kernel_shape = [1, 1], kernel_zp = 0 : i64, pads = [0, 0, 0, 0], quant_mode = #tpu<rq_mode MultiplierShift>, relu_limit = -1.000000e+00 : f64, round_mode = #tpu<round_mode HalfUp>, strides = [1, 1], support_compress = true, use_3ic_optimize = 0 : i64, weight_is_coeff = 1 : i64, with_bias = true} : (tensor<1x256x7x10xbf16>, tensor<128x256x1x1xbf16>, tensor<128xf32>) -> tensor<1x128x7x10xbf16> loc(#loc470)
    %471 = "top.Weight"() : () -> tensor<1x1x32x8xbf16> loc(#loc471)
    %472 = "top.Weight"() : () -> tensor<1x1x32x8xbf16> loc(#loc472)
    %473 = "tpu.LutBF16"(%462, %471, %472) {lut_mode = #tpu<lut_mode Slope>, max_range = 1.200000e+01 : f64, min_range = -1.200000e+01 : f64} : (tensor<1x128x14x20xbf16>, tensor<1x1x32x8xbf16>, tensor<1x1x32x8xbf16>) -> tensor<1x128x14x20xbf16> loc(#loc473)
    %474 = "top.Weight"() : () -> tensor<128xf32> loc(#loc474)
    %475 = "top.Weight"() : () -> tensor<128x128x1x1xbf16> loc(#loc475)
    %476 = "tpu.Conv2D"(%473, %475, %474) {coeff_merged = false, dilations = [1, 1], do_relu = false, dynweight_reorderd = false, group = 1 : i64, kernel_shape = [1, 1], kernel_zp = 0 : i64, pads = [0, 0, 0, 0], quant_mode = #tpu<rq_mode MultiplierShift>, relu_limit = -1.000000e+00 : f64, round_mode = #tpu<round_mode HalfUp>, strides = [1, 1], support_compress = true, use_3ic_optimize = 0 : i64, weight_is_coeff = 1 : i64, with_bias = true} : (tensor<1x128x14x20xbf16>, tensor<128x128x1x1xbf16>, tensor<128xf32>) -> tensor<1x128x14x20xbf16> loc(#loc476)
    %477 = "top.Weight"() : () -> tensor<1x1x32x8xbf16> loc(#loc477)
    %478 = "top.Weight"() : () -> tensor<1x1x32x8xbf16> loc(#loc478)
    %479 = "tpu.LutBF16"(%467, %477, %478) {lut_mode = #tpu<lut_mode Slope>, max_range = 1.200000e+01 : f64, min_range = -1.200000e+01 : f64} : (tensor<1x128x7x10xbf16>, tensor<1x1x32x8xbf16>, tensor<1x1x32x8xbf16>) -> tensor<1x128x7x10xbf16> loc(#loc479)
    %480 = "top.Weight"() : () -> tensor<1x1x32x8xbf16> loc(#loc480)
    %481 = "top.Weight"() : () -> tensor<1x1x32x8xbf16> loc(#loc481)
    %482 = "tpu.LutBF16"(%470, %480, %481) {lut_mode = #tpu<lut_mode Slope>, max_range = 1.200000e+01 : f64, min_range = -1.200000e+01 : f64} : (tensor<1x128x7x10xbf16>, tensor<1x1x32x8xbf16>, tensor<1x1x32x8xbf16>) -> tensor<1x128x7x10xbf16> loc(#loc482)
    %483 = "top.Weight"() : () -> tensor<128xf32> loc(#loc483)
    %484 = "top.Weight"() : () -> tensor<128x128x3x3xbf16> loc(#loc484)
    %485 = "tpu.Conv2D"(%479, %484, %483) {coeff_merged = false, dilations = [1, 1], do_relu = false, dynweight_reorderd = false, group = 1 : i64, kernel_shape = [3, 3], kernel_zp = 0 : i64, pads = [1, 1, 1, 1], quant_mode = #tpu<rq_mode MultiplierShift>, relu_limit = -1.000000e+00 : f64, round_mode = #tpu<round_mode HalfUp>, strides = [1, 1], support_compress = true, use_3ic_optimize = 0 : i64, weight_is_coeff = 1 : i64, with_bias = true} : (tensor<1x128x7x10xbf16>, tensor<128x128x3x3xbf16>, tensor<128xf32>) -> tensor<1x128x7x10xbf16> loc(#loc485)
    %486 = "top.Weight"() : () -> tensor<1x1x32x8xbf16> loc(#loc486)
    %487 = "top.Weight"() : () -> tensor<1x1x32x8xbf16> loc(#loc487)
    %488 = "tpu.LutBF16"(%476, %486, %487) {lut_mode = #tpu<lut_mode Slope>, max_range = 1.200000e+01 : f64, min_range = -1.200000e+01 : f64} : (tensor<1x128x14x20xbf16>, tensor<1x1x32x8xbf16>, tensor<1x1x32x8xbf16>) -> tensor<1x128x14x20xbf16> loc(#loc488)
    %489 = "top.Weight"() : () -> tensor<4xf32> loc(#loc489)
    %490 = "top.Weight"() : () -> tensor<4x128x1x1xbf16> loc(#loc490)
    %491 = "tpu.Conv2D"(%488, %490, %489) {coeff_merged = false, dilations = [1, 1], do_relu = false, dynweight_reorderd = false, group = 1 : i64, kernel_shape = [1, 1], kernel_zp = 0 : i64, pads = [0, 0, 0, 0], quant_mode = #tpu<rq_mode MultiplierShift>, relu_limit = -1.000000e+00 : f64, round_mode = #tpu<round_mode HalfUp>, strides = [1, 1], support_compress = true, use_3ic_optimize = 0 : i64, weight_is_coeff = 1 : i64, with_bias = true} : (tensor<1x128x14x20xbf16>, tensor<4x128x1x1xbf16>, tensor<4xf32>) -> tensor<1x4x14x20xbf16> loc(#loc491)
    %492 = "top.Weight"() : () -> tensor<1x1x32x8xbf16> loc(#loc492)
    %493 = "top.Weight"() : () -> tensor<1x1x32x8xbf16> loc(#loc493)
    %494 = "tpu.LutBF16"(%485, %492, %493) {lut_mode = #tpu<lut_mode Slope>, max_range = 1.200000e+01 : f64, min_range = -1.200000e+01 : f64} : (tensor<1x128x7x10xbf16>, tensor<1x1x32x8xbf16>, tensor<1x1x32x8xbf16>) -> tensor<1x128x7x10xbf16> loc(#loc494)
    %495 = "tpu.Concat"(%459, %491) {axis = 1 : si32, do_relu = false, only_merge = true, relu_limit = -1.000000e+00 : f64} : (tensor<1x64x14x20xbf16>, tensor<1x4x14x20xbf16>) -> tensor<1x68x14x20xbf16> loc(#loc495)
    %496 = "top.Weight"() : () -> tensor<128xf32> loc(#loc496)
    %497 = "top.Weight"() : () -> tensor<128x128x3x3xbf16> loc(#loc497)
    %498 = "tpu.Conv2D"(%494, %497, %496) {coeff_merged = false, dilations = [1, 1], do_relu = false, dynweight_reorderd = false, group = 1 : i64, kernel_shape = [3, 3], kernel_zp = 0 : i64, pads = [1, 1, 1, 1], quant_mode = #tpu<rq_mode MultiplierShift>, relu_limit = -1.000000e+00 : f64, round_mode = #tpu<round_mode HalfUp>, strides = [1, 1], support_compress = true, use_3ic_optimize = 0 : i64, weight_is_coeff = 1 : i64, with_bias = true} : (tensor<1x128x7x10xbf16>, tensor<128x128x3x3xbf16>, tensor<128xf32>) -> tensor<1x128x7x10xbf16> loc(#loc498)
    %499 = "tpu.Reshape"(%495) {flatten_start_dim = -1 : i64, shape = [1, 68, -1]} : (tensor<1x68x14x20xbf16>) -> tensor<1x68x280xbf16> loc(#loc499)
    %500 = "top.Weight"() : () -> tensor<1x1x32x8xbf16> loc(#loc500)
    %501 = "top.Weight"() : () -> tensor<1x1x32x8xbf16> loc(#loc501)
    %502 = "tpu.LutBF16"(%498, %500, %501) {lut_mode = #tpu<lut_mode Slope>, max_range = 1.200000e+01 : f64, min_range = -1.200000e+01 : f64} : (tensor<1x128x7x10xbf16>, tensor<1x1x32x8xbf16>, tensor<1x1x32x8xbf16>) -> tensor<1x128x7x10xbf16> loc(#loc502)
    %503 = "tpu.Add"(%479, %502) {do_relu = false, is_scalar = false, relu_limit = -1.000000e+00 : f64} : (tensor<1x128x7x10xbf16>, tensor<1x128x7x10xbf16>) -> tensor<1x128x7x10xbf16> loc(#loc503)
    %504 = "top.Weight"() : () -> tensor<128xf32> loc(#loc504)
    %505 = "top.Weight"() : () -> tensor<128x128x3x3xbf16> loc(#loc505)
    %506 = "tpu.Conv2D"(%503, %505, %504) {coeff_merged = false, dilations = [1, 1], do_relu = false, dynweight_reorderd = false, group = 1 : i64, kernel_shape = [3, 3], kernel_zp = 0 : i64, pads = [1, 1, 1, 1], quant_mode = #tpu<rq_mode MultiplierShift>, relu_limit = -1.000000e+00 : f64, round_mode = #tpu<round_mode HalfUp>, strides = [1, 1], support_compress = true, use_3ic_optimize = 0 : i64, weight_is_coeff = 1 : i64, with_bias = true} : (tensor<1x128x7x10xbf16>, tensor<128x128x3x3xbf16>, tensor<128xf32>) -> tensor<1x128x7x10xbf16> loc(#loc506)
    %507 = "top.Weight"() : () -> tensor<1x1x32x8xbf16> loc(#loc507)
    %508 = "top.Weight"() : () -> tensor<1x1x32x8xbf16> loc(#loc508)
    %509 = "tpu.LutBF16"(%506, %507, %508) {lut_mode = #tpu<lut_mode Slope>, max_range = 1.200000e+01 : f64, min_range = -1.200000e+01 : f64} : (tensor<1x128x7x10xbf16>, tensor<1x1x32x8xbf16>, tensor<1x1x32x8xbf16>) -> tensor<1x128x7x10xbf16> loc(#loc509)
    %510 = "top.Weight"() : () -> tensor<128xf32> loc(#loc510)
    %511 = "top.Weight"() : () -> tensor<128x128x3x3xbf16> loc(#loc511)
    %512 = "tpu.Conv2D"(%509, %511, %510) {coeff_merged = false, dilations = [1, 1], do_relu = false, dynweight_reorderd = false, group = 1 : i64, kernel_shape = [3, 3], kernel_zp = 0 : i64, pads = [1, 1, 1, 1], quant_mode = #tpu<rq_mode MultiplierShift>, relu_limit = -1.000000e+00 : f64, round_mode = #tpu<round_mode HalfUp>, strides = [1, 1], support_compress = true, use_3ic_optimize = 0 : i64, weight_is_coeff = 1 : i64, with_bias = true} : (tensor<1x128x7x10xbf16>, tensor<128x128x3x3xbf16>, tensor<128xf32>) -> tensor<1x128x7x10xbf16> loc(#loc512)
    %513 = "top.Weight"() : () -> tensor<1x1x32x8xbf16> loc(#loc513)
    %514 = "top.Weight"() : () -> tensor<1x1x32x8xbf16> loc(#loc514)
    %515 = "tpu.LutBF16"(%512, %513, %514) {lut_mode = #tpu<lut_mode Slope>, max_range = 1.200000e+01 : f64, min_range = -1.200000e+01 : f64} : (tensor<1x128x7x10xbf16>, tensor<1x1x32x8xbf16>, tensor<1x1x32x8xbf16>) -> tensor<1x128x7x10xbf16> loc(#loc515)
    %516 = "tpu.Add"(%503, %515) {do_relu = false, is_scalar = false, relu_limit = -1.000000e+00 : f64} : (tensor<1x128x7x10xbf16>, tensor<1x128x7x10xbf16>) -> tensor<1x128x7x10xbf16> loc(#loc516)
    %517 = "tpu.Concat"(%516, %482) {axis = 1 : si32, do_relu = false, only_merge = true, relu_limit = -1.000000e+00 : f64} : (tensor<1x128x7x10xbf16>, tensor<1x128x7x10xbf16>) -> tensor<1x256x7x10xbf16> loc(#loc517)
    %518 = "top.Weight"() : () -> tensor<256xf32> loc(#loc518)
    %519 = "top.Weight"() : () -> tensor<256x256x1x1xbf16> loc(#loc519)
    %520 = "tpu.Conv2D"(%517, %519, %518) {coeff_merged = false, dilations = [1, 1], do_relu = false, dynweight_reorderd = false, group = 1 : i64, kernel_shape = [1, 1], kernel_zp = 0 : i64, pads = [0, 0, 0, 0], quant_mode = #tpu<rq_mode MultiplierShift>, relu_limit = -1.000000e+00 : f64, round_mode = #tpu<round_mode HalfUp>, strides = [1, 1], support_compress = true, use_3ic_optimize = 0 : i64, weight_is_coeff = 1 : i64, with_bias = true} : (tensor<1x256x7x10xbf16>, tensor<256x256x1x1xbf16>, tensor<256xf32>) -> tensor<1x256x7x10xbf16> loc(#loc520)
    %521 = "top.Weight"() : () -> tensor<1x1x32x8xbf16> loc(#loc521)
    %522 = "top.Weight"() : () -> tensor<1x1x32x8xbf16> loc(#loc522)
    %523 = "tpu.LutBF16"(%520, %521, %522) {lut_mode = #tpu<lut_mode Slope>, max_range = 1.200000e+01 : f64, min_range = -1.200000e+01 : f64} : (tensor<1x256x7x10xbf16>, tensor<1x1x32x8xbf16>, tensor<1x1x32x8xbf16>) -> tensor<1x256x7x10xbf16> loc(#loc523)
    %524 = "tpu.Concat"(%463, %464, %523) {axis = 1 : si32, do_relu = false, only_merge = false, relu_limit = -1.000000e+00 : f64} : (tensor<1x256x7x10xbf16>, tensor<1x256x7x10xbf16>, tensor<1x256x7x10xbf16>) -> tensor<1x768x7x10xbf16> loc(#loc524)
    %525 = "top.Weight"() : () -> tensor<512xf32> loc(#loc525)
    %526 = "top.Weight"() : () -> tensor<512x768x1x1xbf16> loc(#loc526)
    %527 = "tpu.Conv2D"(%524, %526, %525) {coeff_merged = false, dilations = [1, 1], do_relu = false, dynweight_reorderd = false, group = 1 : i64, kernel_shape = [1, 1], kernel_zp = 0 : i64, pads = [0, 0, 0, 0], quant_mode = #tpu<rq_mode MultiplierShift>, relu_limit = -1.000000e+00 : f64, round_mode = #tpu<round_mode HalfUp>, strides = [1, 1], support_compress = true, use_3ic_optimize = 0 : i64, weight_is_coeff = 1 : i64, with_bias = true} : (tensor<1x768x7x10xbf16>, tensor<512x768x1x1xbf16>, tensor<512xf32>) -> tensor<1x512x7x10xbf16> loc(#loc527)
    %528 = "top.Weight"() : () -> tensor<1x1x32x8xbf16> loc(#loc528)
    %529 = "top.Weight"() : () -> tensor<1x1x32x8xbf16> loc(#loc529)
    %530 = "tpu.LutBF16"(%527, %528, %529) {lut_mode = #tpu<lut_mode Slope>, max_range = 1.200000e+01 : f64, min_range = -1.200000e+01 : f64} : (tensor<1x512x7x10xbf16>, tensor<1x1x32x8xbf16>, tensor<1x1x32x8xbf16>) -> tensor<1x512x7x10xbf16> loc(#loc530)
    %531 = "top.Weight"() : () -> tensor<64xf32> loc(#loc531)
    %532 = "top.Weight"() : () -> tensor<64x512x3x3xbf16> loc(#loc532)
    %533 = "tpu.Conv2D"(%530, %532, %531) {coeff_merged = false, dilations = [1, 1], do_relu = false, dynweight_reorderd = false, group = 1 : i64, kernel_shape = [3, 3], kernel_zp = 0 : i64, pads = [1, 1, 1, 1], quant_mode = #tpu<rq_mode MultiplierShift>, relu_limit = -1.000000e+00 : f64, round_mode = #tpu<round_mode HalfUp>, strides = [1, 1], support_compress = true, use_3ic_optimize = 0 : i64, weight_is_coeff = 1 : i64, with_bias = true} : (tensor<1x512x7x10xbf16>, tensor<64x512x3x3xbf16>, tensor<64xf32>) -> tensor<1x64x7x10xbf16> loc(#loc533)
    %534 = "top.Weight"() : () -> tensor<512xf32> loc(#loc534)
    %535 = "top.Weight"() : () -> tensor<512x1x3x3xbf16> loc(#loc535)
    %536 = "tpu.Conv2D"(%530, %535, %534) {coeff_merged = false, dilations = [1, 1], do_relu = false, dynweight_reorderd = false, group = 512 : i64, kernel_shape = [3, 3], kernel_zp = 0 : i64, pads = [1, 1, 1, 1], quant_mode = #tpu<rq_mode MultiplierShift>, relu_limit = -1.000000e+00 : f64, round_mode = #tpu<round_mode HalfUp>, strides = [1, 1], support_compress = true, use_3ic_optimize = 0 : i64, weight_is_coeff = 1 : i64, with_bias = true} : (tensor<1x512x7x10xbf16>, tensor<512x1x3x3xbf16>, tensor<512xf32>) -> tensor<1x512x7x10xbf16> loc(#loc536)
    %537 = "top.Weight"() : () -> tensor<1x1x32x8xbf16> loc(#loc537)
    %538 = "top.Weight"() : () -> tensor<1x1x32x8xbf16> loc(#loc538)
    %539 = "tpu.LutBF16"(%533, %537, %538) {lut_mode = #tpu<lut_mode Slope>, max_range = 1.200000e+01 : f64, min_range = -1.200000e+01 : f64} : (tensor<1x64x7x10xbf16>, tensor<1x1x32x8xbf16>, tensor<1x1x32x8xbf16>) -> tensor<1x64x7x10xbf16> loc(#loc539)
    %540 = "top.Weight"() : () -> tensor<1x1x32x8xbf16> loc(#loc540)
    %541 = "top.Weight"() : () -> tensor<1x1x32x8xbf16> loc(#loc541)
    %542 = "tpu.LutBF16"(%536, %540, %541) {lut_mode = #tpu<lut_mode Slope>, max_range = 1.200000e+01 : f64, min_range = -1.200000e+01 : f64} : (tensor<1x512x7x10xbf16>, tensor<1x1x32x8xbf16>, tensor<1x1x32x8xbf16>) -> tensor<1x512x7x10xbf16> loc(#loc542)
    %543 = "top.Weight"() : () -> tensor<64xf32> loc(#loc543)
    %544 = "top.Weight"() : () -> tensor<64x64x3x3xbf16> loc(#loc544)
    %545 = "tpu.Conv2D"(%539, %544, %543) {coeff_merged = false, dilations = [1, 1], do_relu = false, dynweight_reorderd = false, group = 1 : i64, kernel_shape = [3, 3], kernel_zp = 0 : i64, pads = [1, 1, 1, 1], quant_mode = #tpu<rq_mode MultiplierShift>, relu_limit = -1.000000e+00 : f64, round_mode = #tpu<round_mode HalfUp>, strides = [1, 1], support_compress = true, use_3ic_optimize = 0 : i64, weight_is_coeff = 1 : i64, with_bias = true} : (tensor<1x64x7x10xbf16>, tensor<64x64x3x3xbf16>, tensor<64xf32>) -> tensor<1x64x7x10xbf16> loc(#loc545)
    %546 = "top.Weight"() : () -> tensor<128xf32> loc(#loc546)
    %547 = "top.Weight"() : () -> tensor<128x512x1x1xbf16> loc(#loc547)
    %548 = "tpu.Conv2D"(%542, %547, %546) {coeff_merged = false, dilations = [1, 1], do_relu = false, dynweight_reorderd = false, group = 1 : i64, kernel_shape = [1, 1], kernel_zp = 0 : i64, pads = [0, 0, 0, 0], quant_mode = #tpu<rq_mode MultiplierShift>, relu_limit = -1.000000e+00 : f64, round_mode = #tpu<round_mode HalfUp>, strides = [1, 1], support_compress = true, use_3ic_optimize = 0 : i64, weight_is_coeff = 1 : i64, with_bias = true} : (tensor<1x512x7x10xbf16>, tensor<128x512x1x1xbf16>, tensor<128xf32>) -> tensor<1x128x7x10xbf16> loc(#loc548)
    %549 = "top.Weight"() : () -> tensor<1x1x32x8xbf16> loc(#loc549)
    %550 = "top.Weight"() : () -> tensor<1x1x32x8xbf16> loc(#loc550)
    %551 = "tpu.LutBF16"(%545, %549, %550) {lut_mode = #tpu<lut_mode Slope>, max_range = 1.200000e+01 : f64, min_range = -1.200000e+01 : f64} : (tensor<1x64x7x10xbf16>, tensor<1x1x32x8xbf16>, tensor<1x1x32x8xbf16>) -> tensor<1x64x7x10xbf16> loc(#loc551)
    %552 = "top.Weight"() : () -> tensor<1x1x32x8xbf16> loc(#loc552)
    %553 = "top.Weight"() : () -> tensor<1x1x32x8xbf16> loc(#loc553)
    %554 = "tpu.LutBF16"(%548, %552, %553) {lut_mode = #tpu<lut_mode Slope>, max_range = 1.200000e+01 : f64, min_range = -1.200000e+01 : f64} : (tensor<1x128x7x10xbf16>, tensor<1x1x32x8xbf16>, tensor<1x1x32x8xbf16>) -> tensor<1x128x7x10xbf16> loc(#loc554)
    %555 = "top.Weight"() : () -> tensor<64xf32> loc(#loc555)
    %556 = "top.Weight"() : () -> tensor<64x64x1x1xbf16> loc(#loc556)
    %557 = "tpu.Conv2D"(%551, %556, %555) {coeff_merged = false, dilations = [1, 1], do_relu = false, dynweight_reorderd = false, group = 1 : i64, kernel_shape = [1, 1], kernel_zp = 0 : i64, pads = [0, 0, 0, 0], quant_mode = #tpu<rq_mode MultiplierShift>, relu_limit = -1.000000e+00 : f64, round_mode = #tpu<round_mode HalfUp>, strides = [1, 1], support_compress = true, use_3ic_optimize = 0 : i64, weight_is_coeff = 1 : i64, with_bias = true} : (tensor<1x64x7x10xbf16>, tensor<64x64x1x1xbf16>, tensor<64xf32>) -> tensor<1x64x7x10xbf16> loc(#loc557)
    %558 = "top.Weight"() : () -> tensor<128xf32> loc(#loc558)
    %559 = "top.Weight"() : () -> tensor<128x1x3x3xbf16> loc(#loc559)
    %560 = "tpu.Conv2D"(%554, %559, %558) {coeff_merged = false, dilations = [1, 1], do_relu = false, dynweight_reorderd = false, group = 128 : i64, kernel_shape = [3, 3], kernel_zp = 0 : i64, pads = [1, 1, 1, 1], quant_mode = #tpu<rq_mode MultiplierShift>, relu_limit = -1.000000e+00 : f64, round_mode = #tpu<round_mode HalfUp>, strides = [1, 1], support_compress = true, use_3ic_optimize = 0 : i64, weight_is_coeff = 1 : i64, with_bias = true} : (tensor<1x128x7x10xbf16>, tensor<128x1x3x3xbf16>, tensor<128xf32>) -> tensor<1x128x7x10xbf16> loc(#loc560)
    %561 = "top.Weight"() : () -> tensor<1x1x32x8xbf16> loc(#loc561)
    %562 = "top.Weight"() : () -> tensor<1x1x32x8xbf16> loc(#loc562)
    %563 = "tpu.LutBF16"(%560, %561, %562) {lut_mode = #tpu<lut_mode Slope>, max_range = 1.200000e+01 : f64, min_range = -1.200000e+01 : f64} : (tensor<1x128x7x10xbf16>, tensor<1x1x32x8xbf16>, tensor<1x1x32x8xbf16>) -> tensor<1x128x7x10xbf16> loc(#loc563)
    %564 = "top.Weight"() : () -> tensor<128xf32> loc(#loc564)
    %565 = "top.Weight"() : () -> tensor<128x128x1x1xbf16> loc(#loc565)
    %566 = "tpu.Conv2D"(%563, %565, %564) {coeff_merged = false, dilations = [1, 1], do_relu = false, dynweight_reorderd = false, group = 1 : i64, kernel_shape = [1, 1], kernel_zp = 0 : i64, pads = [0, 0, 0, 0], quant_mode = #tpu<rq_mode MultiplierShift>, relu_limit = -1.000000e+00 : f64, round_mode = #tpu<round_mode HalfUp>, strides = [1, 1], support_compress = true, use_3ic_optimize = 0 : i64, weight_is_coeff = 1 : i64, with_bias = true} : (tensor<1x128x7x10xbf16>, tensor<128x128x1x1xbf16>, tensor<128xf32>) -> tensor<1x128x7x10xbf16> loc(#loc566)
    %567 = "top.Weight"() : () -> tensor<1x1x32x8xbf16> loc(#loc567)
    %568 = "top.Weight"() : () -> tensor<1x1x32x8xbf16> loc(#loc568)
    %569 = "tpu.LutBF16"(%566, %567, %568) {lut_mode = #tpu<lut_mode Slope>, max_range = 1.200000e+01 : f64, min_range = -1.200000e+01 : f64} : (tensor<1x128x7x10xbf16>, tensor<1x1x32x8xbf16>, tensor<1x1x32x8xbf16>) -> tensor<1x128x7x10xbf16> loc(#loc569)
    %570 = "top.Weight"() : () -> tensor<4xf32> loc(#loc570)
    %571 = "top.Weight"() : () -> tensor<4x128x1x1xbf16> loc(#loc571)
    %572 = "tpu.Conv2D"(%569, %571, %570) {coeff_merged = false, dilations = [1, 1], do_relu = false, dynweight_reorderd = false, group = 1 : i64, kernel_shape = [1, 1], kernel_zp = 0 : i64, pads = [0, 0, 0, 0], quant_mode = #tpu<rq_mode MultiplierShift>, relu_limit = -1.000000e+00 : f64, round_mode = #tpu<round_mode HalfUp>, strides = [1, 1], support_compress = true, use_3ic_optimize = 0 : i64, weight_is_coeff = 1 : i64, with_bias = true} : (tensor<1x128x7x10xbf16>, tensor<4x128x1x1xbf16>, tensor<4xf32>) -> tensor<1x4x7x10xbf16> loc(#loc572)
    %573 = "tpu.Concat"(%557, %572) {axis = 1 : si32, do_relu = false, only_merge = true, relu_limit = -1.000000e+00 : f64} : (tensor<1x64x7x10xbf16>, tensor<1x4x7x10xbf16>) -> tensor<1x68x7x10xbf16> loc(#loc573)
    %574 = "tpu.Reshape"(%573) {flatten_start_dim = -1 : i64, shape = [1, 68, -1]} : (tensor<1x68x7x10xbf16>) -> tensor<1x68x70xbf16> loc(#loc574)
    %575 = "tpu.Concat"(%412, %499, %574) {axis = 2 : si32, do_relu = false, only_merge = false, relu_limit = -1.000000e+00 : f64} : (tensor<1x68x1120xbf16>, tensor<1x68x280xbf16>, tensor<1x68x70xbf16>) -> tensor<1x68x1470xbf16> loc(#loc575)
    %576 = "tpu.Slice"(%575, %0, %0, %0, %0) {axes = [], ends = [9223372036854775807, 64, 9223372036854775807], hasparamConvert_axes = [1], offset = [0, 0, 0], steps = [1, 1, 1]} : (tensor<1x68x1470xbf16>, none, none, none, none) -> tensor<1x64x1470xbf16> loc(#loc576)
    %577 = "tpu.Slice"(%575, %0, %0, %0, %0) {axes = [], ends = [9223372036854775807, 68, 9223372036854775807], hasparamConvert_axes = [1], offset = [0, 64, 0], steps = [1, 1, 1]} : (tensor<1x68x1470xbf16>, none, none, none, none) -> tensor<1x4x1470xbf16> loc(#loc577)
    %578 = "tpu.Reshape"(%576) {flatten_start_dim = -1 : i64, shape = [1, 4, 16, 1470]} : (tensor<1x64x1470xbf16>) -> tensor<1x4x16x1470xbf16> loc(#loc578)
    %579 = "top.Weight"() : () -> tensor<1x1x32x8xbf16> loc(#loc579)
    %580 = "top.Weight"() : () -> tensor<1x1x32x8xbf16> loc(#loc580)
    %581 = "tpu.LutBF16"(%577, %579, %580) {bias = 0.000000e+00 : f64, log = false, lut_mode = #tpu<lut_mode Slope>, max_range = 1.200000e+01 : f64, min_range = -1.200000e+01 : f64, scale = 1.000000e+00 : f64} : (tensor<1x4x1470xbf16>, tensor<1x1x32x8xbf16>, tensor<1x1x32x8xbf16>) -> tensor<1x4x1470xbf16> loc(#loc581)
    %582 = "tpu.Cast"(%581) {round_mode = #tpu<round_mode HalfAwayFromZero>, with_scale = true} : (tensor<1x4x1470xbf16>) -> tensor<1x4x1470xf32> loc(#loc582)
    %583 = "tpu.Permute"(%578, %0) {order = [0, 2, 1, 3]} : (tensor<1x4x16x1470xbf16>, none) -> tensor<1x16x4x1470xbf16> loc(#loc583)
    %584 = "top.Weight"() : () -> tensor<1x1x32x8xbf16> loc(#loc584)
    %585 = "top.Weight"() : () -> tensor<1x1x32x8xbf16> loc(#loc585)
    %586 = "top.Weight"() : () -> tensor<1x1x32x8xbf16> loc(#loc586)
    %587 = "top.Weight"() : () -> tensor<1x1x32x8xbf16> loc(#loc587)
    %588 = "tpu.Softmax"(%583, %584, %585, %586, %587, %0) {axis = 1 : si32, beta = 1.000000e+00 : f64, log = false, round_mode = #tpu<round_mode HalfAwayFromZero>} : (tensor<1x16x4x1470xbf16>, tensor<1x1x32x8xbf16>, tensor<1x1x32x8xbf16>, tensor<1x1x32x8xbf16>, tensor<1x1x32x8xbf16>, none) -> tensor<1x16x4x1470xbf16> loc(#loc588)
    %589 = "top.Weight"() : () -> tensor<1x16x1x1xbf16> loc(#loc589)
    %590 = "tpu.Conv2D"(%588, %589, %0) {coeff_merged = false, dilations = [1, 1], do_relu = false, dynweight_reorderd = false, group = 1 : i64, kernel_shape = [1, 1], kernel_zp = 0 : i64, pads = [0, 0, 0, 0], quant_mode = #tpu<rq_mode MultiplierShift>, relu_limit = -1.000000e+00 : f64, round_mode = #tpu<round_mode HalfUp>, strides = [1, 1], support_compress = true, use_3ic_optimize = 0 : i64, weight_is_coeff = 1 : i64, with_bias = false} : (tensor<1x16x4x1470xbf16>, tensor<1x16x1x1xbf16>, none) -> tensor<1x1x4x1470xbf16> loc(#loc590)
    %591 = "tpu.Cast"(%590) {round_mode = #tpu<round_mode HalfAwayFromZero>, with_scale = true} : (tensor<1x1x4x1470xbf16>) -> tensor<1x1x4x1470xf32> loc(#loc591)
    return %591, %582 : tensor<1x1x4x1470xf32>, tensor<1x4x1470xf32> loc(#loc)
  } loc(#loc)
} loc(#loc)
#loc1 = loc("images")
#loc2 = loc("images/model.0/conv/Conv_output_0_Conv_bf16")
#loc3 = loc("model.0.conv.bias")
#loc4 = loc("/model.0/conv/Conv_output_0_Convmodel.0.conv.weight_bf16")
#loc5 = loc("/model.0/conv/Conv_output_0_Conv")
#loc6 = loc("/model.0/act/Mul_output_0_Mul/model.0/act/Mul_output_0_Mul_slope_table_bf16")
#loc7 = loc("/model.0/act/Mul_output_0_Mul/model.0/act/Mul_output_0_Mul_slope_slope_table_bf16")
#loc8 = loc("/model.0/act/Mul_output_0_Mul")
#loc9 = loc("model.1.conv.bias")
#loc10 = loc("/model.1/conv/Conv_output_0_Convmodel.1.conv.weight_bf16")
#loc11 = loc("/model.1/conv/Conv_output_0_Conv")
#loc12 = loc("/model.1/act/Mul_output_0_Mul/model.1/act/Mul_output_0_Mul_slope_table_bf16")
#loc13 = loc("/model.1/act/Mul_output_0_Mul/model.1/act/Mul_output_0_Mul_slope_slope_table_bf16")
#loc14 = loc("/model.1/act/Mul_output_0_Mul")
#loc15 = loc("model.2.cv1.conv.bias")
#loc16 = loc("/model.2/cv1/conv/Conv_output_0_Convmodel.2.cv1.conv.weight_bf16")
#loc17 = loc("/model.2/cv1/conv/Conv_output_0_Conv")
#loc18 = loc("/model.2/cv1/act/Mul_output_0_Mul/model.2/cv1/act/Mul_output_0_Mul_slope_table_bf16")
#loc19 = loc("/model.2/cv1/act/Mul_output_0_Mul/model.2/cv1/act/Mul_output_0_Mul_slope_slope_table_bf16")
#loc20 = loc("/model.2/cv1/act/Mul_output_0_Mul")
#loc21 = loc("/model.2/Split_output_0_Split")
#loc22 = loc("/model.2/Split_output_1_Split")
#loc23 = loc("model.2.m.0.cv1.conv.bias")
#loc24 = loc("/model.2/m.0/cv1/conv/Conv_output_0_Convmodel.2.m.0.cv1.conv.weight_bf16")
#loc25 = loc("/model.2/m.0/cv1/conv/Conv_output_0_Conv")
#loc26 = loc("/model.2/m.0/cv1/act/Mul_output_0_Mul/model.2/m.0/cv1/act/Mul_output_0_Mul_slope_table_bf16")
#loc27 = loc("/model.2/m.0/cv1/act/Mul_output_0_Mul/model.2/m.0/cv1/act/Mul_output_0_Mul_slope_slope_table_bf16")
#loc28 = loc("/model.2/m.0/cv1/act/Mul_output_0_Mul")
#loc29 = loc("model.2.m.0.cv2.conv.bias")
#loc30 = loc("/model.2/m.0/cv2/conv/Conv_output_0_Convmodel.2.m.0.cv2.conv.weight_bf16")
#loc31 = loc("/model.2/m.0/cv2/conv/Conv_output_0_Conv")
#loc32 = loc("/model.2/m.0/cv2/act/Mul_output_0_Mul/model.2/m.0/cv2/act/Mul_output_0_Mul_slope_table_bf16")
#loc33 = loc("/model.2/m.0/cv2/act/Mul_output_0_Mul/model.2/m.0/cv2/act/Mul_output_0_Mul_slope_slope_table_bf16")
#loc34 = loc("/model.2/m.0/cv2/act/Mul_output_0_Mul")
#loc35 = loc("/model.2/m.0/Add_output_0_Add")
#loc36 = loc("/model.2/Concat_output_0_Concat")
#loc37 = loc("model.2.cv2.conv.bias")
#loc38 = loc("/model.2/cv2/conv/Conv_output_0_Convmodel.2.cv2.conv.weight_bf16")
#loc39 = loc("/model.2/cv2/conv/Conv_output_0_Conv")
#loc40 = loc("/model.2/cv2/act/Mul_output_0_Mul/model.2/cv2/act/Mul_output_0_Mul_slope_table_bf16")
#loc41 = loc("/model.2/cv2/act/Mul_output_0_Mul/model.2/cv2/act/Mul_output_0_Mul_slope_slope_table_bf16")
#loc42 = loc("/model.2/cv2/act/Mul_output_0_Mul")
#loc43 = loc("model.3.conv.bias")
#loc44 = loc("/model.3/conv/Conv_output_0_Convmodel.3.conv.weight_bf16")
#loc45 = loc("/model.3/conv/Conv_output_0_Conv")
#loc46 = loc("/model.3/act/Mul_output_0_Mul/model.3/act/Mul_output_0_Mul_slope_table_bf16")
#loc47 = loc("/model.3/act/Mul_output_0_Mul/model.3/act/Mul_output_0_Mul_slope_slope_table_bf16")
#loc48 = loc("/model.3/act/Mul_output_0_Mul")
#loc49 = loc("model.4.cv1.conv.bias")
#loc50 = loc("/model.4/cv1/conv/Conv_output_0_Convmodel.4.cv1.conv.weight_bf16")
#loc51 = loc("/model.4/cv1/conv/Conv_output_0_Conv")
#loc52 = loc("/model.4/cv1/act/Mul_output_0_Mul/model.4/cv1/act/Mul_output_0_Mul_slope_table_bf16")
#loc53 = loc("/model.4/cv1/act/Mul_output_0_Mul/model.4/cv1/act/Mul_output_0_Mul_slope_slope_table_bf16")
#loc54 = loc("/model.4/cv1/act/Mul_output_0_Mul")
#loc55 = loc("/model.4/Split_output_0_Split")
#loc56 = loc("/model.4/Split_output_1_Split")
#loc57 = loc("model.4.m.0.cv1.conv.bias")
#loc58 = loc("/model.4/m.0/cv1/conv/Conv_output_0_Convmodel.4.m.0.cv1.conv.weight_bf16")
#loc59 = loc("/model.4/m.0/cv1/conv/Conv_output_0_Conv")
#loc60 = loc("/model.4/m.0/cv1/act/Mul_output_0_Mul/model.4/m.0/cv1/act/Mul_output_0_Mul_slope_table_bf16")
#loc61 = loc("/model.4/m.0/cv1/act/Mul_output_0_Mul/model.4/m.0/cv1/act/Mul_output_0_Mul_slope_slope_table_bf16")
#loc62 = loc("/model.4/m.0/cv1/act/Mul_output_0_Mul")
#loc63 = loc("model.4.m.0.cv2.conv.bias")
#loc64 = loc("/model.4/m.0/cv2/conv/Conv_output_0_Convmodel.4.m.0.cv2.conv.weight_bf16")
#loc65 = loc("/model.4/m.0/cv2/conv/Conv_output_0_Conv")
#loc66 = loc("/model.4/m.0/cv2/act/Mul_output_0_Mul/model.4/m.0/cv2/act/Mul_output_0_Mul_slope_table_bf16")
#loc67 = loc("/model.4/m.0/cv2/act/Mul_output_0_Mul/model.4/m.0/cv2/act/Mul_output_0_Mul_slope_slope_table_bf16")
#loc68 = loc("/model.4/m.0/cv2/act/Mul_output_0_Mul")
#loc69 = loc("/model.4/m.0/Add_output_0_Add")
#loc70 = loc("/model.4/Concat_output_0_Concat")
#loc71 = loc("model.4.cv2.conv.bias")
#loc72 = loc("/model.4/cv2/conv/Conv_output_0_Convmodel.4.cv2.conv.weight_bf16")
#loc73 = loc("/model.4/cv2/conv/Conv_output_0_Conv")
#loc74 = loc("/model.4/cv2/act/Mul_output_0_Mul/model.4/cv2/act/Mul_output_0_Mul_slope_table_bf16")
#loc75 = loc("/model.4/cv2/act/Mul_output_0_Mul/model.4/cv2/act/Mul_output_0_Mul_slope_slope_table_bf16")
#loc76 = loc("/model.4/cv2/act/Mul_output_0_Mul")
#loc77 = loc("model.5.conv.bias")
#loc78 = loc("/model.5/conv/Conv_output_0_Convmodel.5.conv.weight_bf16")
#loc79 = loc("/model.5/conv/Conv_output_0_Conv")
#loc80 = loc("/model.5/act/Mul_output_0_Mul/model.5/act/Mul_output_0_Mul_slope_table_bf16")
#loc81 = loc("/model.5/act/Mul_output_0_Mul/model.5/act/Mul_output_0_Mul_slope_slope_table_bf16")
#loc82 = loc("/model.5/act/Mul_output_0_Mul")
#loc83 = loc("model.6.cv1.conv.bias")
#loc84 = loc("/model.6/cv1/conv/Conv_output_0_Convmodel.6.cv1.conv.weight_bf16")
#loc85 = loc("/model.6/cv1/conv/Conv_output_0_Conv")
#loc86 = loc("/model.6/cv1/act/Mul_output_0_Mul/model.6/cv1/act/Mul_output_0_Mul_slope_table_bf16")
#loc87 = loc("/model.6/cv1/act/Mul_output_0_Mul/model.6/cv1/act/Mul_output_0_Mul_slope_slope_table_bf16")
#loc88 = loc("/model.6/cv1/act/Mul_output_0_Mul")
#loc89 = loc("/model.6/Split_output_0_Split")
#loc90 = loc("/model.6/Split_output_1_Split")
#loc91 = loc("model.6.m.0.cv1.conv.bias")
#loc92 = loc("/model.6/m.0/cv1/conv/Conv_output_0_Convmodel.6.m.0.cv1.conv.weight_bf16")
#loc93 = loc("/model.6/m.0/cv1/conv/Conv_output_0_Conv")
#loc94 = loc("model.6.m.0.cv2.conv.bias")
#loc95 = loc("/model.6/m.0/cv2/conv/Conv_output_0_Convmodel.6.m.0.cv2.conv.weight_bf16")
#loc96 = loc("/model.6/m.0/cv2/conv/Conv_output_0_Conv")
#loc97 = loc("/model.6/m.0/cv1/act/Mul_output_0_Mul/model.6/m.0/cv1/act/Mul_output_0_Mul_slope_table_bf16")
#loc98 = loc("/model.6/m.0/cv1/act/Mul_output_0_Mul/model.6/m.0/cv1/act/Mul_output_0_Mul_slope_slope_table_bf16")
#loc99 = loc("/model.6/m.0/cv1/act/Mul_output_0_Mul")
#loc100 = loc("/model.6/m.0/cv2/act/Mul_output_0_Mul/model.6/m.0/cv2/act/Mul_output_0_Mul_slope_table_bf16")
#loc101 = loc("/model.6/m.0/cv2/act/Mul_output_0_Mul/model.6/m.0/cv2/act/Mul_output_0_Mul_slope_slope_table_bf16")
#loc102 = loc("/model.6/m.0/cv2/act/Mul_output_0_Mul")
#loc103 = loc("model.6.m.0.m.0.cv1.conv.bias")
#loc104 = loc("/model.6/m.0/m/m.0/cv1/conv/Conv_output_0_Convmodel.6.m.0.m.0.cv1.conv.weight_bf16")
#loc105 = loc("/model.6/m.0/m/m.0/cv1/conv/Conv_output_0_Conv")
#loc106 = loc("/model.6/m.0/m/m.0/cv1/act/Mul_output_0_Mul/model.6/m.0/m/m.0/cv1/act/Mul_output_0_Mul_slope_table_bf16")
#loc107 = loc("/model.6/m.0/m/m.0/cv1/act/Mul_output_0_Mul/model.6/m.0/m/m.0/cv1/act/Mul_output_0_Mul_slope_slope_table_bf16")
#loc108 = loc("/model.6/m.0/m/m.0/cv1/act/Mul_output_0_Mul")
#loc109 = loc("model.6.m.0.m.0.cv2.conv.bias")
#loc110 = loc("/model.6/m.0/m/m.0/cv2/conv/Conv_output_0_Convmodel.6.m.0.m.0.cv2.conv.weight_bf16")
#loc111 = loc("/model.6/m.0/m/m.0/cv2/conv/Conv_output_0_Conv")
#loc112 = loc("/model.6/m.0/m/m.0/cv2/act/Mul_output_0_Mul/model.6/m.0/m/m.0/cv2/act/Mul_output_0_Mul_slope_table_bf16")
#loc113 = loc("/model.6/m.0/m/m.0/cv2/act/Mul_output_0_Mul/model.6/m.0/m/m.0/cv2/act/Mul_output_0_Mul_slope_slope_table_bf16")
#loc114 = loc("/model.6/m.0/m/m.0/cv2/act/Mul_output_0_Mul")
#loc115 = loc("/model.6/m.0/m/m.0/Add_output_0_Add")
#loc116 = loc("model.6.m.0.m.1.cv1.conv.bias")
#loc117 = loc("/model.6/m.0/m/m.1/cv1/conv/Conv_output_0_Convmodel.6.m.0.m.1.cv1.conv.weight_bf16")
#loc118 = loc("/model.6/m.0/m/m.1/cv1/conv/Conv_output_0_Conv")
#loc119 = loc("/model.6/m.0/m/m.1/cv1/act/Mul_output_0_Mul/model.6/m.0/m/m.1/cv1/act/Mul_output_0_Mul_slope_table_bf16")
#loc120 = loc("/model.6/m.0/m/m.1/cv1/act/Mul_output_0_Mul/model.6/m.0/m/m.1/cv1/act/Mul_output_0_Mul_slope_slope_table_bf16")
#loc121 = loc("/model.6/m.0/m/m.1/cv1/act/Mul_output_0_Mul")
#loc122 = loc("model.6.m.0.m.1.cv2.conv.bias")
#loc123 = loc("/model.6/m.0/m/m.1/cv2/conv/Conv_output_0_Convmodel.6.m.0.m.1.cv2.conv.weight_bf16")
#loc124 = loc("/model.6/m.0/m/m.1/cv2/conv/Conv_output_0_Conv")
#loc125 = loc("/model.6/m.0/m/m.1/cv2/act/Mul_output_0_Mul/model.6/m.0/m/m.1/cv2/act/Mul_output_0_Mul_slope_table_bf16")
#loc126 = loc("/model.6/m.0/m/m.1/cv2/act/Mul_output_0_Mul/model.6/m.0/m/m.1/cv2/act/Mul_output_0_Mul_slope_slope_table_bf16")
#loc127 = loc("/model.6/m.0/m/m.1/cv2/act/Mul_output_0_Mul")
#loc128 = loc("/model.6/m.0/m/m.1/Add_output_0_Add")
#loc129 = loc("/model.6/m.0/Concat_output_0_Concat")
#loc130 = loc("model.6.m.0.cv3.conv.bias")
#loc131 = loc("/model.6/m.0/cv3/conv/Conv_output_0_Convmodel.6.m.0.cv3.conv.weight_bf16")
#loc132 = loc("/model.6/m.0/cv3/conv/Conv_output_0_Conv")
#loc133 = loc("/model.6/m.0/cv3/act/Mul_output_0_Mul/model.6/m.0/cv3/act/Mul_output_0_Mul_slope_table_bf16")
#loc134 = loc("/model.6/m.0/cv3/act/Mul_output_0_Mul/model.6/m.0/cv3/act/Mul_output_0_Mul_slope_slope_table_bf16")
#loc135 = loc("/model.6/m.0/cv3/act/Mul_output_0_Mul")
#loc136 = loc("/model.6/Concat_output_0_Concat")
#loc137 = loc("model.6.cv2.conv.bias")
#loc138 = loc("/model.6/cv2/conv/Conv_output_0_Convmodel.6.cv2.conv.weight_bf16")
#loc139 = loc("/model.6/cv2/conv/Conv_output_0_Conv")
#loc140 = loc("/model.6/cv2/act/Mul_output_0_Mul/model.6/cv2/act/Mul_output_0_Mul_slope_table_bf16")
#loc141 = loc("/model.6/cv2/act/Mul_output_0_Mul/model.6/cv2/act/Mul_output_0_Mul_slope_slope_table_bf16")
#loc142 = loc("/model.6/cv2/act/Mul_output_0_Mul")
#loc143 = loc("model.7.conv.bias")
#loc144 = loc("/model.7/conv/Conv_output_0_Convmodel.7.conv.weight_bf16")
#loc145 = loc("/model.7/conv/Conv_output_0_Conv")
#loc146 = loc("/model.7/act/Mul_output_0_Mul/model.7/act/Mul_output_0_Mul_slope_table_bf16")
#loc147 = loc("/model.7/act/Mul_output_0_Mul/model.7/act/Mul_output_0_Mul_slope_slope_table_bf16")
#loc148 = loc("/model.7/act/Mul_output_0_Mul")
#loc149 = loc("model.8.cv1.conv.bias")
#loc150 = loc("/model.8/cv1/conv/Conv_output_0_Convmodel.8.cv1.conv.weight_bf16")
#loc151 = loc("/model.8/cv1/conv/Conv_output_0_Conv")
#loc152 = loc("/model.8/cv1/act/Mul_output_0_Mul/model.8/cv1/act/Mul_output_0_Mul_slope_table_bf16")
#loc153 = loc("/model.8/cv1/act/Mul_output_0_Mul/model.8/cv1/act/Mul_output_0_Mul_slope_slope_table_bf16")
#loc154 = loc("/model.8/cv1/act/Mul_output_0_Mul")
#loc155 = loc("/model.8/Split_output_0_Split")
#loc156 = loc("/model.8/Split_output_1_Split")
#loc157 = loc("model.8.m.0.cv1.conv.bias")
#loc158 = loc("/model.8/m.0/cv1/conv/Conv_output_0_Convmodel.8.m.0.cv1.conv.weight_bf16")
#loc159 = loc("/model.8/m.0/cv1/conv/Conv_output_0_Conv")
#loc160 = loc("model.8.m.0.cv2.conv.bias")
#loc161 = loc("/model.8/m.0/cv2/conv/Conv_output_0_Convmodel.8.m.0.cv2.conv.weight_bf16")
#loc162 = loc("/model.8/m.0/cv2/conv/Conv_output_0_Conv")
#loc163 = loc("/model.8/m.0/cv1/act/Mul_output_0_Mul/model.8/m.0/cv1/act/Mul_output_0_Mul_slope_table_bf16")
#loc164 = loc("/model.8/m.0/cv1/act/Mul_output_0_Mul/model.8/m.0/cv1/act/Mul_output_0_Mul_slope_slope_table_bf16")
#loc165 = loc("/model.8/m.0/cv1/act/Mul_output_0_Mul")
#loc166 = loc("/model.8/m.0/cv2/act/Mul_output_0_Mul/model.8/m.0/cv2/act/Mul_output_0_Mul_slope_table_bf16")
#loc167 = loc("/model.8/m.0/cv2/act/Mul_output_0_Mul/model.8/m.0/cv2/act/Mul_output_0_Mul_slope_slope_table_bf16")
#loc168 = loc("/model.8/m.0/cv2/act/Mul_output_0_Mul")
#loc169 = loc("model.8.m.0.m.0.cv1.conv.bias")
#loc170 = loc("/model.8/m.0/m/m.0/cv1/conv/Conv_output_0_Convmodel.8.m.0.m.0.cv1.conv.weight_bf16")
#loc171 = loc("/model.8/m.0/m/m.0/cv1/conv/Conv_output_0_Conv")
#loc172 = loc("/model.8/m.0/m/m.0/cv1/act/Mul_output_0_Mul/model.8/m.0/m/m.0/cv1/act/Mul_output_0_Mul_slope_table_bf16")
#loc173 = loc("/model.8/m.0/m/m.0/cv1/act/Mul_output_0_Mul/model.8/m.0/m/m.0/cv1/act/Mul_output_0_Mul_slope_slope_table_bf16")
#loc174 = loc("/model.8/m.0/m/m.0/cv1/act/Mul_output_0_Mul")
#loc175 = loc("model.8.m.0.m.0.cv2.conv.bias")
#loc176 = loc("/model.8/m.0/m/m.0/cv2/conv/Conv_output_0_Convmodel.8.m.0.m.0.cv2.conv.weight_bf16")
#loc177 = loc("/model.8/m.0/m/m.0/cv2/conv/Conv_output_0_Conv")
#loc178 = loc("/model.8/m.0/m/m.0/cv2/act/Mul_output_0_Mul/model.8/m.0/m/m.0/cv2/act/Mul_output_0_Mul_slope_table_bf16")
#loc179 = loc("/model.8/m.0/m/m.0/cv2/act/Mul_output_0_Mul/model.8/m.0/m/m.0/cv2/act/Mul_output_0_Mul_slope_slope_table_bf16")
#loc180 = loc("/model.8/m.0/m/m.0/cv2/act/Mul_output_0_Mul")
#loc181 = loc("/model.8/m.0/m/m.0/Add_output_0_Add")
#loc182 = loc("model.8.m.0.m.1.cv1.conv.bias")
#loc183 = loc("/model.8/m.0/m/m.1/cv1/conv/Conv_output_0_Convmodel.8.m.0.m.1.cv1.conv.weight_bf16")
#loc184 = loc("/model.8/m.0/m/m.1/cv1/conv/Conv_output_0_Conv")
#loc185 = loc("/model.8/m.0/m/m.1/cv1/act/Mul_output_0_Mul/model.8/m.0/m/m.1/cv1/act/Mul_output_0_Mul_slope_table_bf16")
#loc186 = loc("/model.8/m.0/m/m.1/cv1/act/Mul_output_0_Mul/model.8/m.0/m/m.1/cv1/act/Mul_output_0_Mul_slope_slope_table_bf16")
#loc187 = loc("/model.8/m.0/m/m.1/cv1/act/Mul_output_0_Mul")
#loc188 = loc("model.8.m.0.m.1.cv2.conv.bias")
#loc189 = loc("/model.8/m.0/m/m.1/cv2/conv/Conv_output_0_Convmodel.8.m.0.m.1.cv2.conv.weight_bf16")
#loc190 = loc("/model.8/m.0/m/m.1/cv2/conv/Conv_output_0_Conv")
#loc191 = loc("/model.8/m.0/m/m.1/cv2/act/Mul_output_0_Mul/model.8/m.0/m/m.1/cv2/act/Mul_output_0_Mul_slope_table_bf16")
#loc192 = loc("/model.8/m.0/m/m.1/cv2/act/Mul_output_0_Mul/model.8/m.0/m/m.1/cv2/act/Mul_output_0_Mul_slope_slope_table_bf16")
#loc193 = loc("/model.8/m.0/m/m.1/cv2/act/Mul_output_0_Mul")
#loc194 = loc("/model.8/m.0/m/m.1/Add_output_0_Add")
#loc195 = loc("/model.8/m.0/Concat_output_0_Concat")
#loc196 = loc("model.8.m.0.cv3.conv.bias")
#loc197 = loc("/model.8/m.0/cv3/conv/Conv_output_0_Convmodel.8.m.0.cv3.conv.weight_bf16")
#loc198 = loc("/model.8/m.0/cv3/conv/Conv_output_0_Conv")
#loc199 = loc("/model.8/m.0/cv3/act/Mul_output_0_Mul/model.8/m.0/cv3/act/Mul_output_0_Mul_slope_table_bf16")
#loc200 = loc("/model.8/m.0/cv3/act/Mul_output_0_Mul/model.8/m.0/cv3/act/Mul_output_0_Mul_slope_slope_table_bf16")
#loc201 = loc("/model.8/m.0/cv3/act/Mul_output_0_Mul")
#loc202 = loc("/model.8/Concat_output_0_Concat")
#loc203 = loc("model.8.cv2.conv.bias")
#loc204 = loc("/model.8/cv2/conv/Conv_output_0_Convmodel.8.cv2.conv.weight_bf16")
#loc205 = loc("/model.8/cv2/conv/Conv_output_0_Conv")
#loc206 = loc("/model.8/cv2/act/Mul_output_0_Mul/model.8/cv2/act/Mul_output_0_Mul_slope_table_bf16")
#loc207 = loc("/model.8/cv2/act/Mul_output_0_Mul/model.8/cv2/act/Mul_output_0_Mul_slope_slope_table_bf16")
#loc208 = loc("/model.8/cv2/act/Mul_output_0_Mul")
#loc209 = loc("model.9.cv1.conv.bias")
#loc210 = loc("/model.9/cv1/conv/Conv_output_0_Convmodel.9.cv1.conv.weight_bf16")
#loc211 = loc("/model.9/cv1/conv/Conv_output_0_Conv")
#loc212 = loc("/model.9/cv1/act/Mul_output_0_Mul/model.9/cv1/act/Mul_output_0_Mul_slope_table_bf16")
#loc213 = loc("/model.9/cv1/act/Mul_output_0_Mul/model.9/cv1/act/Mul_output_0_Mul_slope_slope_table_bf16")
#loc214 = loc("/model.9/cv1/act/Mul_output_0_Mul")
#loc215 = loc("/model.9/m/MaxPool_output_0_MaxPool")
#loc216 = loc("/model.9/m_1/MaxPool_output_0_MaxPool")
#loc217 = loc("/model.9/m_2/MaxPool_output_0_MaxPool")
#loc218 = loc("/model.9/Concat_output_0_Concat")
#loc219 = loc("model.9.cv2.conv.bias")
#loc220 = loc("/model.9/cv2/conv/Conv_output_0_Convmodel.9.cv2.conv.weight_bf16")
#loc221 = loc("/model.9/cv2/conv/Conv_output_0_Conv")
#loc222 = loc("/model.9/cv2/act/Mul_output_0_Mul/model.9/cv2/act/Mul_output_0_Mul_slope_table_bf16")
#loc223 = loc("/model.9/cv2/act/Mul_output_0_Mul/model.9/cv2/act/Mul_output_0_Mul_slope_slope_table_bf16")
#loc224 = loc("/model.9/cv2/act/Mul_output_0_Mul")
#loc225 = loc("model.10.cv1.conv.bias")
#loc226 = loc("/model.10/cv1/conv/Conv_output_0_Convmodel.10.cv1.conv.weight_bf16")
#loc227 = loc("/model.10/cv1/conv/Conv_output_0_Conv")
#loc228 = loc("/model.10/cv1/act/Mul_output_0_Mul/model.10/cv1/act/Mul_output_0_Mul_slope_table_bf16")
#loc229 = loc("/model.10/cv1/act/Mul_output_0_Mul/model.10/cv1/act/Mul_output_0_Mul_slope_slope_table_bf16")
#loc230 = loc("/model.10/cv1/act/Mul_output_0_Mul")
#loc231 = loc("/model.10/Split_output_0_Split")
#loc232 = loc("/model.10/Split_output_1_Split")
#loc233 = loc("model.10.m.0.attn.qkv.conv.bias")
#loc234 = loc("/model.10/m/m.0/attn/qkv/conv/Conv_output_0_Convmodel.10.m.0.attn.qkv.conv.weight_bf16")
#loc235 = loc("/model.10/m/m.0/attn/qkv/conv/Conv_output_0_Conv")
#loc236 = loc("/model.10/m/m.0/attn/Reshape_output_0_Reshape")
#loc237 = loc("/model.10/m/m.0/attn/Split_output_0_Split")
#loc238 = loc("/model.10/m/m.0/attn/Split_output_1_Split")
#loc239 = loc("/model.10/m/m.0/attn/Split_output_2_Split")
#loc240 = loc("/model.10/m/m.0/attn/Transpose_output_0_Transpose")
#loc241 = loc("/model.10/m/m.0/attn/Reshape_2_output_0_Reshape")
#loc242 = loc("/model.10/m/m.0/attn/MatMul_output_0_MatMul")
#loc243 = loc("model.10.m.0.attn.pe.conv.bias")
#loc244 = loc("/model.10/m/m.0/attn/pe/conv/Conv_output_0_Convmodel.10.m.0.attn.pe.conv.weight_bf16")
#loc245 = loc("/model.10/m/m.0/attn/pe/conv/Conv_output_0_Conv")
#loc246 = loc("/model.10/m/m.0/attn/Mul_output_0_Mul/model.10/m/m.0/attn/Mul_output_0_Mul_slope_table_bf16")
#loc247 = loc("/model.10/m/m.0/attn/Mul_output_0_Mul/model.10/m/m.0/attn/Mul_output_0_Mul_slope_slope_table_bf16")
#loc248 = loc("/model.10/m/m.0/attn/Mul_output_0_Mul")
#loc249 = loc("/model.10/m/m.0/attn/Softmax_output_0_Softmax/model.10/m/m.0/attn/Softmax_output_0_Softmax_slope_table_bf16")
#loc250 = loc("/model.10/m/m.0/attn/Softmax_output_0_Softmax/model.10/m/m.0/attn/Softmax_output_0_Softmax_slope_slope_table_bf16")
#loc251 = loc("/model.10/m/m.0/attn/Softmax_output_0_Softmax/model.10/m/m.0/attn/Softmax_output_0_Softmax_pow_table_bf16")
#loc252 = loc("/model.10/m/m.0/attn/Softmax_output_0_Softmax/model.10/m/m.0/attn/Softmax_output_0_Softmax_pow_mantissa_table_bf16")
#loc253 = loc("/model.10/m/m.0/attn/Softmax_output_0_Softmax")
#loc254 = loc("/model.10/m/m.0/attn/Transpose_1_output_0_Transpose")
#loc255 = loc("/model.10/m/m.0/attn/MatMul_1_output_0_MatMul")
#loc256 = loc("/model.10/m/m.0/attn/Reshape_1_output_0_Reshape")
#loc257 = loc("/model.10/m/m.0/attn/Add_output_0_Add")
#loc258 = loc("model.10.m.0.attn.proj.conv.bias")
#loc259 = loc("/model.10/m/m.0/attn/proj/conv/Conv_output_0_Convmodel.10.m.0.attn.proj.conv.weight_bf16")
#loc260 = loc("/model.10/m/m.0/attn/proj/conv/Conv_output_0_Conv")
#loc261 = loc("/model.10/m/m.0/Add_output_0_Add")
#loc262 = loc("model.10.m.0.ffn.0.conv.bias")
#loc263 = loc("/model.10/m/m.0/ffn/ffn.0/conv/Conv_output_0_Convmodel.10.m.0.ffn.0.conv.weight_bf16")
#loc264 = loc("/model.10/m/m.0/ffn/ffn.0/conv/Conv_output_0_Conv")
#loc265 = loc("/model.10/m/m.0/ffn/ffn.0/act/Mul_output_0_Mul/model.10/m/m.0/ffn/ffn.0/act/Mul_output_0_Mul_slope_table_bf16")
#loc266 = loc("/model.10/m/m.0/ffn/ffn.0/act/Mul_output_0_Mul/model.10/m/m.0/ffn/ffn.0/act/Mul_output_0_Mul_slope_slope_table_bf16")
#loc267 = loc("/model.10/m/m.0/ffn/ffn.0/act/Mul_output_0_Mul")
#loc268 = loc("model.10.m.0.ffn.1.conv.bias")
#loc269 = loc("/model.10/m/m.0/ffn/ffn.1/conv/Conv_output_0_Convmodel.10.m.0.ffn.1.conv.weight_bf16")
#loc270 = loc("/model.10/m/m.0/ffn/ffn.1/conv/Conv_output_0_Conv")
#loc271 = loc("/model.10/m/m.0/Add_1_output_0_Add")
#loc272 = loc("/model.10/Concat_output_0_Concat")
#loc273 = loc("model.10.cv2.conv.bias")
#loc274 = loc("/model.10/cv2/conv/Conv_output_0_Convmodel.10.cv2.conv.weight_bf16")
#loc275 = loc("/model.10/cv2/conv/Conv_output_0_Conv")
#loc276 = loc("/model.10/cv2/act/Mul_output_0_Mul/model.10/cv2/act/Mul_output_0_Mul_slope_table_bf16")
#loc277 = loc("/model.10/cv2/act/Mul_output_0_Mul/model.10/cv2/act/Mul_output_0_Mul_slope_slope_table_bf16")
#loc278 = loc("/model.10/cv2/act/Mul_output_0_Mul")
#loc279 = loc("/model.11/Resize_output_0_Resize/model.11/Resize_output_0_Resize_/model.11/Resize_output_0_Resizefilter_bf16")
#loc280 = loc("/model.11/Resize_output_0_Resize")
#loc281 = loc("/model.12/Concat_output_0_Concat")
#loc282 = loc("model.13.cv1.conv.bias")
#loc283 = loc("/model.13/cv1/conv/Conv_output_0_Convmodel.13.cv1.conv.weight_bf16")
#loc284 = loc("/model.13/cv1/conv/Conv_output_0_Conv")
#loc285 = loc("/model.13/cv1/act/Mul_output_0_Mul/model.13/cv1/act/Mul_output_0_Mul_slope_table_bf16")
#loc286 = loc("/model.13/cv1/act/Mul_output_0_Mul/model.13/cv1/act/Mul_output_0_Mul_slope_slope_table_bf16")
#loc287 = loc("/model.13/cv1/act/Mul_output_0_Mul")
#loc288 = loc("/model.13/Split_output_0_Split")
#loc289 = loc("/model.13/Split_output_1_Split")
#loc290 = loc("model.13.m.0.cv1.conv.bias")
#loc291 = loc("/model.13/m.0/cv1/conv/Conv_output_0_Convmodel.13.m.0.cv1.conv.weight_bf16")
#loc292 = loc("/model.13/m.0/cv1/conv/Conv_output_0_Conv")
#loc293 = loc("/model.13/m.0/cv1/act/Mul_output_0_Mul/model.13/m.0/cv1/act/Mul_output_0_Mul_slope_table_bf16")
#loc294 = loc("/model.13/m.0/cv1/act/Mul_output_0_Mul/model.13/m.0/cv1/act/Mul_output_0_Mul_slope_slope_table_bf16")
#loc295 = loc("/model.13/m.0/cv1/act/Mul_output_0_Mul")
#loc296 = loc("model.13.m.0.cv2.conv.bias")
#loc297 = loc("/model.13/m.0/cv2/conv/Conv_output_0_Convmodel.13.m.0.cv2.conv.weight_bf16")
#loc298 = loc("/model.13/m.0/cv2/conv/Conv_output_0_Conv")
#loc299 = loc("/model.13/m.0/cv2/act/Mul_output_0_Mul/model.13/m.0/cv2/act/Mul_output_0_Mul_slope_table_bf16")
#loc300 = loc("/model.13/m.0/cv2/act/Mul_output_0_Mul/model.13/m.0/cv2/act/Mul_output_0_Mul_slope_slope_table_bf16")
#loc301 = loc("/model.13/m.0/cv2/act/Mul_output_0_Mul")
#loc302 = loc("/model.13/m.0/Add_output_0_Add")
#loc303 = loc("/model.13/Concat_output_0_Concat")
#loc304 = loc("model.13.cv2.conv.bias")
#loc305 = loc("/model.13/cv2/conv/Conv_output_0_Convmodel.13.cv2.conv.weight_bf16")
#loc306 = loc("/model.13/cv2/conv/Conv_output_0_Conv")
#loc307 = loc("/model.13/cv2/act/Mul_output_0_Mul/model.13/cv2/act/Mul_output_0_Mul_slope_table_bf16")
#loc308 = loc("/model.13/cv2/act/Mul_output_0_Mul/model.13/cv2/act/Mul_output_0_Mul_slope_slope_table_bf16")
#loc309 = loc("/model.13/cv2/act/Mul_output_0_Mul")
#loc310 = loc("/model.14/Resize_output_0_Resize/model.14/Resize_output_0_Resize_/model.14/Resize_output_0_Resizefilter_bf16")
#loc311 = loc("/model.14/Resize_output_0_Resize")
#loc312 = loc("/model.15/Concat_output_0_Concat")
#loc313 = loc("model.16.cv1.conv.bias")
#loc314 = loc("/model.16/cv1/conv/Conv_output_0_Convmodel.16.cv1.conv.weight_bf16")
#loc315 = loc("/model.16/cv1/conv/Conv_output_0_Conv")
#loc316 = loc("/model.16/cv1/act/Mul_output_0_Mul/model.16/cv1/act/Mul_output_0_Mul_slope_table_bf16")
#loc317 = loc("/model.16/cv1/act/Mul_output_0_Mul/model.16/cv1/act/Mul_output_0_Mul_slope_slope_table_bf16")
#loc318 = loc("/model.16/cv1/act/Mul_output_0_Mul")
#loc319 = loc("/model.16/Split_output_0_Split")
#loc320 = loc("/model.16/Split_output_1_Split")
#loc321 = loc("model.16.m.0.cv1.conv.bias")
#loc322 = loc("/model.16/m.0/cv1/conv/Conv_output_0_Convmodel.16.m.0.cv1.conv.weight_bf16")
#loc323 = loc("/model.16/m.0/cv1/conv/Conv_output_0_Conv")
#loc324 = loc("/model.16/m.0/cv1/act/Mul_output_0_Mul/model.16/m.0/cv1/act/Mul_output_0_Mul_slope_table_bf16")
#loc325 = loc("/model.16/m.0/cv1/act/Mul_output_0_Mul/model.16/m.0/cv1/act/Mul_output_0_Mul_slope_slope_table_bf16")
#loc326 = loc("/model.16/m.0/cv1/act/Mul_output_0_Mul")
#loc327 = loc("model.16.m.0.cv2.conv.bias")
#loc328 = loc("/model.16/m.0/cv2/conv/Conv_output_0_Convmodel.16.m.0.cv2.conv.weight_bf16")
#loc329 = loc("/model.16/m.0/cv2/conv/Conv_output_0_Conv")
#loc330 = loc("/model.16/m.0/cv2/act/Mul_output_0_Mul/model.16/m.0/cv2/act/Mul_output_0_Mul_slope_table_bf16")
#loc331 = loc("/model.16/m.0/cv2/act/Mul_output_0_Mul/model.16/m.0/cv2/act/Mul_output_0_Mul_slope_slope_table_bf16")
#loc332 = loc("/model.16/m.0/cv2/act/Mul_output_0_Mul")
#loc333 = loc("/model.16/m.0/Add_output_0_Add")
#loc334 = loc("/model.16/Concat_output_0_Concat")
#loc335 = loc("model.16.cv2.conv.bias")
#loc336 = loc("/model.16/cv2/conv/Conv_output_0_Convmodel.16.cv2.conv.weight_bf16")
#loc337 = loc("/model.16/cv2/conv/Conv_output_0_Conv")
#loc338 = loc("/model.16/cv2/act/Mul_output_0_Mul/model.16/cv2/act/Mul_output_0_Mul_slope_table_bf16")
#loc339 = loc("/model.16/cv2/act/Mul_output_0_Mul/model.16/cv2/act/Mul_output_0_Mul_slope_slope_table_bf16")
#loc340 = loc("/model.16/cv2/act/Mul_output_0_Mul")
#loc341 = loc("model.17.conv.bias")
#loc342 = loc("/model.17/conv/Conv_output_0_Convmodel.17.conv.weight_bf16")
#loc343 = loc("/model.17/conv/Conv_output_0_Conv")
#loc344 = loc("model.23.cv2.0.0.conv.bias")
#loc345 = loc("/model.23/cv2.0/cv2.0.0/conv/Conv_output_0_Convmodel.23.cv2.0.0.conv.weight_bf16")
#loc346 = loc("/model.23/cv2.0/cv2.0.0/conv/Conv_output_0_Conv")
#loc347 = loc("model.23.cv3.0.0.0.conv.bias")
#loc348 = loc("/model.23/cv3.0/cv3.0.0/cv3.0.0.0/conv/Conv_output_0_Convmodel.23.cv3.0.0.0.conv.weight_bf16")
#loc349 = loc("/model.23/cv3.0/cv3.0.0/cv3.0.0.0/conv/Conv_output_0_Conv")
#loc350 = loc("/model.17/act/Mul_output_0_Mul/model.17/act/Mul_output_0_Mul_slope_table_bf16")
#loc351 = loc("/model.17/act/Mul_output_0_Mul/model.17/act/Mul_output_0_Mul_slope_slope_table_bf16")
#loc352 = loc("/model.17/act/Mul_output_0_Mul")
#loc353 = loc("/model.23/cv2.0/cv2.0.0/act/Mul_output_0_Mul/model.23/cv2.0/cv2.0.0/act/Mul_output_0_Mul_slope_table_bf16")
#loc354 = loc("/model.23/cv2.0/cv2.0.0/act/Mul_output_0_Mul/model.23/cv2.0/cv2.0.0/act/Mul_output_0_Mul_slope_slope_table_bf16")
#loc355 = loc("/model.23/cv2.0/cv2.0.0/act/Mul_output_0_Mul")
#loc356 = loc("/model.23/cv3.0/cv3.0.0/cv3.0.0.0/act/Mul_output_0_Mul/model.23/cv3.0/cv3.0.0/cv3.0.0.0/act/Mul_output_0_Mul_slope_table_bf16")
#loc357 = loc("/model.23/cv3.0/cv3.0.0/cv3.0.0.0/act/Mul_output_0_Mul/model.23/cv3.0/cv3.0.0/cv3.0.0.0/act/Mul_output_0_Mul_slope_slope_table_bf16")
#loc358 = loc("/model.23/cv3.0/cv3.0.0/cv3.0.0.0/act/Mul_output_0_Mul")
#loc359 = loc("/model.18/Concat_output_0_Concat")
#loc360 = loc("model.23.cv2.0.1.conv.bias")
#loc361 = loc("/model.23/cv2.0/cv2.0.1/conv/Conv_output_0_Convmodel.23.cv2.0.1.conv.weight_bf16")
#loc362 = loc("/model.23/cv2.0/cv2.0.1/conv/Conv_output_0_Conv")
#loc363 = loc("model.23.cv3.0.0.1.conv.bias")
#loc364 = loc("/model.23/cv3.0/cv3.0.0/cv3.0.0.1/conv/Conv_output_0_Convmodel.23.cv3.0.0.1.conv.weight_bf16")
#loc365 = loc("/model.23/cv3.0/cv3.0.0/cv3.0.0.1/conv/Conv_output_0_Conv")
#loc366 = loc("model.19.cv1.conv.bias")
#loc367 = loc("/model.19/cv1/conv/Conv_output_0_Convmodel.19.cv1.conv.weight_bf16")
#loc368 = loc("/model.19/cv1/conv/Conv_output_0_Conv")
#loc369 = loc("/model.23/cv2.0/cv2.0.1/act/Mul_output_0_Mul/model.23/cv2.0/cv2.0.1/act/Mul_output_0_Mul_slope_table_bf16")
#loc370 = loc("/model.23/cv2.0/cv2.0.1/act/Mul_output_0_Mul/model.23/cv2.0/cv2.0.1/act/Mul_output_0_Mul_slope_slope_table_bf16")
#loc371 = loc("/model.23/cv2.0/cv2.0.1/act/Mul_output_0_Mul")
#loc372 = loc("/model.23/cv3.0/cv3.0.0/cv3.0.0.1/act/Mul_output_0_Mul/model.23/cv3.0/cv3.0.0/cv3.0.0.1/act/Mul_output_0_Mul_slope_table_bf16")
#loc373 = loc("/model.23/cv3.0/cv3.0.0/cv3.0.0.1/act/Mul_output_0_Mul/model.23/cv3.0/cv3.0.0/cv3.0.0.1/act/Mul_output_0_Mul_slope_slope_table_bf16")
#loc374 = loc("/model.23/cv3.0/cv3.0.0/cv3.0.0.1/act/Mul_output_0_Mul")
#loc375 = loc("/model.19/cv1/act/Mul_output_0_Mul/model.19/cv1/act/Mul_output_0_Mul_slope_table_bf16")
#loc376 = loc("/model.19/cv1/act/Mul_output_0_Mul/model.19/cv1/act/Mul_output_0_Mul_slope_slope_table_bf16")
#loc377 = loc("/model.19/cv1/act/Mul_output_0_Mul")
#loc378 = loc("model.23.cv2.0.2.bias")
#loc379 = loc("/model.23/cv2.0/cv2.0.2/Conv_output_0_Convmodel.23.cv2.0.2.weight_bf16")
#loc380 = loc("/model.23/cv2.0/cv2.0.2/Conv_output_0_Conv")
#loc381 = loc("model.23.cv3.0.1.0.conv.bias")
#loc382 = loc("/model.23/cv3.0/cv3.0.1/cv3.0.1.0/conv/Conv_output_0_Convmodel.23.cv3.0.1.0.conv.weight_bf16")
#loc383 = loc("/model.23/cv3.0/cv3.0.1/cv3.0.1.0/conv/Conv_output_0_Conv")
#loc384 = loc("/model.19/Split_output_0_Split")
#loc385 = loc("/model.19/Split_output_1_Split")
#loc386 = loc("model.19.m.0.cv1.conv.bias")
#loc387 = loc("/model.19/m.0/cv1/conv/Conv_output_0_Convmodel.19.m.0.cv1.conv.weight_bf16")
#loc388 = loc("/model.19/m.0/cv1/conv/Conv_output_0_Conv")
#loc389 = loc("/model.23/cv3.0/cv3.0.1/cv3.0.1.0/act/Mul_output_0_Mul/model.23/cv3.0/cv3.0.1/cv3.0.1.0/act/Mul_output_0_Mul_slope_table_bf16")
#loc390 = loc("/model.23/cv3.0/cv3.0.1/cv3.0.1.0/act/Mul_output_0_Mul/model.23/cv3.0/cv3.0.1/cv3.0.1.0/act/Mul_output_0_Mul_slope_slope_table_bf16")
#loc391 = loc("/model.23/cv3.0/cv3.0.1/cv3.0.1.0/act/Mul_output_0_Mul")
#loc392 = loc("model.23.cv3.0.1.1.conv.bias")
#loc393 = loc("/model.23/cv3.0/cv3.0.1/cv3.0.1.1/conv/Conv_output_0_Convmodel.23.cv3.0.1.1.conv.weight_bf16")
#loc394 = loc("/model.23/cv3.0/cv3.0.1/cv3.0.1.1/conv/Conv_output_0_Conv")
#loc395 = loc("/model.19/m.0/cv1/act/Mul_output_0_Mul/model.19/m.0/cv1/act/Mul_output_0_Mul_slope_table_bf16")
#loc396 = loc("/model.19/m.0/cv1/act/Mul_output_0_Mul/model.19/m.0/cv1/act/Mul_output_0_Mul_slope_slope_table_bf16")
#loc397 = loc("/model.19/m.0/cv1/act/Mul_output_0_Mul")
#loc398 = loc("model.19.m.0.cv2.conv.bias")
#loc399 = loc("/model.19/m.0/cv2/conv/Conv_output_0_Convmodel.19.m.0.cv2.conv.weight_bf16")
#loc400 = loc("/model.19/m.0/cv2/conv/Conv_output_0_Conv")
#loc401 = loc("/model.23/cv3.0/cv3.0.1/cv3.0.1.1/act/Mul_output_0_Mul/model.23/cv3.0/cv3.0.1/cv3.0.1.1/act/Mul_output_0_Mul_slope_table_bf16")
#loc402 = loc("/model.23/cv3.0/cv3.0.1/cv3.0.1.1/act/Mul_output_0_Mul/model.23/cv3.0/cv3.0.1/cv3.0.1.1/act/Mul_output_0_Mul_slope_slope_table_bf16")
#loc403 = loc("/model.23/cv3.0/cv3.0.1/cv3.0.1.1/act/Mul_output_0_Mul")
#loc404 = loc("model.23.cv3.0.2.bias")
#loc405 = loc("/model.23/cv3.0/cv3.0.2/Conv_output_0_Convmodel.23.cv3.0.2.weight_bf16")
#loc406 = loc("/model.23/cv3.0/cv3.0.2/Conv_output_0_Conv")
#loc407 = loc("/model.19/m.0/cv2/act/Mul_output_0_Mul/model.19/m.0/cv2/act/Mul_output_0_Mul_slope_table_bf16")
#loc408 = loc("/model.19/m.0/cv2/act/Mul_output_0_Mul/model.19/m.0/cv2/act/Mul_output_0_Mul_slope_slope_table_bf16")
#loc409 = loc("/model.19/m.0/cv2/act/Mul_output_0_Mul")
#loc410 = loc("/model.23/Concat_output_0_Concat")
#loc411 = loc("/model.19/m.0/Add_output_0_Add")
#loc412 = loc("/model.23/Reshape_output_0_Reshape")
#loc413 = loc("/model.19/Concat_output_0_Concat")
#loc414 = loc("model.19.cv2.conv.bias")
#loc415 = loc("/model.19/cv2/conv/Conv_output_0_Convmodel.19.cv2.conv.weight_bf16")
#loc416 = loc("/model.19/cv2/conv/Conv_output_0_Conv")
#loc417 = loc("/model.19/cv2/act/Mul_output_0_Mul/model.19/cv2/act/Mul_output_0_Mul_slope_table_bf16")
#loc418 = loc("/model.19/cv2/act/Mul_output_0_Mul/model.19/cv2/act/Mul_output_0_Mul_slope_slope_table_bf16")
#loc419 = loc("/model.19/cv2/act/Mul_output_0_Mul")
#loc420 = loc("model.20.conv.bias")
#loc421 = loc("/model.20/conv/Conv_output_0_Convmodel.20.conv.weight_bf16")
#loc422 = loc("/model.20/conv/Conv_output_0_Conv")
#loc423 = loc("model.23.cv2.1.0.conv.bias")
#loc424 = loc("/model.23/cv2.1/cv2.1.0/conv/Conv_output_0_Convmodel.23.cv2.1.0.conv.weight_bf16")
#loc425 = loc("/model.23/cv2.1/cv2.1.0/conv/Conv_output_0_Conv")
#loc426 = loc("model.23.cv3.1.0.0.conv.bias")
#loc427 = loc("/model.23/cv3.1/cv3.1.0/cv3.1.0.0/conv/Conv_output_0_Convmodel.23.cv3.1.0.0.conv.weight_bf16")
#loc428 = loc("/model.23/cv3.1/cv3.1.0/cv3.1.0.0/conv/Conv_output_0_Conv")
#loc429 = loc("/model.20/act/Mul_output_0_Mul/model.20/act/Mul_output_0_Mul_slope_table_bf16")
#loc430 = loc("/model.20/act/Mul_output_0_Mul/model.20/act/Mul_output_0_Mul_slope_slope_table_bf16")
#loc431 = loc("/model.20/act/Mul_output_0_Mul")
#loc432 = loc("/model.23/cv2.1/cv2.1.0/act/Mul_output_0_Mul/model.23/cv2.1/cv2.1.0/act/Mul_output_0_Mul_slope_table_bf16")
#loc433 = loc("/model.23/cv2.1/cv2.1.0/act/Mul_output_0_Mul/model.23/cv2.1/cv2.1.0/act/Mul_output_0_Mul_slope_slope_table_bf16")
#loc434 = loc("/model.23/cv2.1/cv2.1.0/act/Mul_output_0_Mul")
#loc435 = loc("/model.23/cv3.1/cv3.1.0/cv3.1.0.0/act/Mul_output_0_Mul/model.23/cv3.1/cv3.1.0/cv3.1.0.0/act/Mul_output_0_Mul_slope_table_bf16")
#loc436 = loc("/model.23/cv3.1/cv3.1.0/cv3.1.0.0/act/Mul_output_0_Mul/model.23/cv3.1/cv3.1.0/cv3.1.0.0/act/Mul_output_0_Mul_slope_slope_table_bf16")
#loc437 = loc("/model.23/cv3.1/cv3.1.0/cv3.1.0.0/act/Mul_output_0_Mul")
#loc438 = loc("/model.21/Concat_output_0_Concat")
#loc439 = loc("model.23.cv2.1.1.conv.bias")
#loc440 = loc("/model.23/cv2.1/cv2.1.1/conv/Conv_output_0_Convmodel.23.cv2.1.1.conv.weight_bf16")
#loc441 = loc("/model.23/cv2.1/cv2.1.1/conv/Conv_output_0_Conv")
#loc442 = loc("model.23.cv3.1.0.1.conv.bias")
#loc443 = loc("/model.23/cv3.1/cv3.1.0/cv3.1.0.1/conv/Conv_output_0_Convmodel.23.cv3.1.0.1.conv.weight_bf16")
#loc444 = loc("/model.23/cv3.1/cv3.1.0/cv3.1.0.1/conv/Conv_output_0_Conv")
#loc445 = loc("model.22.cv1.conv.bias")
#loc446 = loc("/model.22/cv1/conv/Conv_output_0_Convmodel.22.cv1.conv.weight_bf16")
#loc447 = loc("/model.22/cv1/conv/Conv_output_0_Conv")
#loc448 = loc("/model.23/cv2.1/cv2.1.1/act/Mul_output_0_Mul/model.23/cv2.1/cv2.1.1/act/Mul_output_0_Mul_slope_table_bf16")
#loc449 = loc("/model.23/cv2.1/cv2.1.1/act/Mul_output_0_Mul/model.23/cv2.1/cv2.1.1/act/Mul_output_0_Mul_slope_slope_table_bf16")
#loc450 = loc("/model.23/cv2.1/cv2.1.1/act/Mul_output_0_Mul")
#loc451 = loc("/model.23/cv3.1/cv3.1.0/cv3.1.0.1/act/Mul_output_0_Mul/model.23/cv3.1/cv3.1.0/cv3.1.0.1/act/Mul_output_0_Mul_slope_table_bf16")
#loc452 = loc("/model.23/cv3.1/cv3.1.0/cv3.1.0.1/act/Mul_output_0_Mul/model.23/cv3.1/cv3.1.0/cv3.1.0.1/act/Mul_output_0_Mul_slope_slope_table_bf16")
#loc453 = loc("/model.23/cv3.1/cv3.1.0/cv3.1.0.1/act/Mul_output_0_Mul")
#loc454 = loc("/model.22/cv1/act/Mul_output_0_Mul/model.22/cv1/act/Mul_output_0_Mul_slope_table_bf16")
#loc455 = loc("/model.22/cv1/act/Mul_output_0_Mul/model.22/cv1/act/Mul_output_0_Mul_slope_slope_table_bf16")
#loc456 = loc("/model.22/cv1/act/Mul_output_0_Mul")
#loc457 = loc("model.23.cv2.1.2.bias")
#loc458 = loc("/model.23/cv2.1/cv2.1.2/Conv_output_0_Convmodel.23.cv2.1.2.weight_bf16")
#loc459 = loc("/model.23/cv2.1/cv2.1.2/Conv_output_0_Conv")
#loc460 = loc("model.23.cv3.1.1.0.conv.bias")
#loc461 = loc("/model.23/cv3.1/cv3.1.1/cv3.1.1.0/conv/Conv_output_0_Convmodel.23.cv3.1.1.0.conv.weight_bf16")
#loc462 = loc("/model.23/cv3.1/cv3.1.1/cv3.1.1.0/conv/Conv_output_0_Conv")
#loc463 = loc("/model.22/Split_output_0_Split")
#loc464 = loc("/model.22/Split_output_1_Split")
#loc465 = loc("model.22.m.0.cv1.conv.bias")
#loc466 = loc("/model.22/m.0/cv1/conv/Conv_output_0_Convmodel.22.m.0.cv1.conv.weight_bf16")
#loc467 = loc("/model.22/m.0/cv1/conv/Conv_output_0_Conv")
#loc468 = loc("model.22.m.0.cv2.conv.bias")
#loc469 = loc("/model.22/m.0/cv2/conv/Conv_output_0_Convmodel.22.m.0.cv2.conv.weight_bf16")
#loc470 = loc("/model.22/m.0/cv2/conv/Conv_output_0_Conv")
#loc471 = loc("/model.23/cv3.1/cv3.1.1/cv3.1.1.0/act/Mul_output_0_Mul/model.23/cv3.1/cv3.1.1/cv3.1.1.0/act/Mul_output_0_Mul_slope_table_bf16")
#loc472 = loc("/model.23/cv3.1/cv3.1.1/cv3.1.1.0/act/Mul_output_0_Mul/model.23/cv3.1/cv3.1.1/cv3.1.1.0/act/Mul_output_0_Mul_slope_slope_table_bf16")
#loc473 = loc("/model.23/cv3.1/cv3.1.1/cv3.1.1.0/act/Mul_output_0_Mul")
#loc474 = loc("model.23.cv3.1.1.1.conv.bias")
#loc475 = loc("/model.23/cv3.1/cv3.1.1/cv3.1.1.1/conv/Conv_output_0_Convmodel.23.cv3.1.1.1.conv.weight_bf16")
#loc476 = loc("/model.23/cv3.1/cv3.1.1/cv3.1.1.1/conv/Conv_output_0_Conv")
#loc477 = loc("/model.22/m.0/cv1/act/Mul_output_0_Mul/model.22/m.0/cv1/act/Mul_output_0_Mul_slope_table_bf16")
#loc478 = loc("/model.22/m.0/cv1/act/Mul_output_0_Mul/model.22/m.0/cv1/act/Mul_output_0_Mul_slope_slope_table_bf16")
#loc479 = loc("/model.22/m.0/cv1/act/Mul_output_0_Mul")
#loc480 = loc("/model.22/m.0/cv2/act/Mul_output_0_Mul/model.22/m.0/cv2/act/Mul_output_0_Mul_slope_table_bf16")
#loc481 = loc("/model.22/m.0/cv2/act/Mul_output_0_Mul/model.22/m.0/cv2/act/Mul_output_0_Mul_slope_slope_table_bf16")
#loc482 = loc("/model.22/m.0/cv2/act/Mul_output_0_Mul")
#loc483 = loc("model.22.m.0.m.0.cv1.conv.bias")
#loc484 = loc("/model.22/m.0/m/m.0/cv1/conv/Conv_output_0_Convmodel.22.m.0.m.0.cv1.conv.weight_bf16")
#loc485 = loc("/model.22/m.0/m/m.0/cv1/conv/Conv_output_0_Conv")
#loc486 = loc("/model.23/cv3.1/cv3.1.1/cv3.1.1.1/act/Mul_output_0_Mul/model.23/cv3.1/cv3.1.1/cv3.1.1.1/act/Mul_output_0_Mul_slope_table_bf16")
#loc487 = loc("/model.23/cv3.1/cv3.1.1/cv3.1.1.1/act/Mul_output_0_Mul/model.23/cv3.1/cv3.1.1/cv3.1.1.1/act/Mul_output_0_Mul_slope_slope_table_bf16")
#loc488 = loc("/model.23/cv3.1/cv3.1.1/cv3.1.1.1/act/Mul_output_0_Mul")
#loc489 = loc("model.23.cv3.1.2.bias")
#loc490 = loc("/model.23/cv3.1/cv3.1.2/Conv_output_0_Convmodel.23.cv3.1.2.weight_bf16")
#loc491 = loc("/model.23/cv3.1/cv3.1.2/Conv_output_0_Conv")
#loc492 = loc("/model.22/m.0/m/m.0/cv1/act/Mul_output_0_Mul/model.22/m.0/m/m.0/cv1/act/Mul_output_0_Mul_slope_table_bf16")
#loc493 = loc("/model.22/m.0/m/m.0/cv1/act/Mul_output_0_Mul/model.22/m.0/m/m.0/cv1/act/Mul_output_0_Mul_slope_slope_table_bf16")
#loc494 = loc("/model.22/m.0/m/m.0/cv1/act/Mul_output_0_Mul")
#loc495 = loc("/model.23/Concat_1_output_0_Concat")
#loc496 = loc("model.22.m.0.m.0.cv2.conv.bias")
#loc497 = loc("/model.22/m.0/m/m.0/cv2/conv/Conv_output_0_Convmodel.22.m.0.m.0.cv2.conv.weight_bf16")
#loc498 = loc("/model.22/m.0/m/m.0/cv2/conv/Conv_output_0_Conv")
#loc499 = loc("/model.23/Reshape_1_output_0_Reshape")
#loc500 = loc("/model.22/m.0/m/m.0/cv2/act/Mul_output_0_Mul/model.22/m.0/m/m.0/cv2/act/Mul_output_0_Mul_slope_table_bf16")
#loc501 = loc("/model.22/m.0/m/m.0/cv2/act/Mul_output_0_Mul/model.22/m.0/m/m.0/cv2/act/Mul_output_0_Mul_slope_slope_table_bf16")
#loc502 = loc("/model.22/m.0/m/m.0/cv2/act/Mul_output_0_Mul")
#loc503 = loc("/model.22/m.0/m/m.0/Add_output_0_Add")
#loc504 = loc("model.22.m.0.m.1.cv1.conv.bias")
#loc505 = loc("/model.22/m.0/m/m.1/cv1/conv/Conv_output_0_Convmodel.22.m.0.m.1.cv1.conv.weight_bf16")
#loc506 = loc("/model.22/m.0/m/m.1/cv1/conv/Conv_output_0_Conv")
#loc507 = loc("/model.22/m.0/m/m.1/cv1/act/Mul_output_0_Mul/model.22/m.0/m/m.1/cv1/act/Mul_output_0_Mul_slope_table_bf16")
#loc508 = loc("/model.22/m.0/m/m.1/cv1/act/Mul_output_0_Mul/model.22/m.0/m/m.1/cv1/act/Mul_output_0_Mul_slope_slope_table_bf16")
#loc509 = loc("/model.22/m.0/m/m.1/cv1/act/Mul_output_0_Mul")
#loc510 = loc("model.22.m.0.m.1.cv2.conv.bias")
#loc511 = loc("/model.22/m.0/m/m.1/cv2/conv/Conv_output_0_Convmodel.22.m.0.m.1.cv2.conv.weight_bf16")
#loc512 = loc("/model.22/m.0/m/m.1/cv2/conv/Conv_output_0_Conv")
#loc513 = loc("/model.22/m.0/m/m.1/cv2/act/Mul_output_0_Mul/model.22/m.0/m/m.1/cv2/act/Mul_output_0_Mul_slope_table_bf16")
#loc514 = loc("/model.22/m.0/m/m.1/cv2/act/Mul_output_0_Mul/model.22/m.0/m/m.1/cv2/act/Mul_output_0_Mul_slope_slope_table_bf16")
#loc515 = loc("/model.22/m.0/m/m.1/cv2/act/Mul_output_0_Mul")
#loc516 = loc("/model.22/m.0/m/m.1/Add_output_0_Add")
#loc517 = loc("/model.22/m.0/Concat_output_0_Concat")
#loc518 = loc("model.22.m.0.cv3.conv.bias")
#loc519 = loc("/model.22/m.0/cv3/conv/Conv_output_0_Convmodel.22.m.0.cv3.conv.weight_bf16")
#loc520 = loc("/model.22/m.0/cv3/conv/Conv_output_0_Conv")
#loc521 = loc("/model.22/m.0/cv3/act/Mul_output_0_Mul/model.22/m.0/cv3/act/Mul_output_0_Mul_slope_table_bf16")
#loc522 = loc("/model.22/m.0/cv3/act/Mul_output_0_Mul/model.22/m.0/cv3/act/Mul_output_0_Mul_slope_slope_table_bf16")
#loc523 = loc("/model.22/m.0/cv3/act/Mul_output_0_Mul")
#loc524 = loc("/model.22/Concat_output_0_Concat")
#loc525 = loc("model.22.cv2.conv.bias")
#loc526 = loc("/model.22/cv2/conv/Conv_output_0_Convmodel.22.cv2.conv.weight_bf16")
#loc527 = loc("/model.22/cv2/conv/Conv_output_0_Conv")
#loc528 = loc("/model.22/cv2/act/Mul_output_0_Mul/model.22/cv2/act/Mul_output_0_Mul_slope_table_bf16")
#loc529 = loc("/model.22/cv2/act/Mul_output_0_Mul/model.22/cv2/act/Mul_output_0_Mul_slope_slope_table_bf16")
#loc530 = loc("/model.22/cv2/act/Mul_output_0_Mul")
#loc531 = loc("model.23.cv2.2.0.conv.bias")
#loc532 = loc("/model.23/cv2.2/cv2.2.0/conv/Conv_output_0_Convmodel.23.cv2.2.0.conv.weight_bf16")
#loc533 = loc("/model.23/cv2.2/cv2.2.0/conv/Conv_output_0_Conv")
#loc534 = loc("model.23.cv3.2.0.0.conv.bias")
#loc535 = loc("/model.23/cv3.2/cv3.2.0/cv3.2.0.0/conv/Conv_output_0_Convmodel.23.cv3.2.0.0.conv.weight_bf16")
#loc536 = loc("/model.23/cv3.2/cv3.2.0/cv3.2.0.0/conv/Conv_output_0_Conv")
#loc537 = loc("/model.23/cv2.2/cv2.2.0/act/Mul_output_0_Mul/model.23/cv2.2/cv2.2.0/act/Mul_output_0_Mul_slope_table_bf16")
#loc538 = loc("/model.23/cv2.2/cv2.2.0/act/Mul_output_0_Mul/model.23/cv2.2/cv2.2.0/act/Mul_output_0_Mul_slope_slope_table_bf16")
#loc539 = loc("/model.23/cv2.2/cv2.2.0/act/Mul_output_0_Mul")
#loc540 = loc("/model.23/cv3.2/cv3.2.0/cv3.2.0.0/act/Mul_output_0_Mul/model.23/cv3.2/cv3.2.0/cv3.2.0.0/act/Mul_output_0_Mul_slope_table_bf16")
#loc541 = loc("/model.23/cv3.2/cv3.2.0/cv3.2.0.0/act/Mul_output_0_Mul/model.23/cv3.2/cv3.2.0/cv3.2.0.0/act/Mul_output_0_Mul_slope_slope_table_bf16")
#loc542 = loc("/model.23/cv3.2/cv3.2.0/cv3.2.0.0/act/Mul_output_0_Mul")
#loc543 = loc("model.23.cv2.2.1.conv.bias")
#loc544 = loc("/model.23/cv2.2/cv2.2.1/conv/Conv_output_0_Convmodel.23.cv2.2.1.conv.weight_bf16")
#loc545 = loc("/model.23/cv2.2/cv2.2.1/conv/Conv_output_0_Conv")
#loc546 = loc("model.23.cv3.2.0.1.conv.bias")
#loc547 = loc("/model.23/cv3.2/cv3.2.0/cv3.2.0.1/conv/Conv_output_0_Convmodel.23.cv3.2.0.1.conv.weight_bf16")
#loc548 = loc("/model.23/cv3.2/cv3.2.0/cv3.2.0.1/conv/Conv_output_0_Conv")
#loc549 = loc("/model.23/cv2.2/cv2.2.1/act/Mul_output_0_Mul/model.23/cv2.2/cv2.2.1/act/Mul_output_0_Mul_slope_table_bf16")
#loc550 = loc("/model.23/cv2.2/cv2.2.1/act/Mul_output_0_Mul/model.23/cv2.2/cv2.2.1/act/Mul_output_0_Mul_slope_slope_table_bf16")
#loc551 = loc("/model.23/cv2.2/cv2.2.1/act/Mul_output_0_Mul")
#loc552 = loc("/model.23/cv3.2/cv3.2.0/cv3.2.0.1/act/Mul_output_0_Mul/model.23/cv3.2/cv3.2.0/cv3.2.0.1/act/Mul_output_0_Mul_slope_table_bf16")
#loc553 = loc("/model.23/cv3.2/cv3.2.0/cv3.2.0.1/act/Mul_output_0_Mul/model.23/cv3.2/cv3.2.0/cv3.2.0.1/act/Mul_output_0_Mul_slope_slope_table_bf16")
#loc554 = loc("/model.23/cv3.2/cv3.2.0/cv3.2.0.1/act/Mul_output_0_Mul")
#loc555 = loc("model.23.cv2.2.2.bias")
#loc556 = loc("/model.23/cv2.2/cv2.2.2/Conv_output_0_Convmodel.23.cv2.2.2.weight_bf16")
#loc557 = loc("/model.23/cv2.2/cv2.2.2/Conv_output_0_Conv")
#loc558 = loc("model.23.cv3.2.1.0.conv.bias")
#loc559 = loc("/model.23/cv3.2/cv3.2.1/cv3.2.1.0/conv/Conv_output_0_Convmodel.23.cv3.2.1.0.conv.weight_bf16")
#loc560 = loc("/model.23/cv3.2/cv3.2.1/cv3.2.1.0/conv/Conv_output_0_Conv")
#loc561 = loc("/model.23/cv3.2/cv3.2.1/cv3.2.1.0/act/Mul_output_0_Mul/model.23/cv3.2/cv3.2.1/cv3.2.1.0/act/Mul_output_0_Mul_slope_table_bf16")
#loc562 = loc("/model.23/cv3.2/cv3.2.1/cv3.2.1.0/act/Mul_output_0_Mul/model.23/cv3.2/cv3.2.1/cv3.2.1.0/act/Mul_output_0_Mul_slope_slope_table_bf16")
#loc563 = loc("/model.23/cv3.2/cv3.2.1/cv3.2.1.0/act/Mul_output_0_Mul")
#loc564 = loc("model.23.cv3.2.1.1.conv.bias")
#loc565 = loc("/model.23/cv3.2/cv3.2.1/cv3.2.1.1/conv/Conv_output_0_Convmodel.23.cv3.2.1.1.conv.weight_bf16")
#loc566 = loc("/model.23/cv3.2/cv3.2.1/cv3.2.1.1/conv/Conv_output_0_Conv")
#loc567 = loc("/model.23/cv3.2/cv3.2.1/cv3.2.1.1/act/Mul_output_0_Mul/model.23/cv3.2/cv3.2.1/cv3.2.1.1/act/Mul_output_0_Mul_slope_table_bf16")
#loc568 = loc("/model.23/cv3.2/cv3.2.1/cv3.2.1.1/act/Mul_output_0_Mul/model.23/cv3.2/cv3.2.1/cv3.2.1.1/act/Mul_output_0_Mul_slope_slope_table_bf16")
#loc569 = loc("/model.23/cv3.2/cv3.2.1/cv3.2.1.1/act/Mul_output_0_Mul")
#loc570 = loc("model.23.cv3.2.2.bias")
#loc571 = loc("/model.23/cv3.2/cv3.2.2/Conv_output_0_Convmodel.23.cv3.2.2.weight_bf16")
#loc572 = loc("/model.23/cv3.2/cv3.2.2/Conv_output_0_Conv")
#loc573 = loc("/model.23/Concat_2_output_0_Concat")
#loc574 = loc("/model.23/Reshape_2_output_0_Reshape")
#loc575 = loc("/model.23/Concat_3_output_0_Concat")
#loc576 = loc("/model.23/Split_output_0_Split")
#loc577 = loc("/model.23/Split_output_1_Split")
#loc578 = loc("/model.23/dfl/Reshape_output_0_Reshape")
#loc579 = loc("/model.23/Sigmoid_output_0_Sigmoid/model.23/Sigmoid_output_0_Sigmoid_slope_table_bf16")
#loc580 = loc("/model.23/Sigmoid_output_0_Sigmoid/model.23/Sigmoid_output_0_Sigmoid_slope_slope_table_bf16")
#loc581 = loc("/model.23/Sigmoid_output_0_Sigmoid")
#loc582 = loc("/model.23/Sigmoid_output_0_Sigmoid_f32")
#loc583 = loc("/model.23/dfl/Transpose_output_0_Transpose")
#loc584 = loc("/model.23/dfl/Softmax_output_0_Softmax/model.23/dfl/Softmax_output_0_Softmax_slope_table_bf16")
#loc585 = loc("/model.23/dfl/Softmax_output_0_Softmax/model.23/dfl/Softmax_output_0_Softmax_slope_slope_table_bf16")
#loc586 = loc("/model.23/dfl/Softmax_output_0_Softmax/model.23/dfl/Softmax_output_0_Softmax_pow_table_bf16")
#loc587 = loc("/model.23/dfl/Softmax_output_0_Softmax/model.23/dfl/Softmax_output_0_Softmax_pow_mantissa_table_bf16")
#loc588 = loc("/model.23/dfl/Softmax_output_0_Softmax")
#loc589 = loc("/model.23/dfl/conv/Conv_output_0_Convmodel.23.dfl.conv.weight_bf16")
#loc590 = loc("/model.23/dfl/conv/Conv_output_0_Conv")
#loc591 = loc("/model.23/dfl/conv/Conv_output_0_Conv_f32")

